models/ck_plus_best_model.pth (torch, 165347 bytes, 26 tensors)

layer_stack_1.0.weight f4 [20, 3, 3, 3]
0	0xbe4510ed	-0.19244738
1	0x3d69fcfc	0.05712603
2	0xbd8d73c1	-0.06906844
3	0x3e3132f8	0.173046
4	0x3d802d29	0.062586136
5	0xbd8ed961	-0.069750555
6	0x3e388e67	0.18023072
7	0x3e20e97e	0.1571407
8	0xbc6d87c9	-0.014497706
9	0xbdda44b2	-0.10657634
10	0xbdc16cee	-0.09444605
11	0x3d95b197	0.07309263
12	0xbdf6feda	-0.12060328
13	0x3dba6a1a	0.091022685
14	0xbd7f626c	-0.06234972
15	0xbe0dc7f3	-0.13845806
16	0x3df0640e	0.11737834
17	0xbe12b30b	-0.14326112
18	0xbdd941e0	-0.10608268
19	0x3ce0fc13	0.027463948
20	0x3e4a1ec6	0.19738302
21	0xbd60db55	-0.05489667
22	0xbcdda643	-0.027056819
23	0x3dd041a4	0.1016877
24	0xbd9fcd4c	-0.07802829
25	0xbcf5f6c4	-0.030024894
26	0xbe2d14a6	-0.16902408
27	0x3c31103a	0.010807091
28	0xbd7fce6c	-0.06245272
29	0xbb91c2e6	-0.0044482825
30	0xbe029399	-0.12751617
31	0x3d3402df	0.04394805
32	0xbe055c51	-0.13023497
33	0x3d344e4b	0.04401998
34	0x3de058f3	0.10954466
35	0x3e0bad55	0.1364034
36	0xbb4227f2	-0.002962586
37	0xbcee957f	-0.02912402
38	0x3d99e848	0.07515007
39	0xbe316cc3	-0.17326646
40	0xbd39c402	-0.045352943
41	0x3e1eb5de	0.15499064
42	0xbcb4b53d	-0.022059077
43	0xbc44bcb4	-0.012007881
44	0xbdeac123	-0.11462619
45	0x3e036e3a	0.12835017
46	0x3e41c338	0.18922126
47	0xbd816cfa	-0.06319614
48	0x3daf97bc	0.08573863
49	0x3e45b6bd	0.1930799
50	0xbddccb46	-0.10780959
51	0xbe331741	-0.1748934
52	0xbe26a8fc	-0.162754
53	0xbce1e695	-0.02757577
54	0x3cd5f2f6	0.02611683
55	0xbdc9b823	-0.098495744
56	0xbdf532aa	-0.11972554
57	0xbe1c4646	-0.15261182
58	0xbc4056fe	-0.011739491
59	0x3dbd5733	0.092451476
60	0xbdf2f2be	-0.11862706
61	0x3d8a0a1d	0.0674021
62	0x3d5fd0d8	0.05464253
63	0x3caa4061	0.020782651
64	0x3dc36e18	0.09542483
65	0xbd4ca5c1	-0.049962763
66	0xbd9d6184	-0.07684615
67	0xbddbf37a	-0.10739799
68	0xbe38877e	-0.18020436
69	0x3d517645	0.05113818
70	0xbcac30d9	-0.021019386
71	0x3e0bbdbf	0.13646601
72	0x3d4cb852	0.04998047
73	0x3d5d0713	0.053961825
74	0xbe177d0f	-0.147938
75	0xbc27bd10	-0.010237947
76	0xbd85148f	-0.06498062
77	0x3d832ed1	0.06405414
78	0xbdeeba20	-0.11656594
79	0x3e41804d	0.18896599
80	0xbdaa870f	-0.08326542
81	0xbdead3a6	-0.1146615
82	0x3d826c00	0.063682556
83	0x3e0fe7e3	0.14053302
84	0x3ac74663	0.0015203472
85	0x3de7ebf8	0.11324304
86	0x3d8b45ee	0.068004474
87	0x3d3a7571	0.045522157
88	0xbd9c88c9	-0.07643277
89	0xbe36c636	-0.17849049
90	0x3e1d5c71	0.15367295
91	0x3d8416ad	0.064496376
92	0xbe2c8785	-0.16848572
93	0x3e013d5d	0.12621064
94	0xbe121ab1	-0.14267994
95	0xbe4220f2	-0.1895788
96	0x3dd8ebf1	0.10591877
97	0x3c9f3c74	0.019438006
98	0x3dd5ab39	0.10433049
99	0x3d3f70d6	0.046738468
100	0x3defd6ae	0.11710869
101	0x3e374cb6	0.17900357
102	0xbe0066b6	-0.12539181
103	0xbd45bd7e	-0.048276417
104	0xbe11e332	-0.14246824
105	0x3e09f25d	0.1347136
106	0xbe137ea3	-0.14403777
107	0x3de00c58	0.109398544
108	0xbe19ad26	-0.15007457
109	0x3e34080f	0.17581199
110	0xbcbe7b84	-0.023252256
111	0xbe0ea397	-0.13929592
112	0xbe3da26d	-0.18518992
113	0x3d3fffa3	0.046874654
114	0xbcf6d083	-0.030128723
115	0x3d6426df	0.055701133
116	0x3e3c30b8	0.1837796
117	0xbde3b076	-0.11117642
118	0xbd3077eb	-0.043083113
119	0xbe448c99	-0.19194259
120	0xbe2ab004	-0.16668707
121	0xbe1d9149	-0.15387453
122	0x3d618ecd	0.055067826
123	0xbe3122c7	-0.17298423
124	0x3d4caa0e	0.049966864
125	0xbe081286	-0.13288316
126	0xbdc2c0e3	-0.095094465
127	0x3e367150	0.17816663
128	0xbde26945	-0.11055235
129	0xbe1b9775	-0.15194495
130	0x3d98a688	0.07453638
131	0xbd9a311b	-0.075288974
132	0x3d540b0a	0.05176834
133	0xbcd45705	-0.0259204
134	0x3e2bc2b0	0.16773486
135	0x3e2fd31d	0.17170377
136	0x3d594fae	0.053054504
137	0xbde95fb8	-0.1139521
138	0xbe042fea	-0.12908903
139	0x3d185b0d	0.037196208
140	0xbd6861f7	-0.05673405
141	0xbde34b9a	-0.11098404
142	0x3d27179f	0.04079401
143	0x3c89f593	0.016840732
144	0x3dc523c0	0.096259594
145	0x3d7d2f26	0.061812542
146	0x3e3526a7	0.17690526
147	0xbdeec690	-0.116589665
148	0x3e1038a0	0.140841
149	0x3e413d62	0.18871072
150	0x3dd2c074	0.10290614
151	0x3cfbf688	0.030757204
152	0x3e146178	0.14490306
153	0xbe04feb4	-0.12987787
154	0x3d4f228e	0.050570063
155	0xbd9fa614	-0.07795349
156	0xbd466d1d	-0.048443902
157	0xbe3bbcd8	-0.18333757
158	0x3dd6f71a	0.1049635
159	0xbe2ffa71	-0.1718538
160	0x3e0fa4bc	0.14027685
161	0x3d711e22	0.058866628
162	0xbd64e757	-0.055884685
163	0xbc154bf8	-0.009112351
164	0xbe0ace1f	-0.13555191
165	0x3e25b5f9	0.16182698
166	0xbd3c0834	-0.04590626
167	0x3d363efb	0.044493657
168	0xbe3241b6	-0.17407879
169	0xbcbcf2ab	-0.023064932
170	0x3c687860	0.014188856
171	0xbcf76d0e	-0.030203369
172	0xbe3c8283	-0.18409161
173	0x3ce4b192	0.027916703
174	0x3e0c312b	0.13690631
175	0xbd38fbe4	-0.045162097
176	0x3e11e19b	0.14246218
177	0x3d6209b4	0.055185035
178	0x3d82ce8d	0.06387053
179	0xbcf4da06	-0.029889118
180	0x3e41c9dc	0.1892466
181	0xbddfe4c5	-0.10932306
182	0x3d48db94	0.04903753
183	0xbe0299f7	-0.12754045
184	0x3e4b1596	0.19832453
185	0xbde87a5d	-0.11351464
186	0x3db83b29	0.08995659
187	0xbbb32e4f	-0.005468167
188	0xbdca704a	-0.09884699
189	0xbe17091d	-0.1474957
190	0xbc785135	-0.01515608
191	0xbd6c48ff	-0.057686802
192	0xbdf5adf2	-0.11996068
193	0x3db21f3f	0.08697366
194	0x3e0c7814	0.13717681
195	0x3dc500ab	0.09619268
196	0xbdb542a6	-0.08850603
197	0xbd71e1fd	-0.05905341
198	0x3d0521aa	0.032502808
199	0x3d320880	0.043465137
200	0xbe0217e5	-0.12704428
201	0x3dfa617a	0.122256234
202	0x3e38d19d	0.18048711
203	0xbdcca0b6	-0.09991591
204	0x3da5fb2e	0.08104549
205	0xb8fe4ed9	-0.0001212635
206	0xbdedd4d7	-0.116128616
207	0x3cd42222	0.025895182
208	0xbe06053c	-0.13087934
209	0x3e39dde5	0.18151052
210	0xbd736d28	-0.05943027
211	0xbdd4415f	-0.10364031
212	0xbe3e7323	-0.18598609
213	0x3d11e1a6	0.035615586
214	0x3db0b8ca	0.08628996
215	0x3e1a5c17	0.15074192
216	0x3de7bab5	0.113149084
217	0x3dfde0f1	0.1239642
218	0x3dd56c11	0.10421003
219	0x3d8c60f8	0.06854433
220	0xbdd66bc0	-0.104697704
221	0xbe095264	-0.13410336
222	0x3d28faa2	0.041254647
223	0x3bb483d3	0.0055088787
224	0x3d6ffa19	0.05858812
225	0x3deaffa6	0.11474542
226	0xbde355be	-0.111003384
227	0xbd20d24f	-0.039263066
228	0x3b086fe5	0.0020818647
229	0xbc8d99bb	-0.017285218
230	0xbe20d98e	-0.1570799
231	0x3e122a72	0.14274004
232	0x3de390a3	0.11111572
233	0xbe0bf592	-0.13667896
234	0x3ce7ae88	0.028281465
235	0x3ca2e8e9	0.01988645
236	0x3dec9ba9	0.11553127
237	0x3e1da705	0.15395744
238	0x3da8a7c1	0.082351215
239	0x3ded67ea	0.11592086
240	0x3e373d81	0.17894556
241	0xbe31955a	-0.1734213
242	0xbe04e2b6	-0.12977108
243	0x3d86aa6c	0.06575474
244	0x3de4550d	0.11149035
245	0xbcb94b78	-0.022618994
246	0x3e2284f8	0.15871036
247	0x3d694433	0.056949805
248	0x3e2b9403	0.1675568
249	0x3be39c0c	0.0069460925
250	0x3d81a8af	0.06331002
251	0x3cc38e43	0.023871547
252	0x3e3f278d	0.18667431
253	0x3e2e3201	0.17011262
254	0x3c799900	0.015234232
255	0xbde59be7	-0.11211377

layer_stack_1.0.bias f4 [20]
0	0x3d4cb75d	0.049979556
1	0x3d8c2725	0.06843404
2	0xbe3db269	-0.1852509
3	0x3d8c491a	0.068498805
4	0x3cd51b90	0.02601412
5	0x3d18b566	0.03728237
6	0x3b57d18c	0.0032931296
7	0x3c00caba	0.007860834
8	0x3e09e2eb	0.13465469
9	0x3c5adc8c	0.013358247
10	0x3ddbc47d	0.107308365
11	0x3d0d01b1	0.03442544
12	0x3e26accf	0.16276859
13	0xbdcae80b	-0.0990754
14	0xbd73cd6f	-0.05952209
15	0x3dfc97e6	0.1233366
16	0xbc5dd5df	-0.01353976
17	0x3e30f907	0.17282496
18	0xbd64248d	-0.05569892
19	0xbdd32379	-0.103095

layer_stack_1.1.weight f4 [20, 20, 3, 3]
0	0xbc2d2ad1	-0.01056929
1	0xbd610712	-0.054938383
2	0xbccb0f29	-0.024787502
3	0xbd89ebea	-0.0673445
4	0x3d999e81	0.07500935
5	0x3d75932a	0.0599548
6	0x3ce87348	0.028375283
7	0x3cd30edd	0.025763923
8	0xbc181e4f	-0.00928457
9	0xbd0417c1	-0.032249216
10	0xbd7f3eb2	-0.06231565
11	0xbc926cfd	-0.017874235
12	0xbbffde08	-0.0078084506
13	0x3d5ab44b	0.053394597
14	0x3d25d04b	0.040481847
15	0xbce49cb0	-0.027906746
16	0xbd0b1e2b	-0.033964317
17	0xbcdcb3cf	-0.026941208
18	0x3c777aeb	0.0151049895
19	0x3d878c80	0.06618595
20	0x3cc418a8	0.023937538
21	0x3d602a03	0.054727565
22	0x3b05ddcf	0.0020426398
23	0xbd2573a2	-0.04039348
24	0xbc1a7473	-0.009427178
25	0xbd2a69e1	-0.04160488
26	0x3d0f0103	0.034913074
27	0xbc4404d4	-0.011964042
28	0x3d3f39e2	0.04668606
29	0xbd62b721	-0.055350427
30	0x3c54e6fd	0.012994525
31	0x3d76381c	0.060112104
32	0xbd92526c	-0.07144627
33	0x3c9e542a	0.019327242
34	0x3d0be955	0.03415807
35	0x3d766e48	0.060163766
36	0x3cb82aaf	0.02248129
37	0x3c4d6388	0.012535937
38	0xbd6c836c	-0.05774252
39	0x3b8d0479	0.0043035117
40	0x3d917395	0.07102124
41	0xbd20f352	-0.03929455
42	0xbc92c6af	-0.017917005
43	0xbd144183	-0.03619529
44	0xbcfeafc6	-0.031089675
45	0xbd3f84b2	-0.046757407
46	0x3d659b35	0.05605622
47	0x3db653b0	0.08902681
48	0xb9fd4d02	-0.00048313296
49	0xbbf53001	-0.007482529
50	0x3d3f8fa8	0.04676786
51	0xbd1a41bc	-0.037660345
52	0xbcdc2829	-0.026874619
53	0xbd40a75a	-0.0470346
54	0x3ca48744	0.02008403
55	0xbc175770	-0.009237155
56	0x3d8c3992	0.06846918
57	0xbd57f3db	-0.052722793
58	0x3a1652e4	0.00057343976
59	0xbc72db54	-0.0148228
60	0xbd6ad390	-0.057330668
61	0x3d878351	0.066168435
62	0x3cc575ef	0.024104087
63	0x3c731528	0.014836587
64	0xbd33396f	-0.043755945
65	0x3d50b7c7	0.050956514
66	0x3d76aec4	0.060225263
67	0x3d340b73	0.04395623
68	0x3d0eff77	0.0349116
69	0x3cad1865	0.021129796
70	0xbd30c204	-0.043153778
71	0xbd8758cb	-0.06608733
72	0xbd57cef1	-0.05268759
73	0x3cf3a05a	0.029739548
74	0xbb2394d2	-0.002496053
75	0xbca5c1a4	-0.020233937
76	0x3d6c4654	0.057684258
77	0xbcd7f93b	-0.02636396
78	0x3d2e543b	0.042560797
79	0x3c50385d	0.012708751
80	0x3d74036f	0.059573587
81	0x3cebbcc6	0.028776538
82	0xbd6f6d22	-0.058453687
83	0x3b472be1	0.0030391144
84	0x3d487684	0.04894115
85	0xbd0a6ac0	-0.03379321
86	0x3d25756d	0.04039519
87	0xbc804b67	-0.015660955
88	0x3be902b7	0.0071109193
89	0xbcc1c8be	-0.023655292
90	0xbd744714	-0.059638098
91	0xbca08b51	-0.019597681
92	0xbd97946a	-0.074013546
93	0xbd5565c2	-0.052098997
94	0x3d5ff253	0.054674458
95	0xbd1f8336	-0.038943492
96	0x3d9e8fd2	0.07742275
97	0xbbcbaf6d	-0.0062159807
98	0x3c7eedf1	0.015559659
99	0x3d67ddc1	0.056607965
100	0xbb84baea	-0.004050602
101	0xbd154835	-0.036445815
102	0x3d8fe6c0	0.07026434
103	0x3c950918	0.018192813
104	0x3c80ab5d	0.015706712
105	0xbd8bb4d6	-0.06821601
106	0x3d841956	0.06450145
107	0x3bd83478	0.0065980516
108	0xbd10b527	-0.03532901
109	0x3d8fe13b	0.07025381
110	0xbd157c3f	-0.036495443
111	0xbd81266f	-0.06306159
112	0x3ca451d3	0.020058548
113	0x3d9b0f33	0.075712584
114	0xbcfdb49a	-0.030969907
115	0xbd843c54	-0.06456819
116	0x3d5b29fc	0.053506836
117	0xbd96b521	-0.07358766
118	0x3d5b84b9	0.05359337
119	0x3d42b76f	0.047538217
120	0x3d773dbe	0.060361616
121	0xbc80b93a	-0.015713323
122	0xbd35247e	-0.044224255
123	0xbc96eb34	-0.0184227
124	0xbcd5f074	-0.026115634
125	0x3d56c805	0.052436847
126	0xbd8c0931	-0.068376906
127	0xbd7a54cf	-0.061116036
128	0x3a0afdf3	0.00053021236
129	0xbd6a35bf	-0.057180163
130	0xbd8ab400	-0.067726135
131	0x3d74bbc8	0.059749395
132	0x3ca35b7f	0.01994109
133	0x3cb76020	0.022384703
134	0x3cb8b570	0.022547454
135	0x3c8d3cf8	0.017240986
136	0xbd85bcd7	-0.06530159
137	0x3b1726c7	0.0023063885
138	0x3cf92dbd	0.030417318
139	0x3d7fc4c2	0.062443502
140	0x3d7e5735	0.062094886
141	0x3cdbc071	0.026825162
142	0xbccf65a2	-0.025317017
143	0xbce0fd4a	-0.027464528
144	0x3cefe801	0.029285433
145	0xbd462c5a	-0.04838214
146	0xbd0aee89	-0.03391889
147	0x3c1e28dc	0.009653296
148	0x3cf74c4d	0.03018775
149	0xbd334a0f	-0.0437718
150	0xbd087ace	-0.03332024
151	0xbc5a28ba	-0.013315374
152	0xbd264a3c	-0.04059814
153	0xbbcd7294	-0.0062697623
154	0x3ca51d5b	0.0201556
155	0x3d0a11ea	0.03370849
156	0xbd8ee44d	-0.06977139
157	0xbd6b3bbd	-0.057430018
158	0xbd8941b0	-0.06701982
159	0xbd1339ba	-0.035943724
160	0xbd7011d4	-0.058610752
161	0x3d3a77d8	0.04552445
162	0x3cea85d0	0.02862826
163	0xbc8f1036	-0.017463785
164	0xbc2fb754	-0.010724861
165	0xbb433ca4	-0.0029790783
166	0xbd4dc36f	-0.050235208
167	0x3d832f4f	0.06405508
168	0x3bb7cc09	0.0056090397
169	0xbc936b86	-0.017995607
170	0x3d773bc1	0.06035972
171	0xbd3e36df	-0.046439048
172	0x3c8594c1	0.016306283
173	0x3c00dcce	0.007865144
174	0xbd58b34d	-0.05290537
175	0xba1391bf	-0.0005629323
176	0x3d2dec30	0.042461574
177	0x3da04395	0.0782539
178	0x3c9571e8	0.018242791
179	0x3d7b7961	0.061395053
180	0x3d968095	0.07348744
181	0xbc2664d8	-0.010155879
182	0x396d131a	0.00022609197
183	0xbd6a68cf	-0.05722886
184	0xbd8563c2	-0.06513168
185	0x3c24dbb6	0.010062149
186	0x3d62abb0	0.055339515
187	0xbd1a1a70	-0.03762287
188	0xbd9919b6	-0.07475607
189	0x3d02c9e5	0.031930823
190	0xb9445527	-0.00018723738
191	0x3d2d3d71	0.042294923
192	0x3d959eb2	0.07305659
193	0xbbfb0a28	-0.007661123
194	0x3d8e5f23	0.0695174
195	0xbcc74182	-0.024323229
196	0x3d369433	0.044574928
197	0xbcc41d26	-0.02393968
198	0xbd47a58a	-0.048741855
199	0xbd0b3bd8	-0.03399262
200	0x3cbc06a3	0.022952383
201	0xbcfe3ece	-0.031035807
202	0xbd262b82	-0.040568836
203	0xbd58a6ca	-0.052893437
204	0x3cb25500	0.021769047
205	0xbd2f95b5	-0.04286738
206	0xbc82d362	-0.015969936
207	0xbd1d1a7e	-0.038355343
208	0xbd98dbb1	-0.07463778
209	0x3c2cb76b	0.010541777
210	0xbc4eefc6	-0.012630409
211	0x3c100e54	0.008792479
212	0xbc932f68	-0.017966941
213	0x3d775715	0.060385782
214	0x3d3e40ae	0.046448402
215	0x3d7ee067	0.062225726
216	0xbd3b8d5b	-0.045789104
217	0xbd850968	-0.06495935
218	0x3d9f3e9e	0.07775615
219	0xbc01db10	-0.007925764
220	0x3c76a14a	0.015053103
221	0x3d3ab1c4	0.045579687
222	0xbbea74a9	-0.0071550203
223	0xbd99fb75	-0.07518665
224	0xbc3f6c45	-0.011683528
225	0xbcdd5e76	-0.027022582
226	0x3d26a8af	0.040688213
227	0x3b8ffb87	0.004393998
228	0xbd8374dd	-0.06418774
229	0x3d89f11a	0.067354396
230	0xbd6cbe8b	-0.057798903
231	0xbd82aa46	-0.06380133
232	0xbd56f819	-0.052482698
233	0x3d4e4c41	0.05036569
234	0x3c5fac90	0.013651982
235	0x3d75000f	0.05981451
236	0x3ca74b88	0.020421758
237	0x3d81f756	0.06346004
238	0xbd8d01ea	-0.06885131
239	0x3cd49364	0.025949188
240	0xbd633030	-0.055465877
241	0xbd0a046f	-0.033695634
242	0xbd8615b5	-0.06547109
243	0xbd8c761f	-0.06858467
244	0x3d031618	0.032003492
245	0x3d1755b5	0.03694697
246	0xbd33141a	-0.043720342
247	0x3c2886c7	0.01028604
248	0x3d93914f	0.0720545
249	0x3cf78914	0.030216731
250	0xbc84c381	-0.016206505
251	0xbd8687d4	-0.06568876
252	0xbca9d0f9	-0.020729529
253	0x3d0f0152	0.03491337
254	0x3ba8ce74	0.0051515643
255	0xbcf33473	-0.029688096

layer_stack_1.1.bias f4 [20]
0	0xbbf43a98	-0.007453274
1	0xbd1d2805	-0.038368244
2	0x3c7c070a	0.015382538
3	0x3cec454d	0.028841639
4	0xbd1b61d8	-0.037935108
5	0xbceb245f	-0.028703867
6	0x3d3a1263	0.04542769
7	0xbd82c8cd	-0.06385956
8	0x3d8c8fa1	0.068633325
9	0x3d8809b7	0.06642478
10	0xbc38c503	-0.01127744
11	0x3d356bf4	0.044292405
12	0x3d3057de	0.043052547
13	0x3c333199	0.010937118
14	0x3bf71f8e	0.0075416034
15	0x3d21ac1f	0.039470788
16	0x3d58d3a0	0.052936196
17	0x3d713639	0.0588896
18	0xbb4a2a7f	-0.0030848084
19	0xba6a5b49	-0.0008939994

layer_stack_1.2.weight f4 [20]
0	0x3f8077ef	1.0036601
1	0x3f80bc2d	1.0057427
2	0x3f802eb2	1.001425
3	0x3f803b6a	1.0018132
4	0x3f8025b1	1.0011503
5	0x3f7faf06	0.9987644
6	0x3f7f1201	0.99636847
7	0x3f7f1602	0.99642956
8	0x3f7f3509	0.996903
9	0x3f80575e	1.0026662
10	0x3f80aa68	1.0052004
11	0x3f7ec09d	0.99512655
12	0x3f7ff276	0.9997934
13	0x3f8019c5	1.0007864
14	0x3f7f88af	0.9981794
15	0x3f7fe6cd	0.9996155
16	0x3f7e8a48	0.9942975
17	0x3f8069b7	1.0032262
18	0x3f801f4a	1.0009549
19	0x3f7fc947	0.999165

layer_stack_1.2.bias f4 [20]
0	0xba4380e3	-0.0007457865
1	0xba046535	-0.00050504814
2	0xbb3e108c	-0.0029001562
3	0xbc27a4d8	-0.010232173
4	0xbc9e657a	-0.019335497
5	0x3ac30a9e	0.0014880484
6	0xbb0c074c	-0.0021366654
7	0xba9a0654	-0.0011751154
8	0x3c2b00a7	0.010437167
9	0x3bea3f23	0.0071486398
10	0xbc6d33a3	-0.014477643
11	0x3c04c42c	0.008103412
12	0xbc2a6bb2	-0.010401653
13	0x3becad6b	0.0072228215
14	0x3a693349	0.0008895887
15	0xbc8636c6	-0.01638354
16	0x3c02304a	0.007946083
17	0xbcabefd1	-0.020988377
18	0xbc22e4f6	-0.009942284
19	0xbc70c24a	-0.01469476

layer_stack_1.2.running_mean f4 [20]
0	0xbd7584df	-0.05994117
1	0xbe26f678	-0.16304958
2	0xbd3f70c9	-0.04673842
3	0xbd684288	-0.056704074
4	0xbdb1a44e	-0.08673917
5	0x3d8ea2ae	0.069646224
6	0x3f04e7a5	0.5191596
7	0xbe0579b2	-0.13034704
8	0x3de8f20b	0.11374291
9	0xbd9f7760	-0.07786441
10	0x3da26fa6	0.079314515
11	0x3e2308b0	0.15921283
12	0x3b658436	0.003502143
13	0x3dd8911b	0.10574552
14	0x3da4b311	0.08041967
15	0x3e243b96	0.16038355
16	0x3e3f4b3f	0.18681048
17	0x3e4449d0	0.19168782
18	0xbdbdf226	-0.09274702
19	0x3d91f113	0.071260594

layer_stack_1.2.running_var f4 [20]
0	0x3abea31d	0.0014544461
1	0x3bd7b039	0.0065822867
2	0x3b4a8d31	0.003090691
3	0x3b8d28c3	0.0043078377
4	0x3ba0ca33	0.0049069165
5	0x3b87c747	0.0041436288
6	0x3d3c460c	0.04596524
7	0x3af68e02	0.0018810632
8	0x3b3760ff	0.0027981398
9	0x3b82f79f	0.003996804
10	0x3b87f91c	0.004149569
11	0x3bdd8adc	0.006760938
12	0x3a9430ec	0.0011306084
13	0x3b9e9532	0.004839563
14	0x3b0a4cd1	0.0021102915
15	0x3ba279cc	0.004958367
16	0x3c00baee	0.0078570675
17	0x3b9c0ad2	0.004762032
18	0x3bacb824	0.0052709747
19	0x3bb9fed5	0.0056761303

layer_stack_1.3.weight f4 [20, 20, 3, 3]
0	0x3c5743f8	0.013138764
1	0x3a4639e4	0.0007561727
2	0xbd12c89b	-0.035835844
3	0x3d1b30c2	0.037888296
4	0xbd767169	-0.06016675
5	0x3cfca54d	0.03084054
6	0xbd3ae7b6	-0.045631133
7	0x3d4ab705	0.049490947
8	0xbb67aa27	-0.0035349221
9	0xbcda2a3e	-0.02663147
10	0x3d87d992	0.06633295
11	0x3b2cfeb7	0.002639694
12	0xb9e46c1a	-0.0004356809
13	0xbd308e9c	-0.043104753
14	0x3d817113	0.06320395
15	0x3ca75d6a	0.020430285
16	0x3d3f5151	0.04670841
17	0xbd680b80	-0.056651592
18	0x3cb84cdf	0.022497592
19	0xbc4b38e9	-0.012403705
20	0x3cef900c	0.029243492
21	0xbd2268d9	-0.03965077
22	0xbcdd92c6	-0.027047526
23	0xbccc6f48	-0.024955407
24	0xbc30bb0e	-0.010786785
25	0xbd30ab2a	-0.043131985
26	0xbc22c87f	-0.009935497
27	0xbd57d23e	-0.052690737
28	0xbd0ac86d	-0.033882547
29	0x3d3135c3	0.04326416
30	0xbc5175b9	-0.012784415
31	0xbc51259e	-0.012765316
32	0xbcf90dbe	-0.03040206
33	0xbcbac3bc	-0.022798412
34	0x3d527dd0	0.051389515
35	0x3cce7c70	0.02520582
36	0xbc4fb83f	-0.012678205
37	0xbc874cdf	-0.016516147
38	0x3d57eea3	0.052717816
39	0x3cf6d1de	0.03012937
40	0x3c356a67	0.011072732
41	0x3cd7174f	0.026256232
42	0x3d16d64e	0.03682547
43	0xbd892b6c	-0.06697735
44	0xbd52856f	-0.051396783
45	0x3d8536f2	0.065046206
46	0x3d2772a3	0.04088081
47	0x3b74c7c9	0.0037350527
48	0x3d94fd71	0.072749026
49	0x3d8151b6	0.06314413
50	0x3c815486	0.015787374
51	0x3d192c1e	0.03739559
52	0x3ce95260	0.028481662
53	0xbd5a8cb6	-0.05335685
54	0x3d5e6e2e	0.054304294
55	0x3d07d0c2	0.03315807
56	0xbd883f22	-0.06652667
57	0xbcd14fe9	-0.0255508
58	0xbb5b5e83	-0.0033473081
59	0xbd45efe1	-0.04832447
60	0x3d4a7656	0.04942926
61	0x3c706a48	0.014673777
62	0x3d737300	0.059435844
63	0xbd478d1e	-0.048718564
64	0xbd58445c	-0.052799568
65	0xbd6f55bf	-0.058431383
66	0x3c101cc7	0.008795924
67	0xbd524810	-0.051338255
68	0x3d6ddfa4	0.05807461
69	0x3d679e5e	0.056547515
70	0x3d7aa9ac	0.061196968
71	0xbd25d812	-0.040489264
72	0x3d88aafa	0.06673236
73	0xbd327143	-0.043565046
74	0x3d5bd365	0.0536684
75	0x3ce9ec95	0.028555194
76	0xbd56a997	-0.052407827
77	0x3a296d33	0.00064631103
78	0xbc9b6c95	-0.018972674
79	0x3d17c809	0.037056003
80	0x3d8f4028	0.06994659
81	0x3d9248a9	0.07142765
82	0xbd1b7505	-0.037953395
83	0xb9d4755b	-0.00040523228
84	0x3d245ea3	0.040129315
85	0xbd280dec	-0.041028902
86	0x3cf22824	0.029560156
87	0xbc4318b4	-0.011907745
88	0x3b7b830a	0.0038377666
89	0x3d32fc95	0.043697912
90	0x3c72cfb7	0.014820031
91	0xbd85f300	-0.06540489
92	0x3d607a8c	0.05480437
93	0x3c8192ff	0.015817164
94	0xbd83db76	-0.06438343
95	0x3d7a816a	0.061158575
96	0x3d56ab84	0.052409664
97	0x3cc1aec5	0.023642907
98	0xbd1dc801	-0.038520817
99	0xbca6541e	-0.020303782
100	0x3bd2b58f	0.006430335
101	0xbd7160a7	-0.058930065
102	0x3b1a0d6a	0.002350653
103	0xbd13560f	-0.035970744
104	0x3c69839e	0.014252571
105	0x3d04fa62	0.032465346
106	0xbd5aaa70	-0.053385198
107	0xbccd8d75	-0.025091866
108	0xbc46a3cc	-0.012124013
109	0xbd94804e	-0.07251035
110	0x3d941936	0.07231371
111	0x3d64d701	0.055869106
112	0x3b5f83a7	0.003410557
113	0xbd20a794	-0.039222315
114	0x3d648f96	0.055800997
115	0x3cc01cf0	0.023451298
116	0xbd2508ba	-0.040291525
117	0xbcf77d3f	-0.03021109
118	0x3d15dbc2	0.03658653
119	0x3d428588	0.047490627
120	0x3d401ae7	0.046900656
121	0xbd7bb77d	-0.061454285
122	0x3b128510	0.0022357143
123	0x3ca97472	0.020685408
124	0x3d525a75	0.051355798
125	0xbd026bc5	-0.03184106
126	0x3d0a61de	0.03378474
127	0x3c899936	0.01679669
128	0xbd4a3c60	-0.049373984
129	0xbcd0afaf	-0.025474397
130	0xbd40e7a2	-0.047095902
131	0x3c5ca6cc	0.013467502
132	0xbd1283cf	-0.035770234
133	0x3d86b32c	0.06577143
134	0x3cd331ee	0.025780644
135	0x3c4d6d50	0.012538269
136	0xbcfb0d37	-0.03064595
137	0x3be16a30	0.0068791136
138	0x3c5aec82	0.013362052
139	0x3cc4d9d0	0.024029642
140	0xbcd15881	-0.025554897
141	0xbcd66752	-0.026172314
142	0xbce609f9	-0.028080927
143	0x3d941988	0.07231432
144	0xbcd02066	-0.025406074
145	0xbbc84f2b	-0.006112953
146	0x3a95eb1c	0.0011437866
147	0xbd29c843	-0.04145075
148	0x3d71abff	0.05900192
149	0x3ca3c408	0.019990936
150	0xbc4d8dd0	-0.012546018
151	0x3d556999	0.05210266
152	0xbd1a8f00	-0.03773403
153	0x3d88c356	0.066778824
154	0x3d13e513	0.036107134
155	0x3d5d8578	0.054082364
156	0xbc90fb3e	-0.017697927
157	0x3c7a3b2f	0.0152728995
158	0xbd809744	-0.06278852
159	0xbd283ada	-0.04107175
160	0xbc076a67	-0.008265114
161	0x3ccb081a	0.024784137
162	0xbd482a9b	-0.048868757
163	0x3d6ffd27	0.058591034
164	0x3d915f16	0.07098214
165	0x3cc0f730	0.023555368
166	0x3cc82ebb	0.024436345
167	0x3d63502e	0.055496387
168	0xbcdb625a	-0.026780296
169	0x3c7c92b1	0.015415833
170	0xbd037646	-0.032095216
171	0xbc610b7d	-0.013735649
172	0x3d28e94a	0.041238107
173	0xbd908d5c	-0.07058212
174	0xbd3a8bd4	-0.045543507
175	0x3d6d4c5b	0.057934146
176	0xbd1ef29f	-0.0388056
177	0x3cf68486	0.030092489
178	0x3d4fce78	0.050734013
179	0xbc41e94f	-0.01183541
180	0xbd2e3b01	-0.04253674
181	0x3be81a3a	0.0070832046
182	0x3d8d9a91	0.06914247
183	0xbd0cd447	-0.03438213
184	0x3d3c654e	0.04599505
185	0x3d8b5345	0.06802992
186	0x3d319f24	0.04336466
187	0xbc13aa51	-0.009012775
188	0xbd721310	-0.05910021
189	0xbd685b4b	-0.05672769
190	0x3b4341f1	0.0029793943
191	0x3bfbe06b	0.007686665
192	0x3add5647	0.0016886675
193	0xbd5c220b	-0.053743403
194	0x3b884568	0.0041586645
195	0x3d8137c7	0.06309467
196	0x3d94a6ef	0.072584026
197	0x3be06fc1	0.0068492596
198	0x3ca1304f	0.019676356
199	0x3cfdbb2a	0.030973036
200	0x3d960323	0.07324817
201	0xbd749897	-0.059715834
202	0x3c917a19	0.017758416
203	0xbd606968	-0.054788023
204	0x3d361a31	0.04445857
205	0x3a8a6d30	0.0010561105
206	0x3d5ca713	0.053870272
207	0xbd0aef89	-0.033919845
208	0x3d3a6837	0.045509543
209	0x3b9da57b	0.0048109866
210	0xbc4beff8	-0.01244735
211	0xbd57f01a	-0.052719213
212	0x3d808ec5	0.06277231
213	0x3d271e4b	0.040800374
214	0xbcca658b	-0.024706623
215	0x3d2b5deb	0.041837614
216	0x3bb10139	0.005401757
217	0xb989d40f	-0.00026288672
218	0xbc2c1c5b	-0.010504807
219	0xbd7601c4	-0.060060278
220	0x3d6e7e28	0.05822578
221	0x3d11b343	0.035571348
222	0xbc7e382a	-0.01551632
223	0x3d34bf64	0.044127837
224	0x3d5df92e	0.054192714
225	0x3ab8eb76	0.0014108259
226	0xbcb5ee6c	-0.022208415
227	0xbc08dec8	-0.008353896
228	0xbd758a4e	-0.05994635
229	0x3cadae05	0.021201143
230	0xbd60a84b	-0.054847997
231	0x3d2b221c	0.041780576
232	0x3d57989a	0.052635767
233	0xbd77acaf	-0.06046742
234	0xbd2b8230	-0.041872203
235	0xbd8bc147	-0.06823974
236	0x3d38a0e1	0.0450753
237	0x3d8ed68f	0.069745176
238	0x3d1a7248	0.037706643
239	0xbd4ec5b4	-0.050481513
240	0x3c73aec0	0.014873207
241	0x3d3f9448	0.04677227
242	0x3d17e044	0.03707911
243	0xbcd0b343	-0.025476104
244	0xbd5044a6	-0.05084672
245	0xbbd0e158	-0.0063745193
246	0xbcabcead	-0.020972574
247	0x3d1c04a5	0.038090367
248	0x3cb8d84f	0.022564081
249	0x3d90687d	0.070511796
250	0xbc1e096f	-0.009645804
251	0xbc9b3101	-0.018944265
252	0xbd40520b	-0.046953242
253	0x3d8892b1	0.06668604
254	0xbbe13e07	-0.0068738493
255	0x3d83adc7	0.0642963

layer_stack_1.3.bias f4 [20]
0	0x3bdc98b6	0.0067320717
1	0xbcd1b8ee	-0.025600877
2	0x3d4ef6ed	0.050528456
3	0xbd1555fc	-0.036458954
4	0xbc8f31c0	-0.017479777
5	0x3928349e	0.0001604133
6	0xbc01b7e1	-0.007917375
7	0x3d03343a	0.03203223
8	0x3d080464	0.033207312
9	0xbd32625c	-0.043550834
10	0x3c9385e2	0.018008176
11	0x3c7ff481	0.015622259
12	0x3d02ca9e	0.031931512
13	0xbd8eec39	-0.0697865
14	0xbca6f5a1	-0.020380797
15	0xbd2df0fd	-0.042466152
16	0xbcbe2efb	-0.023215761
17	0xbc258875	-0.010103335
18	0xbda6b444	-0.08139852
19	0xbc99d06e	-0.018776145

layer_stack_2.0.weight f4 [20, 20, 3, 3]
0	0xbc90c258	-0.017670795
1	0xbae1508d	-0.0017190144
2	0xbc17ed14	-0.009272832
3	0xbd25b55f	-0.040456172
4	0xbd1f2c39	-0.038860533
5	0x3d0b14da	0.033955432
6	0x3da15e12	0.078792706
7	0xbce43b22	-0.027860228
8	0x3d2c4e83	0.042067062
9	0xbc5c1891	-0.013433591
10	0x3d18d646	0.037313722
11	0x3c9cc763	0.019138044
12	0xbd688853	-0.056770634
13	0xbd6a8221	-0.057253007
14	0x3c5e6340	0.013573468
15	0x3ba0469e	0.0048912307
16	0x3d832e12	0.064052716
17	0xbc145cb4	-0.009055305
18	0x3da1dcc8	0.07903439
19	0x3bbdbc5f	0.005790278
20	0x3d8981a0	0.06714177
21	0xbbeba4b2	-0.007191264
22	0x3d532155	0.05154546
23	0x3c1fb2e1	0.009747238
24	0xbc5aa159	-0.013344132
25	0xbc25c0c8	-0.010116763
26	0xbbd85dac	-0.0066029634
27	0x3d1e0173	0.0385756
28	0x3d7eb1fc	0.062181458
29	0x3d67c4eb	0.05658428
30	0x3c128843	0.00894362
31	0x3da16b70	0.0788182
32	0xbd69b48f	-0.05705696
33	0x3da07b9d	0.07836077
34	0xbcde845e	-0.027162727
35	0x3d82be20	0.0638392
36	0x3c8bcaec	0.017064534
37	0x3bee9969	0.0072814715
38	0x3d9b777c	0.07591149
39	0x3c8ca15b	0.017166784
40	0xbcc37ae4	-0.02386231
41	0x3d607682	0.054800518
42	0x3b2cf15d	0.002638898
43	0x3d0e0cac	0.034680054
44	0x3d20b80f	0.039238032
45	0xbab30f7e	-0.0013661233
46	0x3d329ef6	0.04360863
47	0xbd8755fd	-0.06608198
48	0x3cf35256	0.029702347
49	0xbcb3ea77	-0.021962387
50	0xbcec7e67	-0.028868867
51	0xbc35bc94	-0.011092324
52	0xbc4f353c	-0.012646969
53	0x3d6c3192	0.05766446
54	0x3d90d429	0.07071716
55	0xbd60f47a	-0.05492065
56	0x3d321620	0.04347813
57	0xbd4f894e	-0.050668053
58	0x3d1a8af5	0.037730176
59	0xbc206f82	-0.0097922105
60	0x3d321b35	0.043482978
61	0x3d441159	0.047868107
62	0xbd62c744	-0.055365816
63	0xbd6adfb0	-0.05734223
64	0x3d1dc8aa	0.038521446
65	0xbd262e01	-0.040571216
66	0x3d8d0ba6	0.068869874
67	0x3d32ff99	0.04370079
68	0x3d4ad83a	0.049522616
69	0xbcdcae63	-0.026938623
70	0x3c28805d	0.01028451
71	0xbcf6fec0	-0.030150771
72	0x3c738f62	0.014865728
73	0xbc984e56	-0.018592041
74	0x3d5a563a	0.05330489
75	0xbcf7e923	-0.030262535
76	0x3d8a724f	0.06760084
77	0xbd75648d	-0.059910346
78	0xbd7b46ea	-0.061346926
79	0xbcf67a45	-0.0300876
80	0x3d74244a	0.05960492
81	0xbc82b426	-0.015955042
82	0xbabb25a0	-0.0014278181
83	0xbd3ec329	-0.046572838
84	0x3d77caab	0.060496014
85	0x3da22a41	0.079182155
86	0x3d05ce68	0.032667547
87	0xbd8652e0	-0.06558776
88	0x3d8b2cd4	0.0679566
89	0xbd28a9e4	-0.041177645
90	0x3d2be142	0.04196287
91	0x3d30689e	0.04306852
92	0xbd09f3d0	-0.033679783
93	0xbc69ea74	-0.014277089
94	0x3cbe21c8	0.023209468
95	0xbce018b1	-0.027355524
96	0x3cf1cbb4	0.029516079
97	0xbc012a4e	-0.007883621
98	0xbd436778	-0.047706097
99	0x3d90b0fa	0.070650056
100	0x3d548594	0.051885203
101	0x3d7f1baf	0.06228226
102	0x3d035fa1	0.03207362
103	0xbd0ecdaa	-0.034864105
104	0x3d24ace0	0.04020393
105	0xbd32ec45	-0.043682355
106	0x3d239c78	0.039944142
107	0x3d397ed5	0.045286972
108	0xbcf22184	-0.029556997
109	0xba274ae5	-0.00063817046
110	0x3c7cf726	0.015439784
111	0x3d46a7c8	0.048499852
112	0x3c70e7c5	0.014703696
113	0x3d89c2dd	0.0672662
114	0xbd8307d9	-0.06397981
115	0x3cb0986c	0.021557055
116	0xbcb4341a	-0.0219975
117	0x3d204206	0.039125465
118	0x3d5d09c7	0.053964403
119	0x3d3a7e83	0.045530807
120	0x3d88aa73	0.066731356
121	0xbcf7fa53	-0.030270731
122	0x3d35184f	0.044212636
123	0xbd6606a2	-0.05615867
124	0x3c5d2375	0.013497223
125	0x3b0341f8	0.0020028334
126	0x3d90d8fa	0.07072635
127	0x3d3ca0b3	0.046051692
128	0xbd287ca8	-0.041134506
129	0x3d9d6f27	0.07687216
130	0x3d8c9172	0.06863679
131	0xbc8d3e72	-0.01724169
132	0x3d96fad2	0.07372059
133	0x3d8ba379	0.06818289
134	0xbcfb6814	-0.030689277
135	0xbd0d670a	-0.034522094
136	0x3d30e51e	0.043187253
137	0xba8c2358	-0.0010691686
138	0x3d43ca5d	0.04780041
139	0xbcb1bfe1	-0.02169794
140	0xbc60edbf	-0.013728558
141	0xbd620e0d	-0.05518918
142	0x3d526022	0.05136121
143	0xbc5757c1	-0.013143481
144	0x3d7ef84c	0.062248513
145	0xbc909e44	-0.017653592
146	0x3ce9ad51	0.028525027
147	0x3d607dfd	0.05480765
148	0x3d641724	0.05568613
149	0x3cd258c8	0.0256771
150	0xbc082686	-0.008309966
151	0x3c11ec48	0.0089064315
152	0xbd38f416	-0.045154653
153	0xbcbe6436	-0.023241144
154	0xbc73460b	-0.0148482425
155	0xbd7e745d	-0.06212269
156	0xbc997063	-0.018730348
157	0x3d849eb7	0.06475585
158	0x3c8926e0	0.01674217
159	0x3d4c990a	0.049950637
160	0xbd85dd64	-0.065363675
161	0xbc90fca0	-0.017698586
162	0x3cef70d3	0.029228603
163	0xbca113af	-0.019662706
164	0xbd323fdf	-0.043517943
165	0xbd822df5	-0.06356422
166	0xbcd2d4cc	-0.025736235
167	0xbc7c92b7	-0.015415839
168	0x3d392a83	0.045206558
169	0xbc2dbad5	-0.010603626
170	0xbcc7ac58	-0.024374172
171	0x3d9cc317	0.07654398
172	0x3d7fa55b	0.062413555
173	0xbca2d062	-0.019874755
174	0xbd5c44cf	-0.05377656
175	0xbc982330	-0.018571466
176	0xbd3a76f8	-0.045523614
177	0xbd56a90b	-0.052407306
178	0xbc804d9b	-0.015662005
179	0x3d4b3cac	0.049618408
180	0xbcc1941d	-0.023630196
181	0x3b9985f0	0.004685156
182	0xbba6f0c3	-0.005094619
183	0x3d09f0a4	0.03367676
184	0x3cdec05f	0.027191339
185	0xbd84135b	-0.06449004
186	0xbd815ab8	-0.06316131
187	0x3d8a70e5	0.06759814
188	0xbcd3f566	-0.025873851
189	0xbd8c6b6c	-0.068564266
190	0xbcfc0a12	-0.03076652
191	0xbc66fb18	-0.014097951
192	0x3d2b1a6f	0.041773256
193	0x3b037edd	0.002006463
194	0xbb79f8df	-0.0038142723
195	0xbcbc4da1	-0.022986235
196	0x3d3f1682	0.046652324
197	0xbd795c80	-0.06087923
198	0x3d84dd63	0.06487539
199	0x3cd51c97	0.02601461
200	0x3c2aa940	0.010416329
201	0x3ceec4be	0.029146548
202	0xbcbc5af1	-0.022992583
203	0x3cebb3ab	0.028772196
204	0xbb9a0c0a	-0.004701142
205	0x3c53110d	0.012882483
206	0xbd8bf95c	-0.06834671
207	0xbda31904	-0.07963756
208	0xbd0bdf91	-0.034148756
209	0xbc282a83	-0.010264042
210	0xbb8a984c	-0.004229581
211	0xbb65a50d	-0.0035041005
212	0x3d3f7ac9	0.046747956
213	0x3b5031bb	0.0031767923
214	0xbcdb819f	-0.026795207
215	0x3bbe1c84	0.005801739
216	0xbd9dcf62	-0.07705571
217	0xbc07fc1f	-0.008299856
218	0x3d7e6dd1	0.062116448
219	0xbd6439bd	-0.055719126
220	0xbcb1f7f3	-0.021724677
221	0x3d155f90	0.03646809
222	0x3d13ecda	0.03611455
223	0x3d6b6aa8	0.057474762
224	0xbd40b854	-0.04705079
225	0xbd7f7545	-0.062367696
226	0xbd0887ae	-0.03333252
227	0x3b2bfdb2	0.0026243743
228	0xbc4e8c98	-0.012606762
229	0xbb9fb206	-0.004873517
230	0xbd93ece2	-0.07222916
231	0xbd8f52b6	-0.06998198
232	0x3d71f39d	0.05907022
233	0x3cc4712a	0.023979742
234	0xb90f92f8	-0.00013692293
235	0x3d84dacb	0.06487044
236	0x3d63c6de	0.055609576
237	0x3a2111c0	0.00061443076
238	0xbd09a0b4	-0.033600524
239	0x3c42717e	0.011867879
240	0xbcd69ea7	-0.026198698
241	0x3c62d735	0.013845255
242	0xbd12b2c3	-0.03581501
243	0xbd722b37	-0.059123244
244	0xbd8564d3	-0.06513371
245	0xbd7b1ff5	-0.061309773
246	0xbc698c61	-0.01425466
247	0xba8c4bd4	-0.0010703751
248	0x3d3e5ca5	0.04647507
249	0xbce02332	-0.027360532
250	0xbd4602f6	-0.048342668
251	0xbc85856e	-0.016298976
252	0xbd7c2089	-0.061554465
253	0x3d30df12	0.043181486
254	0x3d510130	0.051026523
255	0xbd84ab9b	-0.06478044

layer_stack_2.0.bias f4 [20]
0	0x3c13ae1e	0.009013681
1	0xbce1d3be	-0.027566787
2	0xbd21d5e5	-0.039510626
3	0x3c8bfb0d	0.017087484
4	0x3c897e92	0.016783986
5	0xbd2d5095	-0.042313177
6	0xbd8009ab	-0.06251844
7	0xbd067a77	-0.032831635
8	0x3ce130ac	0.027489029
9	0xbd5344a2	-0.051579125
10	0xbcb8f2ab	-0.02257665
11	0xbd94a767	-0.07258492
12	0xbd3b7e48	-0.045774728
13	0x3d604768	0.0547556
14	0xbca7f762	-0.020503704
15	0x3d6a2c45	0.057171125
16	0xbd86bad3	-0.06578603
17	0xbd8d6d35	-0.06905595
18	0x3d651bdc	0.055934772
19	0xbd7709fc	-0.060312256

layer_stack_2.1.weight f4 [20]
0	0x3f7efdd9	0.9960609
1	0x3f7edac1	0.9955254
2	0x3f81fec2	1.0155871
3	0x3f7e6b70	0.99382687
4	0x3f7f1776	0.99645174
5	0x3f7e9be7	0.9945664
6	0x3f7edf32	0.9955932
7	0x3f7fc32b	0.9990718
8	0x3f80489f	1.0022162
9	0x3f800e87	1.0004433
10	0x3f7edede	0.9955882
11	0x3f7f4ab2	0.9972335
12	0x3f810a7c	1.0081325
13	0x3f819f30	1.0126705
14	0x3f7e8589	0.9942251
15	0x3f81b3bb	1.0132974
16	0x3f7d60ee	0.9897603
17	0x3f7f48e0	0.99720573
18	0x3f801f83	1.0009617
19	0x3f80251a	1.0011322

layer_stack_2.1.bias f4 [20]
0	0x3aaa2e64	0.0012983796
1	0x3a124d8e	0.00055810146
2	0x3a838fe6	0.0010037392
3	0x38fb1a88	0.000119735545
4	0x39e1cdf2	0.00043068785
5	0xba45d8a0	-0.0007547233
6	0xb972fc62	-0.00023172938
7	0x38c61f03	9.447152e-05
8	0xb985e635	-0.00025539254
9	0x3911c253	0.00013900669
10	0x39e0b45d	0.0004285899
11	0xba711315	-0.0009196264
12	0xb9a9e24a	-0.0003240279
13	0xbab4e228	-0.001380031
14	0xbaab76e4	-0.0013081697
15	0xba8ab48d	-0.0010582373
16	0x3a11eaf2	0.00055663206
17	0xba84e7f8	-0.0010139933
18	0xb91eac18	-0.00015132164
19	0xb9ae4627	-0.00033240134

layer_stack_2.1.running_mean f4 [20]
0	0x3eae8ed0	0.34093332
1	0xbeb14adc	-0.34627426
2	0xbe0bec1b	-0.13664286
3	0x3d6589b5	0.05603953
4	0x3e2a6e89	0.16643728
5	0x3e92bdc6	0.2866041
6	0xbea4d38c	-0.32192647
7	0xbdb0f3d0	-0.086402535
8	0x3c34fa49	0.011046001
9	0xbc1ffb75	-0.009764542
10	0x3d880e29	0.06643326
11	0xbea61414	-0.32437193
12	0x3dc9b338	0.098486364
13	0xbe71b6a4	-0.23604828
14	0x3e877709	0.26458004
15	0x3dbcb190	0.09213555
16	0xbe292f99	-0.16522063
17	0xbe4b9d8d	-0.1988432
18	0x3dc4deea	0.0961283
19	0x3da8839b	0.08228227

layer_stack_2.1.running_var f4 [20]
0	0x3e559c9a	0.2086052
1	0x3e26870e	0.16262457
2	0x3e936fb1	0.2879615
3	0x3e475106	0.19464502
4	0x3e28d013	0.16485624
5	0x3e402508	0.18764126
6	0x3e3615d2	0.17781761
7	0x3e4af842	0.19821265
8	0x3e4947f1	0.1965635
9	0x3e3a4e6f	0.18193983
10	0x3e8450d0	0.25842905
11	0x3e3c111c	0.18365902
12	0x3e82cd7a	0.2554739
13	0x3ec07991	0.37592748
14	0x3e3b7bcd	0.18308945
15	0x3e89be1a	0.26902848
16	0x3e3fb516	0.18721423
17	0x3e57fd48	0.21092713
18	0x3e4bfe33	0.19921188
19	0x3e4f7668	0.20260012

layer_stack_2.2.weight f4 [20, 20, 3, 3]
0	0x3cd665e7	0.026171638
1	0x3d31ef3e	0.04344105
2	0x3d85818d	0.065188505
3	0xbc27e97b	-0.010248537
4	0xbb546e3c	-0.0032414338
5	0xbd6c13b8	-0.057635993
6	0x3d8a4f3a	0.067533925
7	0x3cd1f95b	0.025631597
8	0xbd01a706	-0.031653427
9	0x3a959dd4	0.0011414834
10	0xbcd3f50a	-0.02587368
11	0x3d8963ad	0.06708465
12	0xbd505a40	-0.05086732
13	0x3da7b169	0.08188135
14	0xbd21f3de	-0.03953921
15	0x3d84d0a5	0.06485108
16	0x3c52d0c5	0.012867157
17	0xbd232f52	-0.03984005
18	0xbd5a0bc2	-0.05323387
19	0xbbd4bae8	-0.0064920075
20	0x3cf08d3a	0.029364217
21	0x3c44eed6	0.012019834
22	0x3c87b4af	0.016565649
23	0x3dbef693	0.09324374
24	0xbd157dbe	-0.03649687
25	0x3d447dfa	0.047971703
26	0x3c7f84d9	0.015595638
27	0xbccf73f3	-0.025323844
28	0xbd01e2ca	-0.031710424
29	0x3d2daf3c	0.042403445
30	0xbd8e142c	-0.06937441
31	0x3ad195a3	0.001599003
32	0xbd46520b	-0.048418086
33	0x3a1d59f5	0.00060024793
34	0x3cd7a9a9	0.026326017
35	0x3d7b84e8	0.061406046
36	0xbd883560	-0.066508055
37	0xbd74d52b	-0.059773605
38	0xbd829539	-0.06376118
39	0x3a888f79	0.0010418735
40	0xbd50c376	-0.050967656
41	0x3d46313f	0.04838681
42	0x3d8a0a16	0.06740205
43	0x3d7f8de5	0.06239118
44	0xbcf0cdda	-0.029395033
45	0xbd4ed86d	-0.05049937
46	0x3cac61b0	0.021042675
47	0x3cb99b6f	0.022657124
48	0xbb0c8c71	-0.0021446014
49	0xbd8b89fe	-0.06813429
50	0xbcc9c6d0	-0.024630934
51	0x3d0143bc	0.031558737
52	0x3d0fee14	0.03513916
53	0x3c086f68	0.008327343
54	0xbc6d6221	-0.014488728
55	0x3ce3fdb7	0.027830942
56	0xbcd15e34	-0.025557615
57	0x3d322665	0.043493647
58	0xbd7c6585	-0.061620254
59	0xbd573846	-0.0525439
60	0xbd8a6f7d	-0.06759546
61	0xbca18e8c	-0.019721292
62	0x3d7ca0c5	0.06167676
63	0x3c9c73a2	0.019098107
64	0xbd8d985b	-0.06913825
65	0xbd75ef12	-0.06004245
66	0x3d3f1f4f	0.046660718
67	0x3d8170e1	0.06320358
68	0xbd4ce99f	-0.050027486
69	0xbc6efa81	-0.014586092
70	0xbccc28ef	-0.024921862
71	0xbc078cc7	-0.00827331
72	0x3d556b88	0.052104503
73	0xbd88fa7f	-0.06688403
74	0xbd9a2937	-0.07527392
75	0xbab0bfc8	-0.001348489
76	0x3d184f9a	0.03718529
77	0xbd95b51a	-0.07309933
78	0x398de4f2	0.00027064193
79	0xbd667f8e	-0.05627399
80	0x3a791720	0.0009502042
81	0x3aa2f40e	0.0012432353
82	0xbd90aada	-0.07063837
83	0xbc19a200	-0.009377003
84	0x3d0375e3	0.032094847
85	0x3d66cae0	0.05634582
86	0x3d6a1025	0.057144303
87	0x3d9a4633	0.07532921
88	0x3d9d288b	0.076737486
89	0xbcddded1	-0.027083786
90	0x3d808643	0.062756084
91	0xbbb14a50	-0.00541047
92	0x39a6f970	0.00031847833
93	0xbd7a27a2	-0.061072953
94	0xbd2ea470	-0.04263729
95	0xbc2741a8	-0.010208525
96	0xbc6282b7	-0.01382511
97	0xbd4ecdc3	-0.0504892
98	0x3cd71582	0.026255373
99	0xbcb03a07	-0.021512045
100	0xbd6818f7	-0.056664433
101	0x3ad66ec2	0.0016359913
102	0x3d5f1e3a	0.054472186
103	0x3d5ffe90	0.05468613
104	0x3a946f0c	0.0011324598
105	0x3d316cbd	0.04331659
106	0xbc9c20fc	-0.019058697
107	0xbd4aec6d	-0.04954188
108	0xbd14424b	-0.036196034
109	0xbd83a41c	-0.06427786
110	0xbd322e19	-0.043500993
111	0x3ce5fae4	0.028073736
112	0xbd333111	-0.043747965
113	0xbb83b282	-0.0040190825
114	0x3cfab0cc	0.030601881
115	0x3d961122	0.073274866
116	0xbd637a31	-0.055536453
117	0xbd6a06a7	-0.05713525
118	0xbda812f8	-0.08206743
119	0x3d06d798	0.03292045
120	0xbc0d7832	-0.008634614
121	0x3b4b5e9c	0.0031031733
122	0x3d482790	0.048865855
123	0x3d7887dd	0.060676444
124	0xbcd5ed7e	-0.026114222
125	0x3d028ae4	0.031870738
126	0x3d12fcc7	0.0358856
127	0xbd4ab64c	-0.049490258
128	0xbd37455b	-0.044743877
129	0x3d61f64b	0.055166524
130	0x3bf2e91f	0.007413044
131	0xbd01ae76	-0.03166052
132	0xbd761e18	-0.060087293
133	0x3cd70fbc	0.02625262
134	0x3d29cadc	0.041453227
135	0xbcf8062a	-0.030276377
136	0xbc25a90f	-0.0101111075
137	0xbd37c537	-0.044865813
138	0xbb94ce7e	-0.0045412173
139	0xbc043f49	-0.008071729
140	0xbdada904	-0.08479503
141	0xbd28d22f	-0.04121607
142	0x3c7fd509	0.015614756
143	0xbd6c5f78	-0.057708234
144	0xba70de4e	-0.00091883994
145	0x3d5fdf1a	0.054656126
146	0xbc24071d	-0.010011462
147	0xbd62673a	-0.055274226
148	0xbd7c8839	-0.06165335
149	0xbd8dd825	-0.06925992
150	0xbd31d53e	-0.043416254
151	0xbce9b557	-0.028528852
152	0x3d6f903e	0.05848717
153	0xbbf02378	-0.007328447
154	0xbd699998	-0.057031244
155	0x3d88d102	0.0668049
156	0xbcb2d30c	-0.02182915
157	0xbbc9fc41	-0.006164104
158	0x3b8f08f7	0.0043650824
159	0x3ceb8855	0.028751532
160	0x3d6401cd	0.05566578
161	0x3d90341e	0.070411906
162	0xbd8da808	-0.06916815
163	0xbd84eefb	-0.064908944
164	0xbd27f6e0	-0.041006923
165	0xbd6cb138	-0.057786196
166	0x3b0fe7a6	0.0021958142
167	0xbd8781f9	-0.06616587
168	0xbbc2b4f0	-0.0059419796
169	0xbd712a0b	-0.058877986
170	0x3b894843	0.0041895225
171	0xbcc635b7	-0.024195535
172	0x3d2c587e	0.04207658
173	0x3d2766f6	0.040869676
174	0x3bd160d6	0.0063897176
175	0xbd000c63	-0.031261813
176	0xbd474a8b	-0.048655074
177	0xbc9af82b	-0.018917164
178	0xbca4d55d	-0.02012127
179	0x3ce06df2	0.027396176
180	0x3ce1a54a	0.027544636
181	0x3c990d7f	0.018683193
182	0xbd944d69	-0.07241327
183	0x3d5cce09	0.053907428
184	0xbb1c2ab0	-0.0023829155
185	0x3d379651	0.044821087
186	0xbc4638fe	-0.012098549
187	0x3d518f2b	0.051161926
188	0x3c871849	0.016491072
189	0x3d75ab10	0.05997759
190	0x3c42bcf8	0.011885874
191	0x3d010686	0.03150036
192	0xbd3b5ef8	-0.045744866
193	0x3d1e94a5	0.038715977
194	0x3d4c4764	0.04987277
195	0x3c54571d	0.012960223
196	0x3d28a70e	0.04117494
197	0x3cf78c2d	0.030218208
198	0x3cd74ad1	0.026280792
199	0x3d3cd133	0.046097945
200	0xbce4fced	-0.027952636
201	0x3d970ebb	0.073758565
202	0x3c50e592	0.012750046
203	0xbd85341f	-0.06504082
204	0x3d654d67	0.05598202
205	0xbc15933f	-0.0091293445
206	0x3d3c3bc1	0.045955423
207	0xbd144e81	-0.03620768
208	0xbd3aa533	-0.045567703
209	0x3d77693b	0.06040309
210	0xbcdf4e21	-0.027258934
211	0xbd4bd3e3	-0.049762618
212	0x3d90974f	0.0706011
213	0xbd7e9f07	-0.06216338
214	0x3cf529e3	0.0299272
215	0xbc9144e8	-0.017733052
216	0xbb0895d3	-0.0020841255
217	0xbc7199b8	-0.014746122
218	0xbd82121b	-0.063511096
219	0xbd07765c	-0.03307186
220	0x3d1f3737	0.038871016
221	0x3d06d68d	0.032919455
222	0xbd3a0f8e	-0.04542499
223	0xbd6d053f	-0.05786633
224	0xbd2f0c6c	-0.042736456
225	0xbd3677d1	-0.04454786
226	0x3cc58ead	0.024115885
227	0xbd9eb9d6	-0.07750289
228	0x3c47d8bf	0.012197672
229	0x3cdcaddb	0.02693837
230	0xbd431561	-0.04762781
231	0x3bdd023e	0.006744652
232	0x3c90f495	0.01769475
233	0x3d63b733	0.055594634
234	0xbd459ab0	-0.048243225
235	0x3d8387de	0.06422399
236	0x3a04dcaf	0.0005068285
237	0xbd18511a	-0.03718672
238	0xbc8c678a	-0.017139215
239	0xbcc8749c	-0.024469666
240	0xbc9fee60	-0.019522846
241	0x3d60bdc4	0.054868475
242	0xbc17bee8	-0.009261824
243	0xbd977575	-0.0739545
244	0x3c86a28f	0.016434936
245	0x3d62567a	0.05525825
246	0x3cefeb3d	0.029286975
247	0xbcfadbe8	-0.030622438
248	0xbd4ec811	-0.050483767
249	0xbd807d81	-0.06273938
250	0xbc80a938	-0.01570569
251	0xbd15797c	-0.03649281
252	0x3cbdbc5c	0.023161106
253	0xbb82772c	-0.0039814916
254	0xbd2af8a6	-0.041741036
255	0xbd9a3a92	-0.07530703

layer_stack_2.2.bias f4 [20]
0	0xbc3bc06e	-0.011459453
1	0x3d0463b8	0.03232166
2	0xba8d8089	-0.0010795753
3	0x3d07f464	0.033192053
4	0x3d0ab06e	0.033859663
5	0x3d8a1706	0.067426726
6	0xbc9cab88	-0.019124761
7	0xbcc82f66	-0.024436664
8	0xbd2582bb	-0.040407877
9	0xbc06da44	-0.0082307495
10	0xbd659b21	-0.056056146
11	0x3cecf3f1	0.028924914
12	0xbc731bb0	-0.014838144
13	0x3d03d241	0.032182936
14	0x3d585656	0.05281671
15	0x3c582643	0.013192716
16	0xbd23af3a	-0.03996203
17	0x3b2796a9	0.0025571978
18	0x3cb1ab73	0.021688199
19	0x3d1cfd02	0.038327225

layer_stack_2.3.weight f4 [20]
0	0x3f871bea	1.0555394
1	0x3f858368	1.0430727
2	0x3f8501dd	1.0391194
3	0x3f8527b5	1.0402743
4	0x3f84360a	1.0328991
5	0x3f856445	1.0421225
6	0x3f825a7b	1.0183862
7	0x3f84adae	1.0365503
8	0x3f85e60e	1.0460832
9	0x3f875fac	1.0576072
10	0x3f875c68	1.0575075
11	0x3f847b9b	1.0350221
12	0x3f8399d4	1.028132
13	0x3f8406ae	1.0314538
14	0x3f846d5a	1.0345871
15	0x3f84208b	1.0322431
16	0x3f829432	1.0201476
17	0x3f849c27	1.0360154
18	0x3f83d4fd	1.0299374
19	0x3f84f191	1.038622

layer_stack_2.3.bias f4 [20]
0	0x3b8e9171	0.004350834
1	0x3b19da19	0.0023475944
2	0xbad653db	-0.0016351895
3	0x3a3d4b8d	0.0007221036
4	0x3ab57e43	0.0013846833
5	0xbb132a26	-0.0022455542
6	0xbb9d9339	-0.00480881
7	0xbb37a362	-0.0028020968
8	0x3b7d954b	0.0038693722
9	0x3b39c484	0.0028345892
10	0x3a7c433e	0.0009623057
11	0x3af8b18d	0.0018973813
12	0x3afd9c59	0.0019348963
13	0xbb8bfe4c	-0.004272258
14	0xbb270215	-0.0025483419
15	0x3b75320d	0.0037413866
16	0x3b955aa4	0.0045579243
17	0x3bff1628	0.0077846237
18	0xbaba36c5	-0.0014206996
19	0xb9bf0ba1	-0.00036439023

layer_stack_2.3.running_mean f4 [20]
0	0xbc6c5a42	-0.014425816
1	0x3c9093f8	0.017648682
2	0xbc8d29c3	-0.017231828
3	0x3d115412	0.035480566
4	0x3d553418	0.052051634
5	0x3d9d09f2	0.076679125
6	0xbc92256b	-0.017840108
7	0xbc45a37e	-0.012062905
8	0xbd15a7ce	-0.036536984
9	0x3ba4ab04	0.0050252695
10	0xbd523e54	-0.051328972
11	0x3d13a3d1	0.0360449
12	0xbc333531	-0.010937975
13	0x3d3d0db7	0.046155658
14	0x3d91da3e	0.071217045
15	0x3c34d796	0.011037728
16	0xbd553d4b	-0.052060407
17	0xbc509df0	-0.012732968
18	0x3cbe4447	0.023225917
19	0x3d1ef007	0.038803127

layer_stack_2.3.running_var f4 [20]
0	0x3f4b0b81	0.7931443
1	0x3f631962	0.88710606
2	0x3f39b480	0.72541046
3	0x3f139664	0.5765135
4	0x3f1162b0	0.5679121
5	0x3f2610d2	0.64869416
6	0x3edfb908	0.43695855
7	0x3f7029c8	0.93813753
8	0x3f18109c	0.59400344
9	0x3f274a3e	0.6534766
10	0x3f3e69aa	0.7437998
11	0x3f2dc86a	0.6788393
12	0x3f3b6e54	0.7321522
13	0x3f1508da	0.5821663
14	0x3eeb793d	0.45990935
15	0x3f419128	0.75612116
16	0x3ef96dcc	0.4871658
17	0x3f1a1df2	0.6020194
18	0x3efb5c05	0.49093643
19	0x3f35969f	0.70932955

layer_stack_2.4.weight f4 [20, 20, 3, 3]
0	0xbd01d4b8	-0.031697005
1	0x3d075426	0.033039235
2	0xbbe44d2e	-0.0069672083
3	0xbd15afd0	-0.03654462
4	0xbd82115c	-0.06350967
5	0xbd16cef9	-0.03681848
6	0xbd9abf18	-0.075559795
7	0xbd9bf459	-0.07614965
8	0x3ca643c3	0.020295983
9	0x3d7b83b3	0.061404895
10	0x3c6691c5	0.01407284
11	0x3d84ed99	0.06490631
12	0x3c4f0ca3	0.01263729
13	0xbd651f87	-0.05593827
14	0xbd356655	-0.044287045
15	0x3d4c587b	0.04988907
16	0xbd227f7b	-0.039672356
17	0x3d45c5c4	0.048284307
18	0x3d72e30b	0.059298556
19	0x3ba8ca9f	0.0051511074
20	0xbd9a73bd	-0.075416066
21	0xbd74f135	-0.059800345
22	0x3d329bb7	0.043605532
23	0x3ca2f8cd	0.019894028
24	0xbcb42f42	-0.02199519
25	0xbd039234	-0.032121852
26	0x3cc9a737	0.024615867
27	0x3d62c14d	0.055360127
28	0xbc84d070	-0.016212672
29	0x3d6155ab	0.05501334
30	0xbd3dcec4	-0.046339765
31	0x3d274731	0.040839378
32	0x3d23d3d9	0.039996956
33	0x3d002072	0.031280942
34	0x3d4c83e5	0.049930472
35	0x3c0c7b3f	0.008574306
36	0xbd901777	-0.070357256
37	0xbd5208a2	-0.051277764
38	0xbc9efc9d	-0.019407565
39	0xbda6f25d	-0.08151696
40	0xbd083854	-0.033256844
41	0xbc581d6d	-0.013190609
42	0xbdc112bb	-0.09427401
43	0x3d410bca	0.047130384
44	0x3d27c256	0.040956818
45	0x3c0a0136	0.00842314
46	0xbd407043	-0.04698206
47	0x3d80f76a	0.062971905
48	0x3db59e1f	0.0886805
49	0x3dad9b69	0.08476908
50	0x3d5a3bf1	0.05327982
51	0xbd1a3055	-0.03764375
52	0xbd2e6248	-0.042574197
53	0xbc146d29	-0.009059229
54	0x3d62c877	0.05536696
55	0xbdb31fee	-0.087463245
56	0xbd9b7b03	-0.07591822
57	0xbd6092bc	-0.054827437
58	0xbb1e842e	-0.0024187672
59	0x3d22fb7b	0.03979061
60	0x3bb000b3	0.005371177
61	0x3c06759a	0.008206749
62	0x3d8f9e4c	0.070126146
63	0xbc69eee6	-0.014278149
64	0xbd5d361c	-0.05400668
65	0xbd61d387	-0.05513337
66	0xbcc2b1b0	-0.023766369
67	0xbbe42e26	-0.006963509
68	0x3d91fe63	0.071285985
69	0xbc3b08d6	-0.011415681
70	0x3d3ec188	0.046571285
71	0x3ccdb83d	0.025112266
72	0x3ab97fa1	0.0014152416
73	0x3daafef3	0.08349409
74	0x3d31ce24	0.04340948
75	0x3cfaaf08	0.03060104
76	0xbd8aee3e	-0.06783722
77	0x3cad2df7	0.021140082
78	0xbdb5878b	-0.088637434
79	0xbd77e5b6	-0.060521804
80	0x3d3f3248	0.04667881
81	0xbc1d5cdc	-0.009604659
82	0x3da66dc7	0.08126407
83	0x3db0ca98	0.08632392
84	0x3dadef0c	0.0849286
85	0x3c0bbe8c	0.008529317
86	0x3d760122	0.060059674
87	0x3c4452fa	0.011982674
88	0x3d893ea8	0.06701404
89	0xbd333297	-0.043749418
90	0xbced2c9e	-0.02895194
91	0x3d0f19cf	0.034936722
92	0x3d6c90f3	0.05775542
93	0x3d43ea41	0.047830824
94	0xbc66aff1	-0.014080034
95	0x3c689b4e	0.014197184
96	0x3c3a3e3d	0.011367378
97	0xbcb17d6a	-0.021666247
98	0xbc833bb6	-0.016019683
99	0xbd453367	-0.048144724
100	0x3ca54e7a	0.020179022
101	0xbca790f8	-0.020454869
102	0x3d84aeb9	0.06478638
103	0xbd7e3bfb	-0.06206892
104	0x3d8ba28c	0.06818113
105	0xbd4bad64	-0.049725905
106	0xbd86a7a2	-0.06574942
107	0x3c1b6860	0.009485334
108	0x3d60d894	0.054894045
109	0xbd13acb0	-0.03605336
110	0x3d64a6cc	0.055823132
111	0x3d945238	0.072422445
112	0x3c8f312c	0.017479502
113	0xbd1d2d32	-0.03837318
114	0x3a7658b7	0.0009397375
115	0x3d28ac1d	0.041179765
116	0xbb6b3fe8	-0.0035896245
117	0xbcb6cc6d	-0.022314275
118	0xbd8a2283	-0.06744864
119	0xbc94ce37	-0.018164737
120	0x3d0d1cf2	0.034451433
121	0xbd7c8066	-0.061645888
122	0xbcb23ac7	-0.021756543
123	0xbd3b6619	-0.045751665
124	0xbcd3e5b2	-0.025866363
125	0x3d001d01	0.03127766
126	0x3cdb84b4	0.026796676
127	0x3caefce1	0.021360816
128	0xbb14c63c	-0.0022701165
129	0x3cc107c3	0.023563271
130	0x3c279703	0.010228875
131	0x3b87ef94	0.004148433
132	0xbae8f06a	-0.0017771844
133	0xbb493b49	-0.0030705503
134	0x3d89720d	0.067112066
135	0xbce96531	-0.028490635
136	0xbd8a8eea	-0.0676554
137	0xbdbfdd8a	-0.09368427
138	0xbd914cfb	-0.07094761
139	0xbc3d789e	-0.011564402
140	0xbd2a6cff	-0.041607853
141	0x3daf4e13	0.08559813
142	0x3dc50d44	0.09621671
143	0x3d30608a	0.043060817
144	0x3d8a0cad	0.06740699
145	0xbbbae487	-0.005703512
146	0x3d3eee1a	0.04661379
147	0x3cef2ba2	0.02919561
148	0xbd1bb785	-0.038016815
149	0xbd7bee7d	-0.061506737
150	0x3d7f0111	0.062256876
151	0xbaeffac9	-0.0018308993
152	0xbbc90405	-0.0061345124
153	0x3d622b90	0.055217326
154	0xbd7c7637	-0.061636176
155	0xbd07d4f6	-0.03316208
156	0x3d380562	0.04492701
157	0xbdb3227d	-0.087468125
158	0xbd141470	-0.036152303
159	0x3ce64e39	0.028113471
160	0xbd78b3a2	-0.060718186
161	0x3d21a9d8	0.039468616
162	0xbd0fc11e	-0.03509628
163	0x3d8f3702	0.06992914
164	0x3dae5342	0.08511974
165	0x3da8dcf9	0.08245272
166	0x3d89a7de	0.06721471
167	0x3d355dee	0.04427903
168	0x3d4027ba	0.046912886
169	0xbc7ebbf8	-0.015547745
170	0xbd15ddf7	-0.036588635
171	0xbc45f68a	-0.012082705
172	0xbd2707bd	-0.040778864
173	0xbd787738	-0.06066057
174	0xbd94eb6a	-0.07271464
175	0xba13c437	-0.0005636843
176	0x3d6ad3e4	0.05733098
177	0x3d10d816	0.035362326
178	0xbd299d65	-0.04140987
179	0x3d7521bd	0.05984663
180	0x3da2a5ee	0.07941805
181	0x3bd9ad1d	0.006642951
182	0xb9eba151	-0.00044942883
183	0x3c9bdbca	0.019025702
184	0x3bdf069b	0.0068062074
185	0xba6bb86b	-0.0008992019
186	0xbd949056	-0.072540924
187	0xbd81efee	-0.06344591
188	0xbd69f8c3	-0.057122003
189	0x3dbd7aae	0.09251915
190	0xbc67a728	-0.014138974
191	0x3d188a8a	0.037241496
192	0x3c1ec34c	0.009690117
193	0x3d07ec98	0.033184618
194	0x3d9a9474	0.075478464
195	0x3d4f9884	0.05068256
196	0xbda9ad63	-0.08285024
197	0xbd9de622	-0.0770991
198	0x3d8c5a66	0.0685318
199	0xbd70bddf	-0.058774825
200	0x3d905ce0	0.070489645
201	0xbcea202e	-0.028579798
202	0xbd5cb993	-0.053887915
203	0x3cc6894a	0.024235386
204	0xbd8ee1c4	-0.06976655
205	0xbdb654ac	-0.08902869
206	0xbd85bd9a	-0.06530304
207	0xbd959ad9	-0.073049255
208	0x3d1d0d84	0.038342968
209	0xbcc93194	-0.024559774
210	0xbd8839e7	-0.06651669
211	0xbd986eb8	-0.07442993
212	0xbd3c9a2e	-0.046045475
213	0x3d034abb	0.03205369
214	0xbcd4a63e	-0.025958177
215	0xbd8dc0fd	-0.06921575
216	0xbda408ee	-0.08009516
217	0xbd11997f	-0.035546776
218	0xbd9471b0	-0.07248247
219	0xbd1bd883	-0.03804828
220	0x3cb8723f	0.022515414
221	0xbd80196b	-0.06254848
222	0xbc8a672f	-0.016894905
223	0xbb90e392	-0.0044216597
224	0xbd01b364	-0.03166522
225	0xbd3ee240	-0.046602488
226	0xbd907151	-0.070528634
227	0x3d46592e	0.048424892
228	0xbd6c0204	-0.05761911
229	0xbd585967	-0.052819636
230	0xbd202783	-0.03910018
231	0xbb276de7	-0.0025547685
232	0x3d5f754d	0.054555226
233	0x3d26acea	0.040692247
234	0x3d138613	0.036016535
235	0x3d971312	0.07376684
236	0x3c56c086	0.013107425
237	0x3d424a80	0.04743433
238	0xbcc93f33	-0.024566269
239	0x3d05d1fc	0.03267096
240	0x3d9d5fd2	0.07684292
241	0x3ba945ae	0.005165777
242	0x3d036986	0.032083057
243	0xbd848f2c	-0.0647262
244	0xbd8d82fb	-0.06909748
245	0xbd722910	-0.05912119
246	0x3c281d25	0.010260855
247	0xbc7dd5ce	-0.01549287
248	0x3c5e2fb6	0.01356118
249	0xbbf9bf89	-0.0076217097
250	0xbd4b2943	-0.049599897
251	0x3d5fd10d	0.054642726
252	0x3da30b81	0.079611786
253	0x3d87193d	0.06596611
254	0x3dc8acf4	0.09798613
255	0x3d4d3f87	0.050109413
