models/ck_plus_model.pth (torch, 316595 bytes, 28 tensors)

layer_stack_1.0.weight f4 [20, 3, 3, 3]
-0.07935983 -0.12895904 -0.09978406 0.19378488 -0.03141102 0.06983587 0.13894737 -0.010896203
-0.10062581 -0.12859757 -0.06985249 0.07080227 -0.15853718 -0.022700753 0.075626805 0.16286913
0.062051713 0.040967733 0.13354442 0.08997561 0.06721832 -0.056131907 -0.15352897 -0.03914838
-0.029045215 0.018270595 -0.01825822 0.07780536 0.12789272 -0.07802317 -0.18260832 -0.09873837
-0.09208283 0.10908844 -0.124138705 -0.018101294 -0.040787697 -0.116804175 0.08723471 -0.080166146
-0.0099558635 -0.13530871 -0.01941047 0.027344424 -0.007831334 -0.07190853 0.05717377 -0.049863353
-0.10669412 -0.14191897 -0.040766615 -0.18180345 0.15973741 -0.09193876 -0.079884544 0.017681675
0.04991862 -0.018625326 0.13155372 -0.112175226 0.06883939 -0.00061795965 -0.1565487 -0.07466466
0.048867792 0.03679518 0.13945855 0.12827632 -0.10495318 -0.08231289 -0.040991355 -0.13787131
-0.052089248 -0.15759301 0.073226094 0.13569114 0.014766094 -0.13775767 -0.14587483 -0.075104624
0.055978574 0.0040696803 0.06805059 0.22786342 0.050938282 0.017630065 -0.06043843 0.08982043
0.057306465 -0.19694272 -0.11430667 0.03951883 0.11950659 0.055183917 -0.13831253 -0.21243434
-0.0112428535 -0.035100028 0.032127142 -0.053549528 0.18019162 0.059323914 0.10209199 -0.15775707
0.05548558 0.021713737 -0.10935321 0.0716888 -0.16319054 0.1579018 0.017685557 0.043911826
0.07349746 -0.038049508 0.070097946 0.09908218 -0.19101296 0.15350145 -0.026505087 -0.042577595
0.06406681 0.13502541 -0.15864395 -0.14209439 0.096078634 -0.13120176 0.08814392 -0.026040766
0.05514895 0.17219213 -0.11303375 -0.14741424 0.08202392 -0.0128200585 -0.061994433 -0.23452248
0.12803833 -0.048356976 -0.08078286 -0.108382285 -0.060208272 0.07123129 -0.0048155193 0.15550147
-0.07658782 -0.062625185 0.06756022 -0.050315727 -0.06779501 0.042091664 0.12946568 0.04763333
0.12492293 0.05923845 0.019407785 0.025844045 0.016764577 -0.009421229 0.14149387 0.1553522
0.06811771 -0.018694362 0.20162927 -0.13179183 0.13733391 0.09767737 0.122837 -0.022791695
-0.15504628 0.12929313 -0.084847435 0.079715855 0.12702774 -0.18392485 0.008484231 -0.069105774
0.12858798 -0.13399257 0.108860895 0.11930835 0.13525747 0.20275056 0.025071863 -0.17872064
0.13664158 0.009613511 -0.0076405383 -0.19131489 -0.04395184 -0.06948411 0.1784082 0.12368532
0.13708137 0.10682884 -0.14530854 -0.112697184 -0.10638532 -0.09180577 0.17373429 0.055308565
0.14087582 -0.0154862655 -0.1965233 -0.081847854 0.10520723 0.08609475 0.044921238 -0.03252622
-0.18970688 -0.11675303 0.093856 -0.102594316 0.06604259 0.022501068 -0.10498757 0.10256123
-0.061840482 -0.005681641 -0.07288822 -0.18255268 0.031798765 0.055974092 -0.09689504 0.11888456
-0.17236702 -0.18551739 -0.11815441 -0.06609316 -0.021373145 -0.03642212 0.08819418 -0.16889907
0.029164378 0.003604217 0.050831888 0.19202287 0.118861645 -0.106560506 -0.15693526 -0.046230424
-0.096538156 0.068050474 0.0020356195 0.16029932 0.07402097 -0.04927943 -0.0041993624 0.04611317
-0.01551208 0.14784531 -0.15046215 0.09500353 -0.11716889 -0.17017676 -0.053402927 0.082967885
00000000: 6887 a2bd d70d 04be 965b ccbd 8b6f 463e
00000010: d7a8 00bd 1c06 8f3d 3848 0e3e fd85 32bc
00000020: e814 cebd 15af 03be d30e 8fbd c800 913d
00000030: 9257 22be eef6 b9bc 3ae2 9a3d 2ac7 263e
00000040: f029 7e3d c8cd 273d debf 083e 2245 b83d
00000050: c2a9 893d 92ea 65bd b336 1dbe 0d5a 20bd
00000060: 3bf0 edbc 37ac 953c 4392 95bc 6b58 9f3d
00000070: 4ff6 023e 9dca 9fbd adfd 3abe 5837 cabd
00000080: ec95 bcbd c369 df3d 6f3c febd 2a49 94bc
00000090: 0011 27bd 0737 efbd 1da8 b23d 262e a4bd
000000a0: eb1d 23bc 5e8e 0abe b502 9fbc 6a01 e03c
000000b0: ff4e 00bc c844 93bd 0b2f 6a3d 843d 4cbd
000000c0: 7282 dabd 3553 11be e5fa 26bd af2a 3abe
000000d0: 3492 233e 634a bcbd 829a a3bd 29d9 903c
000000e0: 7877 4c3d 2494 98bc 05b6 063e 20bc e5bd
000000f0: abfb 8c3d 92fe 21ba 4d4e 20be c9e9 98bd
00000100: 9829 483d 8bb6 163d 39ce 0e3e de5a 033e
00000110: b1f1 d6bd a993 a8bd 8de6 27bd 232e 0dbe
00000120: 895b 55bd 1060 21be 90f7 953d 9ef2 0a3e
00000130: 7ded 713c 5910 0dbe 3660 15be 74d0 99bd
00000140: ca49 653d f45a 853b 1c5e 8b3d 0755 693e
00000150: a9a4 503d ed6c 903c 4a8e 77bd c6f3 b73d
00000160: 2fba 6a3d 5aab 49be 9e19 eabd 7fde 213d
00000170: dfbf f43d 8808 623d cda1 0dbe 6388 59be
00000180: f233 38bc 0cc5 0fbd c097 033d c056 5bbd
00000190: 2784 383e a2fd 723d 9b15 d13d 128b 21be
000001a0: d944 633d 02e1 b13c 93f4 dfbd 94d1 923d
000001b0: 6c1b 27be 02b1 213e 4de1 903c e3dc 333d
000001c0: d685 963d cdd9 1bbd 838f 8f3d 99eb ca3d
000001d0: e798 43be 7c2f 1d3e 3221 d9bc d865 2ebd
000001e0: 7635 833d 1a44 0a3e 8f73 22be 3181 11be
000001f0: e0c4 c43d c159 06be cd84 b43d 7253 d5bc
00000200: dee3 613d 2253 303e 3d7e e7bd c2f3 16be
00000210: 28fc a73d 390b 52bc e0ed 7dbd a926 70be
00000220: 7b1c 033e f711 46bd 7c71 a5bd 88f7 ddbd
00000230: f39c 76bd b6e1 913d 81cb 9dbb c73b 1f3e
00000240: 13da 9cbd a241 80bd 035d 8a3d dd17 4ebd
00000250: 1cd8 8abd 4f68 2c3d a792 043e 2b1b 433d
00000260: 98d7 ff3d 04a4 723d 13fd 9e3c e4b6 d33c
00000270: de55 893c 805b 1abc c5e3 103e a614 1f3e
00000280: 4c81 8b3d eb24 99bc e777 4e3e 70f4 06be
00000290: 43a1 0c3e 130b c83d f791 fb3d a6b5 babc
000002a0: 74c4 1ebe 6b65 043e 7ec4 adbd 1142 a33d
000002b0: 8f13 023e cc56 3cbe 7201 0b3c 5487 8dbd
000002c0: 91ac 033e 5935 09be 76f2 de3d f057 f43d
000002d0: ef80 0a3e d89d 4f3e 8263 cd3c 8b02 37be
000002e0: c5eb 0b3e fd81 1d3c 7b5d fabb 0de8 43be
000002f0: d806 34bd af4d 8ebd a4b0 363e bb4e fd3d
00000300: 0f5f 0c3e 14c9 da3d c3cb 14be c8cd e6bd
00000310: 8ce0 d9bd aa04 bcbd 67e7 313e 3c8b 623d
00000320: c041 103e 1bba 7dbc 673d 49be d99f a7bd
00000330: e376 d73d 7252 b03d 55ff 373d 373a 05bd
00000340: 8542 42be 361c efbd 9337 c03d f81c d2bd
00000350: 5641 873d 2954 b83c b903 d7bd 9f0b d23d
00000360: 724c 7dbd 0f2d babb 6b46 95bd 17ef 3abe
00000370: 6c3f 023d 1745 653d e870 c6bd c079 f33d
00000380: fb80 30be 45f8 3dbe f0fa f1bd da5b 87bd
00000390: bc16 afbc 5c2f 15bd 269f b43d e1f3 2cbe
000003a0: 22ea ee3c ba34 6c3b 1935 503d a5a1 443e
000003b0: bc6d f33d 653c dabd a3b3 20be 1d5c 3dbd
000003c0: ccb5 c5bd 0c5e 8b3d 0768 053b 8125 243e
000003d0: 4e98 973d 3ad9 49bd ce9a 89bb 2ae1 3c3d
000003e0: 6126 7ebc c364 173e c012 1abe 3691 c23d
000003f0: 3ef6 efbd d142 2ebe 07bd 5abd 11eb a93d

layer_stack_1.0.bias f4 [20]
-0.17392442 -0.12633194 -0.17480232 -0.009940086 0.007153368 -0.023460016 -0.0037199582 0.18239644
-0.06271549 0.07253464 0.20870747 -0.12618805 -0.026395055 0.13895236 0.1712983 -0.02392109
0.20215681 -0.09560084 -0.12842618 0.19236705
00000000: 3e19 32be 295d 01be 61ff 32be bedb 22bc
00000010: cd66 ea3b 382f c0bc 8bca 73bb 22c6 3a3e
00000020: fb70 80bd 0b8d 943d 69b7 553e 7137 01be
00000030: 713a d8bc 8749 0e3e d268 2f3e 29f6 c3bc
00000040: 3202 4f3e 60ca c3bd 2782 03be defb 443e

layer_stack_1.2.weight f4 [20, 20, 3, 3]
-0.007115618 0.07361193 0.0053818813 -0.030613225 0.07079511 0.06528391 0.0069574695 -0.044973463
-0.0031215542 -0.03584543 0.05431269 0.0034527527 0.015691344 0.04520323 0.024689283 -0.04653007
0.06191853 0.045790542 -0.04601353 0.056359902 0.02113988 -0.014679827 -0.053309485 -0.012410811
-0.07307318 0.042614162 0.053929176 -0.022333767 0.058599602 -0.029166749 0.025171125 -0.040609166
-0.005758376 0.018474009 0.026462177 0.010698101 -0.031925194 0.054777686 0.039233502 0.030290518
-0.020600028 0.0054017655 0.0033196763 0.07962237 0.021753918 0.017993258 0.0077418303 0.062303856
-0.00021957944 0.07207909 0.054622594 -0.049670264 0.007978223 -0.058443684 -0.055490885 0.03354888
0.034360137 0.0038125277 0.086734965 -0.014401353 -0.020906897 -0.0075525423 0.008901755 -0.010299976
0.06997678 -0.016191233 -0.033471305 0.011985988 0.06170264 0.01794566 0.04600054 0.025411805
0.06351494 0.044742737 0.05333535 -0.010044859 -0.061727844 -0.03535703 0.025397616 0.05228424
-0.029121386 0.060564168 0.013832543 0.0047080843 0.0033169957 -0.013562265 0.067723095 0.0011310795
0.05037998 -0.049346294 -0.038402833 0.00890488 0.06009643 0.0347291 0.013899824 -0.07261426
0.00092284306 -0.050421193 -0.062931865 0.011584208 -0.045551505 0.06763772 -0.03934558 0.025692487
0.043734707 -0.05690609 0.03977544 -0.009982926 0.038637683 0.07214263 -0.03174323 -0.03228789
0.059224125 0.008290159 -0.00743407 0.056548964 -0.03601286 -0.009333365 0.048451334 0.027311543
-0.04346204 0.017226689 -0.056456063 -0.043386795 0.055171773 -0.017507525 -0.024463419 0.012183781
0.025759505 -0.047760885 -0.056188174 -0.06561839 0.014562836 -0.04342008 0.029643675 -0.016670495
-0.04873581 -0.023784196 -0.057294693 -0.0394541 -0.002323416 -0.06372173 -0.065370314 0.055831924
0.0073680324 -0.030047463 -0.004306971 0.053557914 -0.061224073 -0.04003062 -0.054386154 -0.0003086558
-0.004341736 -0.04004356 0.061192807 -0.05705441 0.079087555 -0.036498964 -0.0074377535 0.011725155
-0.027326422 0.08664817 -0.05437111 -0.0052361 -0.04674464 0.019424342 0.06328416 0.07182958
0.0148214195 -0.035606727 0.069945596 0.019058885 0.05407952 -0.030181248 -0.034311436 -0.055727467
0.08471118 0.0065670363 -0.048882607 0.039985333 -0.03201342 0.0036652477 0.02457528 -0.036797278
0.013040067 -0.047148574 0.014380651 -0.071632765 0.012131769 0.07405255 0.068655685 0.027189182
0.054845493 0.07246783 0.021121101 0.024858976 0.009692169 0.065988585 0.064029105 -0.035040148
-0.0030858212 -0.037558183 0.026711218 -0.07218019 0.026375605 -0.020456653 0.027027352 0.025195079
-0.0343075 0.026600117 0.043105394 -0.054764275 0.0684925 0.066560656 0.05820619 -0.005532644
0.029400274 -0.0409635 -0.03205975 0.04724282 0.042204384 0.019257264 -0.060228743 0.074073
-0.03899722 0.07904358 0.07029925 0.028669877 0.07671624 0.046804883 0.048269123 -0.01630663
0.07053723 0.02600276 0.04496697 -0.015193863 0.057616953 0.08805215 -0.041604396 0.07757192
-0.023676742 -0.040753618 -0.04781217 0.023309486 -0.053787403 -0.034056626 -0.026890293 0.028574655
-0.072967045 -0.029847054 0.010361835 0.008197379 -0.033656843 0.026703384 -0.049175162 -0.063122556
00000000: 212a e9bb dac1 963d 7e5a b03b 96c8 fabc
00000010: 07fd 903d 92b3 853d 7cfb e33b 1836 38bd
00000020: fd92 4cbb a8d2 12bd fc76 5e3d 9447 623b
00000030: 228b 803c 0627 393d 2e41 ca3c 5196 3ebd
00000040: 499e 7d3d dd8e 3b3d af78 3cbd a4d9 663d
00000050: 8b2d ad3c a883 70bc 0c5b 5abd b756 4bbc
00000060: 64a7 95bd 308c 2e3d d7e4 5c3d 4ef5 b6bc
00000070: 2306 703d 1bef eebc ad33 ce3c cc55 26bd
00000080: c2b0 bcbb ce56 973c 35c7 d83c 1647 2f3c
00000090: fec3 02bd 915e 603d 4fb3 203d d223 f83c
000000a0: 64c1 a8bc 4b01 b13b ed8e 593b 0e11 a33d
000000b0: 4635 b23c 9966 933c 2eaf fd3b 5432 7f3d
000000c0: e83e 66b9 349e 933d f1bb 5f3d 0c73 4bbd
000000d0: 18b7 023c a562 6fbd 694a 63bd 8d6a 093d
000000e0: 37bd 0c3d 9adb 793b 1aa2 b13d a7f3 6bbc
000000f0: f144 abbc 517b f7bb abd8 113c 3bc1 28bc
00000100: fc4f 8f3d 7aa3 84bc 3519 09bd e160 443c
00000110: e8bb 7c3d c702 933c 106b 3c3d 6b2c d03c
00000120: 1f14 823d 2944 373d 2b76 5a3d 3193 24bc
00000130: 56d6 7cbd 88d2 10bd a90e d03c 0028 563d
00000140: f98f eebc 2212 783d e4a1 623c 4646 9a3b
00000150: f461 593b 4334 5ebc 68b2 8a3d bb40 943a
00000160: 3d5b 4e3d 571f 4abd 4a4c 1dbd c6e5 113c
00000170: ad27 763d 1a40 0e3d 16bc 633c c9b6 94bd
00000180: f3ea 713a 7486 4ebd 6ce2 80bd b1cb 3d3c
00000190: 3794 3abd a585 8a3d d528 21bd 0d79 d23c
000001a0: 2a23 333d 5c16 69bd 92eb 223d 6d8f 23bc
000001b0: 8c42 1e3d 84bf 933d 3005 02bd 4e40 04bd
000001c0: ff94 723d 72d3 073c 8099 f3bb e39f 673d
000001d0: 3882 13bd f8ea 18bc e874 463d 75bc df3c
000001e0: 4105 32bd fc1e 8d3c 793e 67bd 5ab6 31bd
000001f0: ccfb 613d f16b 8fbc 8267 c8bc 7b9e 473c
00000200: 9905 d33c eba0 43bd 9225 66bd ef62 86bd
00000210: f698 6e3c 41d9 31bd 4bd7 f23c 9090 88bc
00000220: 339f 47bd 13d7 c2bc d7ad 6abd 9f9a 21bd
00000230: 7444 18bb 8a80 82bd dfe0 85bd 04b0 643d
00000240: 896f f13b 1926 f6bc 7e21 8dbb 8b5f 5b3d
00000250: 18c6 7abd 26f7 23bd 04c4 5ebd 15d3 a1b9
00000260: 1f45 8ebb b704 24bd 4fa5 7a3d e3b1 69bd
00000270: a8f8 a13d f07f 15bd 66b8 f3bb dd1a 403c
00000280: a9db dfbc 9974 b13d 3eb4 5ebd 9793 abbb
00000290: 4f77 3fbd cc1f 9f3c 209b 813d 631b 933d
000002a0: 8ad5 723c 5cd8 11bd a33f 8f3d 6121 9c3c
000002b0: 7d82 5d3d aa3e f7bc 268a 0cbd 7c42 64bd
000002c0: 0e7d ad3d 4b30 d73b 2139 48bd a9c7 233d
000002d0: 8120 03bd a734 703b 1952 c93c beb8 16bd
000002e0: 01a6 553c dd1e 41bd d29c 6b3c 33b4 92bd
000002f0: 54c4 463c dda8 973d 5a9b 8c3d d9bb de3c
00000300: aba5 603d 036a 943d 2906 ad3c 0da5 cb3c
00000310: e7cb 1e3c 0625 873d b121 833d 4286 0fbd
00000320: 7d3b 4abb 9cd6 19bd 7cd1 da3c 35d3 93bd
00000330: a711 d83c b694 a7bc 7768 dd3c e965 ce3c
00000340: 0586 0cbd 7de8 d93c 488f 303d 8150 60bd
00000350: cc45 8c3d f450 883d 9d69 6e3d 2f4b b5bb
00000360: d8d8 f03c 58c9 27bd 1651 03bd b081 413d
00000370: 81de 2c3d 69c1 9d3c 6ab2 76bd 96b3 973d
00000380: 8dbb 1fbd 9ae1 a13d 0ef9 8f3d 17dd ea3c
00000390: 671d 9d3d 7ab6 3f3d d8b5 453d 7b95 85bc
000003a0: d375 903d bd03 d53c 492f 383d aeef 78bc
000003b0: c1ff 6b3d b054 b43d 5f69 2abd 07de 9e3d
000003c0: baf5 c1bc 44ed 26bd b2d6 43bd 89f3 be3c
000003d0: 2e50 5cbd f67e 0bbd 0849 dcbc 6515 ea3c
000003e0: bf6f 95bd cf81 f4bc b0c4 293c 4d4e 063c
000003f0: c2db 09bd 0ec1 da3c e56b 49bd 6646 81bd

layer_stack_1.2.bias f4 [20]
-0.02155321 -0.036717426 0.022971049 0.011386847 -0.0719647 0.024602458 -0.0067179976 -0.036107693
0.054907843 -0.049070578 -0.06798916 0.008123923 -0.04045632 -0.030270284 -0.06518532 -0.018522954
0.059217907 -0.06762706 -0.050401147 -0.016311469
00000000: 5c90 b0bc 0365 16bd c82d bc3c e68f 3a3c
00000010: 3b62 93bd 188b c93c a622 dcbb a9e5 13bd
00000020: 0ce7 603d 3bfe 48bd e73d 8bbd 341a 053c
00000030: 87b5 25bd 63f9 f7bc e27f 85bd 73bd 97bc
00000040: 7a8e 723d 0e80 8abd 6f71 4ebd a19f 85bc

layer_stack_1.3.weight f4 [20]
1.003685 0.99068403 0.9991894 0.98844695 1.0157065 0.99998695 1.0317086 1.0046221
0.9952953 1.0052073 0.9889361 1.0044986 1.00069 1.0073879 0.98976487 0.99869365
1.0010844 1.0085248 0.9888173 0.97523165
00000000: c078 803f 789d 7d3f e0ca 7f3f dc0a 7d3f
00000010: ac02 823f 25ff 7f3f 070f 843f 7597 803f
00000020: accb 7e3f a2aa 803f eb2a 7d3f 6993 803f
00000030: 9c16 803f 16f2 803f 3b61 7d3f 63aa 7f3f
00000040: 8923 803f 5717 813f 2123 7d3f c8a8 793f

layer_stack_1.3.bias f4 [20]
0.0045149694 -0.017950634 0.007944956 -0.016614623 0.0016906717 -0.017297192 -0.0022147794 0.003359267
-0.008722745 -0.022177259 -0.008789522 0.016841186 -0.0055019064 0.009158468 -0.0127077615 7.1669974e-06
0.004243705 0.016866578 -0.008324379 -0.03204579
00000000: 4ff2 933b 350d 93bc 902b 023c 641b 88bc
00000010: 8799 dd3a d7b2 8dbc d525 11bb 2627 5c3b
00000020: d8e9 0ebc 15ad b5bc ed01 10bc 87f6 893c
00000030: 5649 b4bb 660d 163c 3734 50bc 0a7c f036
00000040: c70e 8b3b c72b 8a3c fa62 08bc 7242 03bd

layer_stack_1.3.running_mean f4 [20]
0.054878388 0.016680906 0.09472685 -0.01425859 -0.1826397 -0.037463162 0.008253616 -0.01187704
0.11180701 -0.10029461 -0.23234634 -0.014573679 -0.10243954 -0.014926273 0.092139274 0.049105827
0.06337352 -0.022517826 0.057746023 -0.18514892
00000000: 29c8 603d 65a6 883c 2700 c23d dc9c 69bc
00000010: e705 3bbe f972 19bd 2d3a 073c eb97 42bc
00000020: 13fb e43d 4367 cdbd 33ec 6dbe 71c6 6ebc
00000030: d2cb d1bd 548d 74bc 84b3 bc3d 3123 493d
00000040: fac9 813d 4e77 b8bc 1887 6c3d ae97 3dbe

layer_stack_1.3.running_var f4 [20]
0.0022320198 0.0049497066 0.0012942903 0.0037720506 0.005433406 0.0017308438 0.0019283079 0.0015418231
0.002906504 0.0029115991 0.0027257956 0.0019795562 0.0053475127 0.0016270587 0.002623302 0.0018859121
0.001951544 0.0012338528 0.0044028433 0.007301114
00000000: 1447 123b 2631 a23b 2da5 a93a 8234 773b
00000010: b70a b23b 7bdd e23a 47bf fc3a 0017 ca3a
00000020: 0c7b 3e3b 87d0 3e3b 43a3 323b 71bb 013b
00000030: 303a af3b 0843 d53a b4eb 2b3b b630 f73a
00000040: f3ca ff3a 3bb9 a13a ba45 903b 2f3e ef3b

layer_stack_1.5.weight f4 [20, 20, 3, 3]
-0.0752622 -0.0019619388 -0.032478858 0.044704948 -0.08051116 -0.0022509415 0.041326582 0.012079819
-0.019545808 0.051724896 -0.07541996 0.05258473 0.022556959 0.028126342 0.04134765 0.019552162
0.014308357 -0.014243661 -0.07839123 0.029495688 0.07210745 0.017732738 -0.017584056 -0.06553734
-0.013831216 0.0012447821 -0.06956317 0.043154463 -0.018422917 0.012346292 0.036111657 0.0051929886
-0.06777401 0.036041547 0.03149066 0.018945158 -0.023691662 0.024219206 -0.038227756 -0.012587295
-0.05479715 0.040722005 0.0628433 -0.08337778 -0.049200322 -0.038541786 -0.055027418 0.06767606
-0.056790933 -0.041739497 -0.06494627 0.016908474 -0.055428427 -0.05484336 0.07178322 0.011729026
0.0028569873 0.035564568 0.018651677 -0.0018319121 -0.06623197 0.032215677 -0.05680698 -0.017251058
-0.04357268 -0.043341078 -0.06995284 -0.04741591 -0.042300165 -0.056057084 -0.03364571 -0.07181051
0.06226973 0.0076583074 -0.1017013 -0.057107493 -0.021538425 0.032738876 0.08921061 0.021120904
0.07486229 -0.025605578 1.0343149e-05 0.002348367 -0.08234536 -0.013141914 0.01333155 0.028192539
-0.0737202 -0.033884518 0.010399377 0.013765655 0.011058422 -0.05114792 0.058058586 -0.06782514
-0.015759287 0.040321004 -0.01991255 -0.047012236 -0.08396648 0.04699691 -0.011583737 0.023330722
-0.008071559 -0.037603837 -0.027321301 0.032249056 -0.030670341 -0.03336484 0.039188553 -0.018404195
0.012183449 -0.046683397 0.050389048 0.028677525 -0.04798827 -0.024905955 0.030864555 -0.037418474
0.0578954 0.014083792 -0.023614299 0.00658261 -0.014954616 0.05112745 0.04131553 -0.016463034
-0.07132624 0.04139892 0.051524803 0.040086538 0.0073275827 0.025846956 0.005337836 -0.03923921
-0.0994902 -0.025320783 0.02747255 0.036023464 0.0129511235 0.0313173 0.048818167 -0.000666175
0.02644082 -0.019128956 -0.036086127 -0.03601102 -0.049632285 -0.06781024 -0.0036361183 0.062226452
0.011355434 0.079867765 0.021971542 -0.010494407 -0.0032786252 0.040705856 0.02620881 -0.06935022
-0.01749294 -0.03410938 -0.023864485 0.040260907 -0.038242962 0.045417167 -0.0574866 0.05466516
0.024523692 0.02090777 -0.024625743 -0.00712235 -0.044944704 -0.06241004 0.07269019 0.08729557
0.03236626 -0.0003827606 0.041657355 0.012089064 -0.07064751 -0.06993039 0.013776512 -0.03624028
-0.034477398 -0.06725406 0.013133038 -0.05778116 -0.045137964 0.020326907 0.05361176 0.043425154
0.014075124 -0.007945469 0.03902069 0.050082486 0.021343172 0.0053767036 0.013430387 -0.0016398386
0.028749919 0.014689015 -0.07239967 -0.06758069 -0.0827739 -0.031358127 -0.006945885 -0.031003509
-0.06855716 -0.050577093 0.024268074 -0.009998657 -0.01921325 -0.0023905132 -0.021950677 -0.047194242
-0.038847 -0.036516428 -0.07248063 -0.07212376 -0.03547207 0.022296786 0.06679823 -0.009472999
0.046004478 0.015724566 -0.060939096 -0.03818381 -0.028695256 -0.060913853 0.010889708 0.0075062397
-0.05342549 -0.011601806 -0.063296854 0.08781159 0.0658561 -0.034039047 0.058144398 -0.044803675
0.049176812 -0.042391844 0.007892793 0.038829926 0.021231119 0.010910349 -0.024096552 -0.01029132
0.051384937 -0.042488366 -0.035792064 -0.0053196396 -0.026167622 -0.022606852 0.010488993 0.049167383
00000000: 1123 9abd df93 00bb 8d08 05bd 891c 373d
00000010: 09e3 a4bd 8884 13bb 1046 293d 6fea 453c
00000020: 881e a0bc 7cdd 533d c875 9abd 1663 573d
00000030: 5fc9 b83c 3769 e63c 275c 293d db2b a03c
00000040: 996d 6a3c 3f5e 69bc 958b a0bd f1a0 f13c
00000050: 12ad 933d 3f44 913c 700c 90bc 7138 86bd
00000060: 539c 62bc f527 a33a 2377 8ebd bcc2 303d
00000070: a8eb 96bc 1a48 4a3c d1e9 133d f229 aa3b
00000080: 1acd 8abd 4da0 133d 5afc 003d e032 9b3c
00000090: 0415 c2bc 5b67 c63c b594 1cbd f13a 4ebc
000000a0: fa72 60bd 1ecc 263d fdb3 803d f8c1 aabd
000000b0: 4786 49bd fedd 1dbd 6e64 61bd bf99 8a3d
000000c0: 9c9d 68bd 09f7 2abd 8d02 85bd a483 8a3c
000000d0: eb08 63bd 6ea3 60bd 1503 933d 1a2b 403c
000000e0: 4b3c 3b3b 27ac 113d 67cb 983c c51c f0ba
000000f0: a1a4 87bd 96f4 033d 70ae 68bd 1752 8dbc
00000100: 4479 32bd 6a86 31bd 6f43 8fbd 2f37 42bd
00000110: f042 2dbd 1d9c 65bd 16d0 09bd 6311 93bd
00000120: 8b0e 7f3d 8af2 fa3b c548 d0bd 8ce9 69bd
00000130: 5a71 b0bc 3319 063d 0db4 b63d bf05 ad3c
00000140: 6651 993d cac2 d1bc 7d87 2d37 0fe7 193b
00000150: afa4 a8bd 2f51 57bc 936c 5a3c 0af4 e63c
00000160: 9efa 96bd 7eca 0abd 2662 2a3c 5889 613c
00000170: 622e 353c 7b80 51bd d7ce 6d3d e8e7 8abd
00000180: 9f19 81bc a327 253d a51f a3bc e78f 40bd
00000190: 9ef6 abbd d57f 403d b7c9 3dbc 1220 bf3c
000001a0: 923e 04bc 7b06 1abd ecd0 dfbc 9617 043d
000001b0: 5e40 fbbc 92a9 08bd 2d84 203d 65c4 96bc
000001c0: 179d 473c 1737 3fbd bf64 4e3d 21ed ea3c
000001d0: 598f 44bd 9307 ccbc aad7 fc3c 1d44 19bd
000001e0: ba23 6d3d b5bf 663c c672 c1bc efb2 d73b
000001f0: 3504 75bc 046b 513d 793a 293d 7cdd 86bc
00000200: 7e13 92bd ea91 293d ac0b 533d c831 243d
00000210: 381c f03b ffbc d33c 04e9 ae3b 4bb9 20bd
00000220: 85c1 cbbd 886d cfbc 1d0e e13c 578d 133d
00000230: f330 543c 9246 003d 8ff5 473d 3fa2 2eba
00000240: 6b9a d83c 54b4 9cbc 0ccf 13bd 4b80 13bd
00000250: 394b 4bbd 18e0 8abd f14b 6ebb 2ae1 7e3d
00000260: 240c 3a3c b691 a33d aafd b33c bcf0 2bbc
00000270: 34de 56bb 2fbb 263d dcb3 d63c 7d07 8ebd
00000280: 5b4d 8fbc 47b6 0bbd 747f c3bc 9fe8 243d
00000290: a7a4 1cbd 5a07 3a3d 1277 6bbd 93e8 5f3d
000002a0: e9e5 c83c c646 ab3c edbb c9bc 9a62 e9bb
000002b0: f017 38bd aca1 7fbd 98de 943d 05c8 b23d
000002c0: 7c92 043d 42ad c8b9 e7a0 2a3d 3611 463c
000002d0: a4af 90bd aa37 8fbd e1b6 613c b070 14bd
000002e0: 2c38 0dbd 7fbc 89bd f42b 573c f0ab 6cbd
000002f0: 96e2 38bd 9d84 a63c 0198 5b3d 93de 313d
00000300: 599b 663c b62d 02bc 29d4 1f3d 4b23 4d3d
00000310: e0d7 ae3c 0f2f b03b 200b 5c3c daef d6ba
00000320: f384 eb3c 32aa 703c 4746 94bd bf67 8abd
00000330: 5d85 a9bd 6171 00bd 4e9a e3bb 12fb fdbc
00000340: b267 8cbd ed29 4fbd d7cd c63c 68d1 23bc
00000350: 1b65 9dbc 28aa 1cbb e8d1 b3bc c04e 41bd
00000360: 081e 1fbd 4092 15bd b970 94bd 9fb5 93bd
00000370: 294b 11bd c0a7 b63c 83cd 883d a334 1bbc
00000380: 316f 3c3d ced0 803c 469b 79bd a066 1cbd
00000390: 5012 ebbc ce80 79bd bf6a 323c e7f6 f53b
000003a0: b0d4 5abd 8015 3ebc c8a1 81bd 90d6 b33d
000003b0: 90df 863d 876c 0bbd d228 6e3d 0f84 37bd
000003c0: a06d 493d 12a3 2dbd c650 013c 210c 1f3d
000003d0: e2ec ad3c 52c1 323c 2266 c5bc ed9c 28bc
000003e0: 0379 523d 4808 2ebd b39a 12bd 5f50 aebb
000003f0: 7b5d d6bc 0132 b9bc 06da 2b3c bd63 493d

layer_stack_1.5.bias f4 [20]
-0.009631946 0.014189115 0.018989146 -0.05195598 0.015062208 -0.014059766 -0.04376149 -0.0164688
0.04317959 -0.056942683 -0.073906735 -0.0017995633 -0.01204823 -0.022059536 0.03825857 -0.04090272
-0.07700365 -0.031067526 -0.07139753 0.00011394917
00000000: 4fcf 1dbc 7679 683c 208f 9b3c cbcf 54bd
00000010: 7bc7 763c ef5a 66bc 403f 33bd 94e9 86bc
00000020: 15dd 303d bb3c 69bd 6a5c 97bd 53df ebba
00000030: f065 45bc 33b6 b4bc 05b5 1c3d 9c89 27bd
00000040: 17b4 9dbd 5381 febc de38 92bd fff7 ee38

layer_stack_2.0.weight f4 [20, 20, 3, 3]
-0.07368734 0.07306502 -0.044691753 0.03686817 -0.05637253 0.001851112 -0.056919318 0.019921528
0.04446542 -0.06418981 -0.05398691 0.020837994 0.0021221011 0.007409275 0.028438047 -0.015255573
0.055698246 -0.0006515842 -0.027915725 0.02695502 -0.058289114 -0.037247516 0.017888527 -0.036206294
-0.07364389 0.020656863 0.0015445712 0.013924063 0.0186146 -0.074049905 -0.043929636 -0.049273945
0.050660405 -0.04889959 -0.065737076 -0.048246164 -0.008525228 0.021287387 0.054589752 0.040682394
0.006382514 0.08801395 0.033297107 0.053879824 -0.03319185 0.008282306 -0.013113559 -0.06697885
-0.031616338 0.062490076 0.031649742 0.07425443 0.054255538 -0.00044012885 0.044020083 0.017138306
-0.0065346505 -0.039848316 0.033074863 0.02678827 0.020656569 -0.031364888 -0.059269335 0.017617201
0.02396401 -0.044286054 0.008534283 -0.03201778 0.059716307 -0.0012899701 -0.044513326 0.05718344
0.017771645 0.011345532 0.04853029 0.08023148 0.045087636 0.003346978 0.05621563 -0.04053176
0.06454562 -0.04105053 -0.0055646673 0.05896404 0.026085425 -0.016738113 0.044852916 0.02837484
-0.08293675 -0.01997159 -0.053464845 0.0067661908 0.009618305 -0.042519327 -0.024968822 0.037658446
-0.0148226395 -0.07716044 0.015967168 -0.060313027 -0.030121308 0.037015587 0.0660294 -0.02950029
-0.044901647 0.031448778 -0.09395433 0.031772707 0.03574131 0.042481802 0.021117602 0.008024975
-0.0452957 -0.023436228 0.037842344 0.039737552 -0.019467201 0.025832186 -0.05408502 0.06534
-0.033769913 -0.034765642 0.077216275 -0.021685949 -0.047745522 -0.0032933045 0.056657664 0.08059252
0.009443001 0.05359314 0.061590865 -0.011145332 -0.05045746 0.019606322 -0.016870616 0.008885915
-0.06543827 -0.051279034 -0.06004917 -0.053255495 0.06021593 -0.07073705 0.012244071 -0.02925381
-0.046778675 -0.0414337 0.017779505 0.053168867 -0.009328881 -0.0038367952 0.021591702 0.091131635
0.024993824 -0.018868554 0.052450392 -0.067521974 0.034416027 0.052230593 -0.039905105 0.021876141
0.028492462 -0.048122123 0.029313233 0.0730344 0.021818511 -0.005479832 -0.021602238 -0.039236713
-0.0010916044 -0.079185635 -0.066557296 -0.03912698 -0.068472505 0.07124126 -0.03820993 -0.029837536
0.032637924 0.019110432 0.07674899 0.002231342 -0.019579452 -0.05812902 -0.06570475 -0.040445708
-0.0046258443 -0.044042125 -0.019316478 0.018049989 0.009893662 0.04762858 0.028978024 0.032927755
-0.036356524 0.031200945 -0.07269283 0.02706596 -0.045566954 0.014638639 -0.062862486 -0.005716605
0.039434277 -0.026903715 0.054774996 -0.00919386 0.07873379 0.06851948 -0.04671275 -0.016641494
-0.0153369075 -0.028635204 0.019587751 -0.07170033 -0.052249115 -0.013102037 -0.068795756 -0.07343136
0.0193047 -0.06333607 0.04840895 -0.042986944 -0.0052482784 0.053220842 -0.07339935 -0.069138624
0.008037058 -0.031660978 0.035826277 0.028754748 0.008848217 0.029603675 0.06705852 0.010803678
0.048539247 -0.040854566 0.03239454 -0.017889043 0.038047794 -0.07864641 -0.060567025 -0.04677302
0.018268825 -0.022904074 -0.08180467 0.049562447 0.01571226 0.07536489 -0.014645754 0.0035630122
0.05689451 -0.07225072 0.05021402 -0.0563809 -0.0012649441 -0.048398122 -0.039914574 0.04256966
00000000: 63e9 96bd 1da3 953d b30e 37bd 1403 173d
00000010: e2e6 66bd 03a1 f23a 3b24 69bd 7932 a33c
00000020: 5f21 363d f275 83bd 6121 5dbd 71b4 aa3c
00000030: f312 0b3b 81c9 f23b e8f6 e83c 83f2 79bc
00000040: d823 643d 13cf 2aba 85af e4bc c6d0 dc3c
00000050: 91c0 6ebd da90 18bd f68a 923c 0d4d 14bd
00000060: 9cd2 96bd 9538 a93c 3673 ca3a c121 643c
00000070: a57d 983c 7aa7 97bd 90ef 33bd 7ad3 49bd
00000080: 4981 4f3d f04a 48bd 29a1 86bd c59d 45bd
00000090: 66ad 0bbc e362 ae3c 8199 5f3d 95a2 263d
000000a0: 6824 d13b a840 b43d 8c62 083d 17b1 5c3d
000000b0: 2df4 07bd 82b2 073c 41da 56bc 352c 89bd
000000c0: 2280 01bd 98f5 7f3d 29a3 013d b512 983d
000000d0: 0e3b 5e3d 18c1 e6b9 674e 343d a265 8c3c
000000e0: 9f20 d6bb fd37 23bd 8279 073d 1373 db3c
000000f0: f737 a93c 7878 00bd 67c4 72bd f351 903c
00000100: 2c50 c43c 4b65 35bd 61d3 0b3c 1325 03bd
00000110: 1699 743d 3714 a9ba 9b53 36bd 2f39 6a3d
00000120: d795 913c 9ce2 393c b3c7 463d 6750 a43d
00000130: d0ad 383d f958 5b3b 5c42 663d a104 26bd
00000140: 7e30 843d 9a24 28bd d057 b6bb 4784 713d
00000150: 1ab1 d53c 5e1e 89bc b1b7 373d 5a72 e83c
00000160: beda a9bd 769b a3bc f4fd 5abd ecb6 dd3b
00000170: 1896 1d3c bf28 2ebd 6a8b ccbc be3f 1a3d
00000180: a8da 72bc 4b06 9ebd 94cd 823c cb0a 77bd
00000190: f6c0 f6bc a89d 173d 6c3a 873d 98aa f1bc
000001a0: caea 37bd 6fd0 003d 216b c0bd 1924 023d
000001b0: 7b65 123d 6601 2e3d d2fe ac3c 2f7b 033c
000001c0: fc87 39bd 55fd bfbc 9300 1b3d d8c3 223d
000001d0: ae79 9fbc 059e d33c 4188 5dbd fad0 853d
000001e0: 5252 0abd 6b66 0ebd 9123 9e3d bba6 b1bc
000001f0: cf90 43bd 7bd4 57bb de11 683d b10d a53d
00000200: d1b6 1a3c 7b84 5b3d b446 7c3d e99a 36bc
00000210: 7bac 4ebd 709d a03c 3f34 8abc 3b96 113c
00000220: 8004 86bd f709 52bd 1ef6 75bd 6f22 5abd
00000230: fba4 763d 96de 90bd 5b9b 483c b0a5 efbc
00000240: ff9a 3fbd 62b6 29bd 53a6 913c 99c7 593d
00000250: 2ad8 18bc be72 7bbb 15e1 b03c 39a3 ba3d
00000260: d9bf cc3c 3a92 9abc 39d6 563d f648 8abd
00000270: d2f7 0c3d bfef 553d 8973 23bd 9835 b33c
00000280: 0669 e93c b41b 45bd 4e22 f03c 0f93 953d
00000290: bcbc b23c 2a90 b3bb 2df7 b0bc adb6 20bd
000002a0: 2a14 8fba 142c a2bd 314f 88bd 9d43 20bd
000002b0: 503b 8cbd f0e6 913d 0482 1cbd d96d f4bc
000002c0: 58af 053d 7b8d 9c3c 932e 9d3d b53b 123b
000002d0: 1665 a0bc b218 6ebd 3690 86bd 66aa 25bd
000002e0: 6594 97bb 8465 34bd 973d 9ebc 92dd 933c
000002f0: 0719 223c 3016 433d 5263 ed3c 41df 063d
00000300: 94ea 14bd 2099 ff3c fadf 94bd 6fb9 dd3c
00000310: 6aa4 3abd e7d6 6f3c 0cbe 80bd 5c52 bbbb
00000320: d685 213d 2e65 dcbc bf5b 603d d8a1 16bc
00000330: 2e3f a13d f153 8c3d de55 3fbd be53 88bc
00000340: a747 7bbc 6094 eabc 7e76 a03c 9fd7 92bd
00000350: 2b03 56bd eda9 56bc cae4 8cbd 2e63 96bd
00000360: e424 9e3c 57b6 81bd 7748 463d 1413 30bd
00000370: c0f9 abbb 19fe 593d 6652 96bd 8d98 8dbd
00000380: ddad 033c f1ae 01bd 93be 123d 148f eb3c
00000390: 1df8 103c 6883 f23c fa55 893d e901 313c
000003a0: 17d1 463d 1e57 27bd 23b0 043d 0b8c 92bc
000003b0: 01d8 1b3d 5e11 a1bd 2115 78bd 1195 3fbd
000003c0: 81a8 953c 53a1 bbbc 3589 a7bd fe01 4b3d
000003d0: ffb6 803c e858 9a3d bff4 6fbc 6d81 693b
000003e0: 380a 693d 2ff8 93bd 37ad 4d3d a9ef 66bd
000003f0: 7bcc a5ba 1c3d 46bd 777d 23bd 865d 2e3d

layer_stack_2.0.bias f4 [20]
-0.031727683 0.0025581091 -0.04496713 -0.021822719 0.029471729 0.010525516 -0.055467848 0.018757187
-0.014873578 -0.054754917 -0.06891358 0.003214317 -0.05485618 -0.045561846 0.017960535 0.0045960518
-0.0337449 0.011555029 0.037548736 -0.02878158
00000000: e3f4 01bd f3a5 273b 742f 38bd 8fc5 b2bc
00000010: b26e f13c 3773 2c3c 4132 63bd aca8 993c
00000020: 4fb0 73bc b146 60bd 9022 8dbd 4aa7 523b
00000030: e0b0 60bd 0f9f 3abd f921 933c 7a9a 963b
00000040: 1838 0abd 4e51 3d3c b4cc 193d 59c7 ebbc

layer_stack_2.1.weight f4 [20]
1.0050982 0.9899142 0.99510354 0.9955484 0.990478 1.0013365 0.9995086 0.9923199
0.99734896 0.9845853 0.9854802 0.99824667 0.99792105 1.0328954 0.99516314 1.0031673
1.0316645 1.0004272 1.010717 0.9910286
00000000: 0fa7 803f 046b 7d3f 1bbf 7e3f 43dc 7e3f
00000010: f78f 7d3f cb2b 803f ccdf 7f3f ad08 7e3f
00000020: 4352 7f3f c80d 7c3f 6e48 7c3f 188d 7f3f
00000030: c177 7f3f eb35 843f 03c3 7e3f c967 803f
00000040: 950d 843f 000e 803f 2d5f 813f 0db4 7d3f

layer_stack_2.1.bias f4 [20]
0.008789399 -0.0001561517 0.009816448 -0.0007534863 -0.0024864788 0.007782933 0.00067673373 0.0022048329
-0.005245214 -0.0065732924 -0.006727953 0.0069016605 -0.0006030655 0.017309234 0.011599277 0.010269235
0.014531025 0.006790895 0.0067284317 -0.0025580884
00000000: 6901 103c a7bc 23b9 2bd5 203c 9c85 45ba
00000010: 31f4 22bb f907 ff3b d566 313a f57e 103b
00000020: 0be0 abbb c664 d7bb 2976 dcbb 5327 e23b
00000030: 0a17 1eba 18cc 8d3c e50a 3e3c 4b40 283c
00000040: 8913 6e3c 2886 de3b 2d7a dc3b 9aa5 27bb

layer_stack_2.1.running_mean f4 [20]
-0.029383658 -0.059005607 -0.14372356 -0.07939241 -0.061289452 -0.024054158 -0.0756417 -0.04853777
-0.038708035 -0.06145281 -0.0774789 -0.0755794 -0.04983364 -0.08965038 0.02719677 -0.01159919
-0.05314425 0.056241836 0.0066715255 -0.073511705
00000000: ffb5 f0bc ddaf 71bd 452c 13be 7d98 a2bd
00000010: a60a 7bbd 3a0d c5bc 09ea 9abd 8acf 46bd
00000020: 518c 1ebd f1b5 7bbd 42ad 9ebd 5fc9 9abd
00000030: 5c1e 4cbd 9e9a b7bd c3cb de3c 870a 3ebc
00000040: c9ad 59bd d75d 663d d09c da3b 4e8d 96bd

layer_stack_2.1.running_var f4 [20]
0.010245976 0.012332843 0.020761091 0.016424358 0.015633062 0.011851637 0.009307195 0.0150202485
0.007664786 0.010457703 0.008621207 0.014006532 0.008139955 0.010342213 0.012444289 0.012033261
0.012794138 0.013050715 0.014051823 0.010534237
00000000: bdde 273c b10f 4a3c 2a13 aa3c 608c 863c
00000010: e810 803c 5e2d 423c 357d 183c 7d17 763c
00000020: e328 fb3b c956 2b3c f73f 0d3c a77b 653c
00000030: 725d 053c 6372 293c 22e3 4b3c 2827 453c
00000040: 819e 513c abd2 553c 9e39 663c cb97 2c3c

layer_stack_2.3.weight f4 [20, 20, 3, 3]
-0.016574662 0.02204744 0.027073173 0.04312012 0.08895523 0.032965776 0.025435995 -0.022972297
0.026395027 0.048866954 -0.06845871 -0.04457693 -0.04615667 0.06524002 -0.0077011916 0.087900974
-0.028216574 -0.016290652 0.034589708 -0.0803062 -0.07793757 -0.048666373 0.004637645 -0.06531604
0.017783264 0.06921823 -0.012789502 -0.017649466 -0.06823272 -0.02438344 0.015467291 0.026355328
-0.015608299 -0.026909 -0.02217037 0.059278727 -0.037029523 0.008537285 -0.008083105 -0.03261434
-0.005472118 0.05891053 0.049270086 -0.02417256 -0.019983431 -0.03321953 -0.03001617 -0.011169087
0.05698495 0.0022799007 -0.07244693 -0.0091370605 -0.06610069 0.05057005 0.032371916 -0.0030116672
0.04348818 -0.03838503 -0.0088827275 0.01487999 0.054630026 0.05942003 0.0058275983 -0.07319121
0.011838195 -0.042200282 0.05945992 -0.027090369 -0.02949814 -0.0110988505 0.064262025 0.025341505
-0.038824677 0.027583787 0.0456566 -0.0069265338 0.03122951 -0.058815163 -0.030828297 0.040943652
0.0501265 0.0279896 -0.03550355 0.027255453 -0.02174951 -0.0372312 -0.028290657 0.0015477949
0.02895548 0.024578173 0.06725264 -0.007718513 0.062481996 -0.033520818 -0.032865573 0.00430421
0.057048045 0.038934417 0.07883674 -0.031008612 0.07440933 0.022744654 0.013840518 0.0037332166
-0.039449394 0.025710428 0.0071910475 0.051246017 0.06649478 -0.039593115 0.07019569 -0.0020477376
-0.01638053 0.07892967 -0.025339456 0.013189212 0.018832713 -0.0042536967 0.06040032 0.032114692
0.093844496 0.018062064 -0.027352743 0.018968206 -0.0062157563 0.014580998 -0.059428662 0.08048717
-0.01676984 -0.0041049365 0.016567526 0.003289742 0.036432795 -0.063238345 0.00036447585 -0.027859177
0.08594794 -0.02000586 0.054888453 -0.05919342 -0.059512135 -0.010140524 -0.084125794 0.05266692
0.07107286 -0.03674846 0.05543427 0.014919534 0.06300515 -0.018326955 0.014566812 0.008824696
0.04289421 0.012152863 -0.058797095 0.0055816667 0.050446622 0.0784556 0.06391771 -0.009364726
0.04988883 0.062684186 -0.061708596 -0.018651308 -0.08145529 0.023406394 0.0135248415 -0.04536919
0.051289756 0.09000025 -0.039969552 -0.054198716 -0.037657972 0.006673658 -0.06048269 -0.016289188
0.043988135 -0.051690474 -0.016898379 -0.017645925 0.03447298 -0.021943578 0.059351142 -0.03539797
0.045309115 0.0011541232 0.07414288 -0.023674421 -0.016407914 0.05876753 -0.06202968 0.021446712
0.046323985 -0.0038305104 0.059157316 -0.05451193 -0.003975853 -0.036532678 0.019916227 0.06377595
-0.0717868 -0.031821612 -0.05226186 -0.036495212 0.028215697 0.007592629 -0.04969373 -0.04342409
-0.048298724 0.0003733234 -0.051127348 -0.04515724 -0.05623601 0.0751106 0.07234634 -0.02733889
0.023764221 -0.0061519626 -0.022246232 0.034800958 -0.04537924 0.005559219 0.053944793 -0.058682244
0.06268738 0.05871596 0.03386953 -0.011756878 -0.025353547 -0.047449335 -0.062022727 -0.06858175
-0.016274422 0.0035557782 -0.05443066 0.082397565 -0.04458556 0.027915964 -0.010103555 0.07117891
-0.024947114 0.021988053 0.017717933 0.043043464 -0.047667265 -0.035388093 0.0052568237 -0.074665844
-0.027830571 -0.05622615 0.031730086 0.007626116 -0.052398063 0.08683474 0.041299097 -0.025591135
00000000: 96c7 87bc d59c b43c 8fc8 dd3c b99e 303d
00000010: 292e b63d 1f07 073d 265f d03c 6630 bcbc
00000020: 623a d83c b728 483d 1534 8cbd 4d96 36bd
00000030: c70e 3dbd 8f9c 853d 475a fcbb 6d05 b43d
00000040: 7226 e7bc f973 85bc f0ad 0d3d 9477 a4bd
00000050: bc9d 9fbd 6456 47bd 63f7 973b 6ac4 85bd
00000060: 35ae 913c 4ac2 8d3d 0f8b 51bc 9d95 90bc
00000070: 99bd 8bbd c8bf c7bc 856a 7d3c 21e7 d73c
00000080: f3b9 7fbc 4370 dcbc a39e b5bc 40ce 723d
00000090: 45ac 17bd f8df 0b3c 006f 04bc 9d96 05bd
000000a0: 744f b3bb 2b4c 713d 6ecf 493d 8805 c6bc
000000b0: 4bb4 a3bc 3411 08bd 79e4 f5bc 8cfe 36bc
000000c0: 0d69 693d 636a 153b 0e5f 94bd 9cb3 15bc
000000d0: cc5f 87bd 8a22 4f3d 6a98 043d 645f 45bb
000000e0: a920 323d 9f39 1dbd dc88 11bc 34cb 733c
000000f0: bcc3 5f3d 6b62 733d 70f5 be3b 46e5 95bd
00000100: fdf4 413c 34da 2cbd 3f8c 733d 9fec ddbc
00000110: 15a6 f1bc f4d7 35bc cf9b 833d fd98 cf3c
00000120: a006 1fbd 65f7 e13c 6a02 3b3d faf7 e2bb
00000130: 08d5 ff3c 2be8 70bd a08b fcbc 88b4 273d
00000140: 7251 4d3d 724a e53c 2c6c 11bd d446 df3c
00000150: 072c b2bc be7f 18bd cfc1 e7bc 61df ca3a
00000160: 0b34 ed3c 2a58 c93c c1bb 893d 94eb fcbb
00000170: 1fed 7f3d 204d 09bd 0d9e 06bd 550a 8d3b
00000180: 36ab 693d b279 1f3d 2875 a13d c605 febc
00000190: eb63 983d ff52 ba3c 57c3 623c fba8 743b
000001a0: b095 21bd ad9e d23c e1a2 eb3b 58e7 513d
000001b0: 6a2e 883d 642c 22bd c2c2 8f3d 5633 06bb
000001c0: 7630 86bc e1a5 a13d b194 cfbc 9117 583c
000001d0: 1047 9a3c 9862 8bbb 5366 773d b28a 033d
000001e0: 8b31 c03d e5f6 933c dc12 e0bc 3663 9b3c
000001f0: 8bad cbbb 23e5 6e3c 786b 73bd 75d6 a43d
00000200: e760 89bc b482 86bb 9fb8 873c b698 573b
00000210: 8e3a 153d 1b83 81bd 1f17 bf39 ee38 e4bc
00000220: 7905 b03d 54e3 a3bc b7d2 603d cd74 72bd
00000230: ffc2 73bd 7124 26bc 254a acbd 45b9 573d
00000240: a68e 913d 8e85 16bd 0c0f 633d 1071 743c
00000250: d808 813d 6922 96bc a3a9 6e3c 7595 103c
00000260: d7b1 2f3d cd1c 473c 39d5 70bd 6ae6 b63b
00000270: 1ea1 4e3d 54ad a03d 4ae7 823d 826e 19bc
00000280: 3b58 4c3d 9160 803d 27c2 7cbd a1ca 98bc
00000290: 08d2 a6bd c4be bf3c 4c97 5d3c 0bd5 39bd
000002a0: 3515 523d 0d52 b83d 1db7 23bd 79ff 5dbd
000002b0: 3f3f 1abd b3ae da3b b2bc 77bd e770 85bc
000002c0: e72c 343d 64b9 53bd 786e 8abc 308e 90bc
000002d0: 8a33 0d3d 05c3 b3bc 2f1a 733d 76fd 10bd
000002e0: 0d96 393d f345 973a 39d8 973d dcf0 c1bc
000002f0: e469 86bc 39b6 703d d512 7ebd 04b1 af3c
00000300: 38be 3d3d 4d09 7bbb f14e 723d e747 5fbd
00000310: df47 82bb 4aa3 15bd 5b27 a33c f79c 823d
00000320: f504 93bd 6157 02bd 8810 56bd 017c 15bd
00000330: 9b24 e73c 97cb f83b a78b 4bbd 75dd 31bd
00000340: e2d4 45bd 9eba c339 e96a 51bd ccf6 38bd
00000350: bb57 66bd 96d3 993d 512a 943d cff5 dfbc
00000360: 2fad c23c 6796 c9bb bb3d b6bc 738b 0e3d
00000370: 95df 39bd 1c2a b63b 37f5 5c3d cb5c 70bd
00000380: 3e62 803d 2580 703d c7ba 0a3d ec9f 40bc
00000390: 3eb2 cfbc 3c5a 42bd 8b0b 7ebd 9774 8cbd
000003a0: f051 85bc 0f08 693b aff2 5ebd 0ec0 a83d
000003b0: 599f 36bd 05b0 e43c 6289 25bc 40c6 913d
000003c0: e45d ccbc 4a20 b43c 3325 913c 584e 303d
000003d0: c03e 43bd 1bf3 10bd 6f41 ac3b 68ea 98bd
000003e0: f0fc e3bc 644d 66bd 68f7 013d 7fe4 f93b
000003f0: 5a9f 56bd 6ad6 b13d 3e29 293d 80a4 d1bc

layer_stack_2.3.bias f4 [20]
0.07078161 0.064206325 -0.033387575 -0.06348653 0.010883276 0.016816458 -0.019928284 -0.03424109
0.0056235264 -0.04536249 -0.03905777 0.023844266 0.008428762 0.0300748 0.06303478 -0.00072558416
0.025366664 0.05321124 -0.046659123 0.04965181
00000000: f3f5 903d 9b7e 833d 69c1 08bd 3a05 82bd
00000010: c54f 323c abc2 893c a440 a3bc 6340 0cbd
00000020: 8f45 b83b 05ce 39bd 0afb 1fbd 0d55 c33c
00000030: ca18 0a3c 6d5f f63c 6118 813d 2135 3eba
00000040: c0cd cf3c 07f4 593d a31d 3fbd b25f 4b3d

layer_stack_2.4.weight f4 [20]
1.0415825 1.045914 1.043724 1.0705904 1.0366261 1.0414919 1.0105402 1.0554844
1.0239162 1.0286555 1.032119 1.0309305 1.0397652 1.0622998 1.0713766 1.0352279
1.0811558 1.0303276 1.0371708 1.0723228
00000000: 9352 853f 83e0 853f bf98 853f 1b09 893f
00000010: 2ab0 843f 9b4f 853f 6259 813f 1d1a 873f
00000020: b00f 833f fcaa 833f 7a1c 843f 88f5 833f
00000030: 0717 853f 71f9 873f de22 893f 5982 843f
00000040: 5063 8a3f c6e1 833f 03c2 843f e041 893f

layer_stack_2.4.bias f4 [20]
0.017179843 0.023580499 0.018213395 0.033611663 0.021804618 0.02101555 0.012895264 0.02835806
0.012251502 0.013356696 0.013798063 0.021718588 0.055332292 0.027740737 0.02723652 0.035030764
0.045975085 0.016884869 0.018569507 0.03808302
00000000: bebc 8c3c e42b c13c 4234 953c 62ac 093d
00000010: 999f b23c cd28 ac3c a846 533c 2a4f e83c
00000020: 86ba 483c 0bd6 5a3c 4511 623c 2eeb b13c
00000030: 1da4 623d 8b40 e33c 1f1f df3c 6b7c 0f3d
00000040: 5f50 3c3d 2352 8a3c 141f 983c f1fc 1b3d

layer_stack_2.4.running_mean f4 [20]
0.34446916 0.27682814 0.23507032 0.33718374 0.38021368 0.3224564 -0.21560308 0.2944248
0.42982522 0.07833999 0.14598846 0.16287364 -0.3538236 0.2381217 0.6060197 0.10215278
0.28841478 0.3149016 0.15530422 0.20422295
00000000: 435e b03e 6bbc 8d3e 46b6 703e 59a3 ac3e
00000010: 5eab c23e 0119 a53e 0ec7 5cbe d9be 963e
00000020: 0d12 dc3e b770 a03d 007e 153e 59c8 263e
00000030: 5e28 b5be 2dd6 733e 1b24 1b3f 7a35 d13d
00000040: 1aab 933e c83a a13e 1208 1f3e d21f 513e

layer_stack_2.4.running_var f4 [20]
0.24905527 0.23537746 0.19491158 0.28213695 0.22353742 0.17733239 0.12558927 0.2175313
0.15787886 0.20588182 0.20978184 0.15324512 0.24650393 0.21596488 0.23855269 0.18892458
0.21883658 0.19068335 0.175199 0.26783928
00000000: 5808 7f3e ca06 713e e796 473e 4174 903e
00000010: fee6 643e 9f96 353e 799a 003e 86c0 5e3e
00000020: ffaa 213e afd2 523e 0dd1 563e 4aec 1c3e
00000030: 876b 7c3e e625 5d3e 2847 743e 7275 413e
00000040: b216 603e 7f42 433e 5e67 333e 3b22 893e

layer_stack_2.6.weight f4 [20, 20, 3, 3]
0.0469855 -0.013185664 0.07882361 -0.0467221 -0.029081967 0.07707131 0.015591731 -0.022593565
-0.06211245 0.063977376 0.050228897 -0.020178163 0.0068914196 0.07933086 0.050958727 -0.044919353
-0.0014665433 -0.019830558 0.0865529 0.08070561 0.016136551 0.0044481168 -0.033742625 0.0012106582
0.028950248 -0.08116305 0.007452335 0.08250003 0.08200369 0.090982825 -0.035368264 -0.006581217
-0.046377268 -0.0521944 0.0062055537 0.020769417 0.05707044 0.0018917036 0.061073266 -0.03432415
-0.037187207 -0.002121805 -0.053990852 0.015265232 0.016967155 0.07117214 0.06948868 0.03537914
0.045275964 0.05091884 -0.03970538 -0.042293653 -0.06137989 -0.037027445 -0.000970486 0.060638722
0.036312155 -0.03944316 0.020336209 0.051560212 0.019230912 -0.04337389 0.027250998 0.04634338
0.052160442 0.09253344 0.06528527 -0.010235685 0.09211315 -0.07836756 -0.044188168 0.04448075
0.01996966 0.08260285 0.03561232 0.00089029386 0.09638848 -0.05214799 0.028995218 0.04529415
0.059554867 0.08210036 0.059977785 -0.017356956 0.061814513 0.08040653 0.022988642 0.043345656
0.013768435 0.008214681 0.05467197 0.03815449 -0.01218548 0.02823516 0.04011902 -0.02711633
-0.062447436 0.03379312 -0.016992064 0.0046248967 0.10099303 0.08609064 0.04261364 0.062716335
0.06993162 -0.05580061 0.078987844 -0.05197988 -0.064714134 -0.059876718 0.039018236 0.017851468
-0.0149779385 0.0044493508 -0.079786085 -0.09478776 -0.008285455 -0.0068025216 0.08083061 -0.009326279
0.061783735 -0.05608691 0.06856316 0.02458104 -0.052349105 0.06633664 0.048397727 -0.021958103
-0.022277558 0.083721355 0.021266073 0.046955075 0.03874281 0.054553468 -0.010174332 0.048961796
0.016745845 0.00699143 -0.04319796 0.023372278 -0.028360713 0.06307955 0.042482782 0.043268945
0.01385827 0.1159272 0.09491762 0.021006864 0.016845275 -0.025345659 -0.040083934 0.04150002
-0.051694393 -0.03923179 0.06213065 -0.004331966 -0.07274539 0.012725306 0.055876974 -0.07963085
0.0020266364 -0.05397819 0.068113804 0.077464014 0.03342491 0.11339412 0.030701693 -0.011867269
0.030807754 0.035631802 -0.027665991 -0.052991975 -0.007663581 0.050304405 0.023634374 -0.012791834
0.10744009 -0.071233906 -0.010017203 0.04374042 -0.040240753 0.07720464 -0.03705151 0.07644461
0.04150346 -0.015368824 0.08742326 0.025666539 0.049399473 0.08797831 -0.05992909 0.06737028
0.0103062 -0.016142847 0.06874643 -0.00806847 -0.041853 -0.030046599 0.07169202 0.05065876
-0.0018499973 0.08013465 0.055095132 -0.034754418 0.023366224 0.06320578 -0.0011459728 0.024381023
0.10765393 -0.010696808 0.110344745 0.12859006 0.10512204 0.0035761434 0.02016849 0.03281151
-0.050624404 -0.016963053 -0.038490508 0.018215775 0.003894457 0.0004658514 -0.043652467 -0.043837674
0.028929189 0.082490645 -0.031739026 -0.057397928 0.0030348147 -0.0065119164 -0.067948975 0.10069922
0.09073203 0.08010821 -0.05095914 -0.06730557 0.051814474 -0.050605588 -0.070933215 -0.073252656
0.02516563 -0.010761455 -0.046777125 0.074974775 -0.04311403 -0.0016470844 0.07323573 0.0666663
0.06858707 0.015212722 0.07021023 0.014789722 0.007777615 -0.051770728 0.03648361 0.02639195
00000000: de73 403d af08 58bc 466e a13d ac5f 3fbd
00000010: 4e3d eebc 90d7 9d3d 7674 7f3c 2416 b9bc
00000020: a069 7ebd 9206 833d d1bc 4d3d ad4c a5bc
00000030: 6bd1 e13b 3878 a23d 19ba 503d 5bfd 37bd
00000040: 0739 c0ba b273 a2bc a642 b13d fc48 a53d
00000050: cd30 843c 82c1 913b b535 0abd f3ae 9e3a
00000060: 1229 ed3c d038 a6bd b832 f43b c7f5 a83d
00000070: 8df1 a73d 3455 ba3d 50de 10bd 40a7 d7bb
00000080: 17f6 3dbd ccc9 55bd f557 cb3b a024 aa3c
00000090: b2c2 693d 0af3 f73a f627 7a3d 7b97 0cbd
000000a0: 9d51 18bd fb0d 0bbb 8325 5dbd 061b 7a3c
000000b0: b4fe 8a3c b3c2 913d 1550 8e3d b8e9 103d
000000c0: 4a73 393d 4690 503d 1ca2 22bd 1c3c 2dbd
000000d0: 7b69 7bbd 17aa 17bd 3768 7eba 4f60 783d
000000e0: 0ebc 143d 278f 21bd 1f98 a63c cd30 533d
000000f0: 258a 9d3c d2a8 31bd 7c3d df3c 8ed2 3d3d
00000100: 30a6 553d 2c82 bd3d 49b4 853d 93b3 27bc
00000110: d2a5 bc3d 2c7f a0bd a7fe 34bd 7231 363d
00000120: 6a97 a33c af2b a93d 39de 113d 9c62 693a
00000130: 5367 c53d 2199 55bd 6187 ed3c 5c86 393d
00000140: ceef 733d 3c24 a83d 44ab 753d 2d30 8ebc
00000150: 3731 7d3d 2eac a43d ad52 bc3c 378b 313d
00000160: 0195 613c df96 063c b7ef 5f3d e247 1c3d
00000170: 9ca5 47bc 6c4d e73c d753 243d 1123 debc
00000180: e2c8 7fbd a86a 0a3d f132 8bbc 728c 973b
00000190: 6fd5 ce3d 4a50 b03d a48b 2e3d 6c71 803d
000001a0: 4f38 8f3d 2e8f 64bd 61c4 a13d dbe8 54bd
000001b0: d888 84bd 4a41 75bd 96d1 1f3d 3e3d 923c
000001c0: 0766 75bc dccb 913b e366 a3bd 1620 c2bd
000001d0: b8bf 07bc b0e7 debb 858a a53d 40cd 18bc
000001e0: f110 7d3d 63bb 65bd d86a 8c3d 2d5e c93c
000001f0: 046c 56bd 81db 873d b23c 463d 7be1 b3bc
00000200: 6d7f b6bc 1a76 ab3d 3036 ae3c f753 403d
00000210: c8b0 1e3d 7573 5f3d 3eb2 26bc 2a8c 483d
00000220: 952e 893c 5e18 e53b 58f0 30bd 3877 bf3c
00000230: ba54 e8bc da2f 813d 6d02 2e3d c73a 313d
00000240: cc0d 633c 3d6b ed3d 2b64 c23d 9616 ac3c
00000250: 1aff 893c b3a1 cfbc 0d2f 24bd edfb 293d
00000260: 80bd 53bd 83b1 20bd b57c 7e3d 2af3 8dbb
00000270: 89fb 94bd cd7d 503c 41df 643d 8015 a3bd
00000280: 51d1 043b 3c18 5dbd 407f 8b3d 74a5 9e3d
00000290: 8fe8 083d 2d3b e83d 1e82 fb3c ef6e 42bc
000002a0: 8b60 fc3c a7f2 113d caa3 e2bc 1d0e 59bd
000002b0: c71e fbbb fe0b 4e3d e09c c13c d794 51bc
000002c0: 8d09 dc3d 15e3 91bd 321f 24bc 2829 333d
000002d0: 7dd3 24bd 771d 9e3d 53c3 17bd fe8e 9c3d
000002e0: 88ff 293d 85cd 7bbc f70a b33d a242 d23c
000002f0: 1a57 4a3d f92d b43d 3578 75bd 6ef9 893d
00000300: 56db 283c 013e 84bc eeca 8c3d 9e31 04bc
00000310: 0d6e 2bbd 4924 f6bc 44d3 923d 8f7f 4f3d
00000320: 9c7b f2ba a31d a43d 6fab 613d a65a 0ebd
00000330: 866a bf3c 0872 813d 7734 96ba b6ba c73c
00000340: aa79 dc3d aa41 2fbc 6dfc e13d 1dad 033e
00000350: 394a d73d bb5d 6a3b 6438 a53c 5d65 063d
00000360: 895b 4fbd 1af6 8abc 39a8 1dbd 4039 953c
00000370: 253a 7f3b 843d f439 eecc 32bd 228f 33bd
00000380: e8fc ec3c dbf0 a83d c800 02bd 171a 6bbd
00000390: bee3 463b ea61 d5bb d528 8bbd 653b ce3d
000003a0: b7d1 b93d c60f a43d 88ba 50bd 81d7 89bd
000003b0: 6a3b 543d ce47 4fbd 6f45 91bd 7d05 96bd
000003c0: 2728 ce3c d050 30bc 5f99 3fbd 608c 993d
000003d0: 5698 30bd fbe2 d7ba 9dfc 953d 5788 883d
000003e0: 6177 8c3d c83e 793c 62ca 8f3d 9750 723c
000003f0: 5ddb fe3b 8b0d 54bd d66f 153d ee33 d83c

layer_stack_2.6.bias f4 [20]
0.011011513 -0.060863923 0.007539013 0.055118144 -0.05951488 0.022617985 -0.06095497 0.09137689
-0.016911775 0.102798246 -0.012858055 -0.05759217 -0.0085318545 -0.036702685 -0.045902684 0.041603703
0.08660256 -0.04073354 -0.086216345 0.05772593
00000000: a269 343c 734c 79bd d309 f73b 90c3 613d
00000010: e0c5 73bd 5a49 b93c ebab 79bd cf23 bb3d
00000020: 908a 8abc e387 d23d 97aa 52bc c4e5 6bbd
00000030: 31c9 0bbc 8e55 16bd 7404 3cbd a568 2a3d
00000040: af5c b13d 36d8 26bd 3292 b0bd 0672 6c3d
