models/fer_plus_best_model.pth (torch, 675362 bytes, 54 tensors)

layer_stack_1.0.weight f4 [40, 3, 3, 3]
0.7149444 0.85247666 1.4304067 -1.0120012 -1.9374685 1.6730194 -3.0956244 -1.9773719
2.1160724 0.50985616 0.9658467 1.2811264 -0.94626683 -1.9611989 1.9054307 -3.0708425
-1.9577075 1.8183514 0.6580432 0.81937075 1.38445 -0.90756637 -2.0190542 1.8549914
-2.994216 -2.1089935 1.8220818 0.58098453 1.5081402 2.592471 -0.5751733 -1.4741443
0.90746355 -2.2059236 -2.8208988 -0.17902628 0.53594565 1.3466424 2.581809 -0.6433507
-1.2249002 1.0611024 -2.5065064 -2.7888052 0.067710824 0.74545884 1.5612266 2.239684
-0.595597 -1.473084 0.7753941 -2.5027456 -2.9361918 -0.07302602 -0.72466546 0.6456828
0.024083978 2.177432 -1.4751912 0.36069092 -1.6344051 0.46732372 0.5891615 -0.66239256
0.29834878 0.15850693 1.9700143 -1.537719 0.4289295 -1.6175278 0.6338788 0.41934973
-0.7547962 0.43839034 -0.021655884 2.2475557 -1.7908872 0.51424414 -1.6135982 0.5056321
0.5148327 0.22091971 -0.3083636 0.017112078 -0.5405172 1.1211615 -0.92038083 0.28013524
-0.7681962 0.13038328 0.09536647 -0.5408886 0.3708428 -0.7492518 1.1867121 -0.78137416
0.25448182 -0.527792 0.3696808 0.13931315 -0.63581115 0.349296 -0.5791846 1.3668369
-0.6587976 0.14437696 -0.6258831 0.32818806 -4.6617627 -0.49283326 2.2732806 -0.4746467
3.9174974 1.9661168 1.8798523 -3.1343985 -1.209783 -4.614549 -0.55934423 2.1955492
-0.2970778 3.9935877 2.1424613 1.6943026 -3.2770925 -1.1561685 -4.5777655 -0.53400433
2.1322641 -0.19695905 3.7605221 2.1426964 1.8346522 -3.217332 -1.3649267 -0.7224026
2.2406566 -0.97640026 -0.72245234 1.7336894 -0.5572929 -0.94001335 -0.38598192 0.64432764
-0.5688267 2.3642447 -1.1416667 -0.42341852 1.7493452 -0.50720876 -0.71907973 -0.6146707
0.57428616 -0.9131092 2.4029412 -0.92579013 -0.54495895 1.6263684 -0.737725 -0.830873
-0.68533194 0.81654227 -2.587792 3.4309165 0.2006907 -2.3711417 -0.029740341 0.5293255
2.547746 2.295023 -3.60086 -2.5585177 3.5187113 -0.0015153555 -2.350615 -0.07754896
0.7663896 2.4662864 2.2030938 -3.7040727 -2.4883683 3.5344095 0.13062526 -2.167028
-0.13900806 0.7169061 2.4907727 2.2828367 -3.5349872 -0.16483343 -0.39870423 0.4987431
0.93559766 -1.9945394 1.0391797 1.134278 0.24904875 -0.87387294 -0.47331566 -0.4708959
0.5360342 0.6571818 -2.110716 1.3620983 1.1408422 0.21209064 -1.1302446 -0.47341937
-0.5008607 0.5257251 0.8054698 -2.2324467 1.1036919 0.8789511 0.3169046 -1.043664
-3.7698493 -3.7731848 -2.8662546 -0.7843045 -0.9681922 -0.039454743 1.7877848 1.9133117
2.746096 -3.8273845 -3.8175435 -2.9014456 -0.7800789 -0.69405043 -0.0499824 1.7729223
1.8123349 2.4938087 -3.777979 -3.7311969 -3.1987123 -0.645446 -0.780534 -0.055473644
1.6777141 1.7957731 2.6809008 0.25805065 0.8147324 -0.2558767 0.22747004 -1.2291492
-1.7861928 0.8723507 0.92052364 -0.4204971 0.59478366 0.87038106 -0.40268287 0.029151024
00000000: 9906 373f e93b 5a3f 9117 b73f 4189 81bf
00000010: f8fe f7bf 8025 d63f b61e 46c0 861a fdbf
00000020: bb6d 0740 ef85 023f bb41 773f f3fb a33f
00000030: 8b3e 72bf 9108 fbbf 27e5 f33f af88 44c0
00000040: 2996 fabf bdbf e83f 8575 283f 48c2 513f
00000050: a835 b13f 4556 68bf 2f38 01c0 5c70 ed3f
00000060: 3ca1 3fc0 c0f9 06c0 fa39 e93f 67bb 143f
00000070: bd0a c13f 0beb 2540 8f3e 13bf c3b0 bcbf
00000080: 884f 683f da2d 0dc0 9b89 34c0 aa52 37be
00000090: bc33 093f c75e ac3f 5c3c 2540 a2b2 24bf
000000a0: 88c9 9cbf 34d2 873f 9a6a 20c0 c97b 32c0
000000b0: f9ab 8a3d 64d6 3e3f 46d6 c73f fc56 0f40
000000c0: 0c79 18bf 048e bcbf 3a80 463f fc2c 20c0
000000d0: 91ea 3bc0 aa8e 95bd ad83 39bf 784b 253f
000000e0: c34b c53c 0c5b 0b40 11d3 bcbf 7bac b83e
000000f0: 3034 d1bf 0e45 ef3e 4ad3 163f 8f92 29bf
00000100: 2cc1 983e a44f 223e 6e29 fc3f fad3 c4bf
00000110: a69c db3e 270b cfbf e245 223f 02b5 d63e
00000120: 533a 41bf b374 e03e ae67 b1bc f4d7 0f40
00000130: cb3b e5bf 81a5 033f 638a cebf 1b71 013f
00000140: 13cc 033f c738 623e d5e1 9dbe a12e 8c3c
00000150: 565f 0abf 3882 8f3f 149e 6bbf e36d 8f3e
00000160: 82a8 44bf 3283 053e 7f4f c33d ad77 0abf
00000170: 1cdf bd3e f7ce 3fbf 2fe6 973f 2308 48bf
00000180: 714b 823e 601d 07bf cd46 bd3e 1ba8 0e3e
00000190: 85c4 22bf edd6 b23e 7145 14bf 83f4 ae3f
000001a0: f6a6 28bf 8ed7 133e e039 20bf 4408 a83e
000001b0: 292d 95c0 a454 fcbe 6e7d 1140 e404 f3be
000001c0: 47b8 7a40 b7a9 fb3f 009f f03f fc99 48c0
000001d0: 2bda 9abf 63aa 93c0 2f31 0fbf e183 0c40
000001e0: 951a 98be f196 7f40 161e 0940 e8de d83f
000001f0: e2bb 51c0 54fd 93bf 0e7d 92c0 82b4 08bf
00000200: 0477 0840 a2af 49be 65ac 7040 f021 0940
00000210: e2d5 ea3f c4e8 4dc0 ebb5 aebf 60ef 38bf
00000220: eb66 0f40 5ef5 79bf a3f2 38bf 89e9 dd3f
00000230: bfaa 0ebf b7a4 70bf 6c9f c5be a8f2 243f
00000240: a09e 11bf c94f 1740 2222 92bf 50ca d8be
00000250: 8bea df3f 6fd8 01bf 9c15 38bf 0f5b 1dbf
00000260: 6b04 133f 86c1 69bf cac9 1940 9500 6dbf
00000270: 6e82 0bbf d72c d03f 8cdb 3cbf 18b4 54bf
00000280: ea71 2fbf ea08 513f 629e 25c0 2394 5b40
00000290: dd81 4d3e c9c0 17c0 04a2 f3bc e081 073f
000002a0: 450e 2340 a8e1 1240 7e74 66c0 c1be 23c0
000002b0: 9132 6140 e59e c6ba 7a70 16c0 fdd1 9ebd
000002c0: 1c32 443f a3d7 1d40 7dff 0c40 870f 6dc0
000002d0: 6d41 1fc0 c433 6240 a1c2 053e 96b0 0ac0
000002e0: 2158 0ebe 2887 373f d268 1f40 ff19 1240
000002f0: 3b3d 62c0 18ca 28be f622 ccbe 415b ff3e
00000300: 5483 6f3f 114d ffbf d703 853f 0630 913f
00000310: a306 7f3e 23b6 5fbf 6e56 f2be 4419 f1be
00000320: 8a39 093f 113d 283f f915 07c0 3d59 ae3f
00000330: 1e07 923f 4a2e 593e dbab 90bf 0664 f2be
00000340: 6838 00bf ec95 063f 4533 4e3f 68e0 0ec0
00000350: c745 8d3f f002 613f 5241 a23e c896 85bf
00000360: 3645 71c0 dc7b 71c0 b770 37c0 2ec8 48bf
00000370: 72db 77bf 4c9b 21bd 22d6 e43f 66e7 f43f
00000380: 09c0 2f40 def3 74c0 a252 74c0 49b1 39c0
00000390: 40b3 47bf 4aad 31bf 58ba 4cbd 1eef e23f
000003a0: 97fa e73f 909a 1f40 68ca 71c0 eecb 6ec0
000003b0: b4b7 4cc0 f33b 25bf 14d1 47bf 5538 63bd
000003c0: 56bf d63f e5db e53f e193 2b40 371f 843e
000003d0: 4d92 503f 4502 83be e8ed 683e c354 9dbf
000003e0: f7a1 e4bf 6052 5f3f 70a7 6b3f 654b d7be
000003f0: be43 183f 4bd1 5e3f 732c cebe 21ce ee3c

layer_stack_1.0.bias f4 [40]
6.8688703 6.6066628 -0.011523402 -3.4293394 2.7088776 -8.006357 -2.1726902 6.981419
6.633084 6.2798104 1.6088138 6.6615357 5.2410583 -1.6580868 -3.5167232 7.9527984
-6.3992248 -7.311528 -1.6717303 4.100131 8.177248 -8.461839 2.6665845 6.6183395
-2.1044438 7.09691 8.639026 8.902895 -3.4382112 -6.019181 -0.74196136 6.17155
0.89425653 6.2835946 5.6089277 -1.862243 5.443077 -6.843426 -6.002067 -3.2521389
00000000: c9cd db40 c869 d340 a7cc 3cbc 4c7a 5bc0
00000010: 405e 2d40 0a1a 00c1 5b0d 0bc0 c967 df40
00000020: 3942 d440 35f4 c840 9ced cd3f 4d2b d540
00000030: c0b6 a740 303c d4bf fe11 61c0 537d fe40
00000040: 73c6 ccc0 0af8 e9c0 42fb d5bf 4634 8340
00000050: 02d6 0241 b163 07c1 52a9 2a40 70c9 d340
00000060: 35af 06c0 e319 e340 7339 0a41 4272 0e41
00000070: a70b 5cc0 219d c0c0 2ef1 3dbf 567d c540
00000080: ffed 643f 3513 c940 567c b340 fb5d eebf
00000090: b02d ae40 59fd dac0 ef10 c0c0 0b23 50c0

layer_stack_1.1.weight f4 [40, 40, 3, 3]
3.7239964 0.54123545 -1.9281088 5.926952 0.8462822 -1.9582508 4.6999826 -0.3281107
-1.9270546 2.7064428 0.46354488 -1.831298 4.155295 0.43677816 -1.2941049 2.9371877
-0.24085101 -1.3718127 1.0356461 -1.5873686 -1.548751 1.3509293 -1.2770183 -1.7286854
4.1170063 -1.7832975 -1.1084734 -1.3319433 -0.3464821 -0.053740032 -1.3275752 -1.4320024
-0.8022053 -0.9149312 0.19269209 0.681709 0.6056996 -0.43682104 -0.18247591 -1.4330382
-1.0427309 -1.5435052 2.400766 3.0950942 -1.3614751 -2.0275536 -2.4841666 -1.6298399
0.050187115 0.8629441 -0.4940623 1.7257506 2.3933728 1.6890018 -3.093745 -1.462422
0.44704095 -3.1505034 1.435279 1.2219288 -0.8062123 2.9705017 -0.5242794 2.2825766
1.1859341 1.1495558 0.26518306 -0.22673663 0.8015722 -1.2135862 -1.1878425 -1.1232843
3.5461268 3.5645635 4.137775 0.841373 0.49925575 0.16887295 0.10464366 -1.6188843
-2.5679336 0.50181735 1.6559218 2.7148335 -1.5291601 1.1029406 2.3628702 -6.452246
-1.1751752 0.7597355 3.550519 -0.901714 0.23611788 3.6208112 -0.22769704 -1.5011231
2.6933715 -2.4560568 -1.1627911 -0.90835667 0.83684915 0.32217497 -1.6040218 0.6723888
1.5211004 -1.7672633 1.4584696 -1.8707447 2.7389157 0.71770865 -0.5361094 0.81139845
-0.6547315 -0.85001 1.273497 -1.245027 -1.503893 0.5039724 -0.87004083 1.1099402
-1.1916108 -0.53466463 -1.9921396 0.9918418 -1.2190205 0.18256882 -2.9660952 0.18733908
-0.3648539 0.12276062 -0.37082422 1.0233526 -1.6254251 0.94483644 1.5236864 4.7557373
-0.85758483 0.17411728 3.8963675 -2.0466073 -0.7423856 1.9890598 -0.87989324 -1.2390666
-4.349125 0.23420455 2.3134081 -7.675065 -0.14228112 1.0203496 -3.2567508 3.7655947
1.1560434 -2.3127456 -0.8678667 -2.4851432 -1.2653339 0.42981154 -2.4694521 4.8431973
5.684584 -0.18260252 1.1371404 0.9366117 0.21892823 1.4992768 0.82606024 -1.2893542
4.0012994 0.4054369 -1.3377689 0.93966043 3.2107003 -2.7500567 3.4457467 -0.2735519
-0.37375984 1.0123266 -1.1750566 -1.0220683 3.075606 0.74035823 0.3310124 3.5493083
0.13855627 2.1327016 -0.8885188 -5.3206058 -1.2239287 -3.3559508 -0.7051167 -1.3650856
-2.9711378 0.7076369 -2.225398 2.2582076 5.356624 0.29825753 2.9903703 -1.5855548
-0.7277031 4.5764427 0.21812265 -0.6571673 1.8782194 -2.2472787 -0.7629052 3.34009
-1.1853666 1.4802475 1.4341464 -0.49249452 1.3201458 -1.8628035 -2.8191075 -0.16623652
-1.3083627 -1.3222028 0.5050047 -2.2247775 -1.0657083 0.3678155 -0.69215214 1.8520514
0.0031498643 2.822377 0.5610946 0.5172349 3.5840561 0.3274424 1.6521921 -1.0934114
-2.7504866 -0.30944216 2.331382 2.6970541 3.4855077 -0.6276084 -0.4284915 0.17559573
-2.0900528 -2.963685 -2.9326413 0.68734676 2.137504 2.897853 -1.7369987 0.20915045
2.801401 -7.9362497 -4.2497907 -0.4160378 1.7872709 1.0663285 -0.8428503 2.2954643
00000000: f555 6e40 688e 0a3f 45cc f6bf 97a9 bd40
00000010: f3a5 583f f6a7 fabf 4266 9640 20fe a7be
00000020: baa9 f6bf 5c36 2d40 c155 ed3e f967 eabf
00000030: 2df8 8440 63a1 df3e 3ba5 a5bf e2fa 3b40
00000040: a6a1 76be 8f97 afbf 0d90 843f e52e cbbf
00000050: 793d c6bf 40eb ac3f 5675 a3bf 9045 ddbf
00000060: 84be 8340 1843 e4bf 75e2 8dbf 1e7d aabf
00000070: 1a66 b1be 821e 5cbd fced a9bf db4b b7bf
00000080: 545d 4dbf ee38 6abf 1351 453e 7b84 2e3f
00000090: 210f 1b3f 02a7 dfbe f7da 3abe cc6d b7bf
000000a0: 3578 85bf 9491 c5bf 26a6 1940 0616 4640
000000b0: d144 aebf 70c3 01c0 96fc 1ec0 989e d0bf
000000c0: 0191 4d3d e8e9 5c3f bcf5 fcbe 65e5 dc3f
000000d0: 052d 1940 3631 d83f ebff 45c0 a530 bbbf
000000e0: 8de2 e43e d9a1 49c0 39b7 b73f 2a68 9c3f
000000f0: ee63 4ebf b31c 3e40 2d37 06bf bc15 1240
00000100: b0cc 973f a524 933f 13c6 873e a62d 68be
00000110: d633 4d3f cb56 9bbf 390b 98bf c8c7 8fbf
00000120: bef3 6240 cf21 6440 a768 8440 3964 573f
00000130: 739e ff3e 08ed 2c3e 6a4f d63d 9a37 cfbf
00000140: 0659 24c0 1a77 003f 3ff5 d33f d5bf 2d40
00000150: 85bb c3bf 282d 8d3f 4439 1740 cd78 cec0
00000160: 246c 96bf 077e 423f b43b 6340 bbd6 66bf
00000170: e3c8 713e 5fbb 6740 6a29 69be cd24 c0bf
00000180: 3360 2c40 0930 1dc0 57d6 94bf 108a 68bf
00000190: bf3b 563f 1ef4 a43e 9650 cdbf ac21 2c3f
000001a0: 6bb3 c23f af35 e2bf 22af ba3f 9074 efbf
000001b0: 654a 2f40 c1bb 373f 773e 09bf cfb7 4f3f
000001c0: 7c9c 27bf 419a 59bf f301 a33f 0b5d 9fbf
000001d0: 917f c0bf 5604 013f ffba 5ebf 8512 8e3f
000001e0: b486 98bf c8df 08bf 6efe febf 58e9 7d3f
000001f0: dd08 9cbf 52f3 3a3e 81d4 3dc0 d1d5 3f3e
00000200: 21ce babe ec69 fb3d acdc bdbe 38fd 823f
00000210: ee0d d0bf cde0 713f 2808 c33f 002f 9840
00000220: ae8a 5bbf cd4b 323e 165e 7940 9dfb 02c0
00000230: fc0c 3ebf 8399 fe3f af40 61bf bc99 9ebf
00000240: 082c 8bc0 51d3 6f3e e10e 1440 229a f5c0
00000250: 24b2 11be d19a 823f 9b6e 50c0 81ff 7040
00000260: 3bf9 933f 0604 14c0 832c 5ebf 960c 1fc0
00000270: 76f6 a1bf 4210 dc3e 810b 1ec0 79fb 9a40
00000280: 1de8 b540 28fc 3abe d18d 913f c9c5 6f3f
00000290: b92e 603e 4de8 bf3f af78 533f 8f09 a5bf
000002a0: a50a 8040 6d95 cf3e 033c abbf 968d 703f
000002b0: 1d7c 4d40 ee00 30c0 1d87 5c40 ff0e 8cbe
000002c0: 735d bfbe eb93 813f 4168 96bf 22d3 82bf
000002d0: bbd6 4440 1e88 3d3f 757a a93e de27 6340
000002e0: b2e1 0d3e 2f7e 0840 f875 63bf 6742 aac0
000002f0: b2a9 9cbf e6c7 56c0 8782 34bf 20bb aebf
00000300: 1f27 3ec0 b127 353f ec6c 0ec0 7986 1040
00000310: 7769 ab40 36b5 983e 3a62 3f40 76f3 cabf
00000320: c04a 3abf 3872 9240 8b5b 5f3e 1e3c 28bf
00000330: 7e69 f03f 6ad3 0fc0 c14d 43bf 09c4 5540
00000340: 18ba 97bf c078 bd3f 1c92 b73f 3e28 fcbe
00000350: 8afa a83f 5870 eebf 426c 34c0 e839 2abe
00000360: 6e78 a7bf f13d a9bf fd47 013f c162 0ec0
00000370: 2169 88bf 5052 bc3e e230 31bf 0510 ed3f
00000380: f46d 4e3b d3a1 3440 e5a3 0f3f 8269 043f
00000390: 2d61 6540 88a6 a73e 087b d33f e8f4 8bbf
000003a0: f907 30c0 346f 9ebe 5d35 1540 899c 2c40
000003b0: 8f12 5f40 f2aa 20bf 3d63 dbbe 5ecf 333e
000003c0: 6dc3 05c0 04ad 3dc0 65b0 3bc0 f5f5 2f3f
000003d0: decc 0840 6c76 3940 f955 debf 892b 563e
000003e0: 274a 3340 c2f5 fdc0 49fe 87c0 e802 d5be
000003f0: 4bc5 e43f 747d 883f 0ac5 57bf e3e8 1240

layer_stack_1.1.bias f4 [40]
-0.033027373 -0.08363687 0.03399229 0.0044066305 -0.058237687 -0.039535046 0.086264074 -0.0052062655
0.097950436 0.010047371 -0.0039234576 -0.0689614 -0.010269655 -0.01697441 -0.047360882 0.10693433
-0.0035652968 -0.06446389 -0.011690854 0.0051063662 0.020535422 0.07395647 0.004168099 0.04213416
0.044937305 -0.07980202 0.005898994 0.030552896 -0.04619519 -0.06710205 -0.06149196 -0.01960622
-0.024287153 -0.048728354 -0.05260419 -0.058158576 -0.051811233 0.045061316 0.032725234 -0.03989394
00000000: b647 07bd cf49 abbd 803b 0b3d 7f65 903b
00000010: a48a 6ebd 80ef 21bd 38ab b03d 5299 aabb
00000020: 3d9a c83d ba9d 243c 5990 80bb a23b 8dbd
00000030: 0e42 28bc eb0d 8bbc 7cfd 41bd 6300 db3d
00000040: c1a7 69bb a505 84bd ff8a 3fbc 4e53 a73b
00000050: e739 a83c 7d76 973d 8c94 883b de94 2c3d
00000060: 2e10 383d 3e6f a3bd 594c c13b 114a fa3c
00000070: 2b37 3dbd cd6c 89bd fede 7bbd 399d a0bc
00000080: daf5 c6bc 6297 47bd 7e77 57bd b037 6ebd
00000090: 0438 54bd 3792 383d e50a 063d d467 23bd

layer_stack_1.2.weight f4 [40]
1.533174 1.4095736 0.101277925 0.16651043 0.13981503 4.00383 0.11886767 2.8084836
2.5151708 -0.11347571 1.2027156 3.4242501 0.9127036 -0.15897575 5.040699 5.17018
0.30293328 0.024824958 -0.051236216 2.8297288 1.094297 2.1060293 4.7558365 1.9888564
7.0654597 0.055197667 0.2024914 0.19554415 5.99863 2.835596 0.8339394 -0.026444761
1.7192094 0.046617992 0.57709897 4.695608 0.048797216 4.9773803 3.445193 5.5148883
00000000: 0c3f c43f e86c b43f cd6a cf3d b681 2a3e
00000010: ac2b 0f3e 601f 8040 e570 f33d 32be 3340
00000020: 8ff8 2040 f465 e8bd 96f2 993f ea26 5b40
00000030: f1a6 693f 8aca 22be 684d a140 1d72 a540
00000040: 121a 9b3e b65d cb3c 11dd 51bd 471a 3540
00000050: ed11 8c3f 2fc9 0640 d02f 9840 d992 fe3f
00000060: 3f18 e240 f316 623d e859 4f3e ba3c 483e
00000070: c7f4 bf40 687a 3540 0d7d 553f afa2 d8bc
00000080: 0e0f dc3f 82f2 3e3d c2bc 133f 6c42 9640
00000090: 97df 473d b346 9f40 0b7e 5c40 f779 b040

layer_stack_1.2.bias f4 [40]
0.05526682 -0.47247395 -0.0013500486 0.07599369 -0.113310754 0.18815422 -0.027754085 -0.9688551
0.35393125 3.8338199 -1.9848213 -0.2002821 -0.06782594 -0.06430319 0.016192047 0.988055
-0.03220658 0.07259671 1.331668 -0.1849073 0.66269314 -0.54399943 -0.12147895 -0.14144863
-0.5341416 -0.04019458 0.026036676 0.17111823 -1.2153102 -0.110840976 -0.10640138 -0.032456815
0.15863174 0.06794619 0.12976049 0.6425535 -0.03411079 0.61463964 -0.07987952 -0.07470106
00000000: 765f 623d 1be8 f1be 1df4 b0ba 94a2 9b3d
00000010: 780f e8bd 80ab 403e 895c e3bc e306 78bf
00000020: 7a36 b53e 4e5d 7540 a00e febf c016 4dbe
00000030: 54e8 8abd 64b1 83bd 2fa5 843c 2cf1 7c3f
00000040: 0ceb 03bd 95ad 943d 1974 aa3f 5758 3dbe
00000050: 42a6 293f 8c43 0bbf f5c9 f8bd e9d7 10be
00000060: 81bd 08bf 12a3 24bd de4a d53c 9e39 2f3e
00000070: 498f 9bbf 9800 e3bd f7e8 d9bd 70f1 04bd
00000080: 5c70 223e 5f27 8b3d efdf 043e 637e 243f
00000090: c1b7 0bbd 0659 1d3f e097 a3bd dffc 98bd

layer_stack_1.2.running_mean f4 [40]
226.7142 550.56433 -376.44482 984.4259 -131.43083 -176.9421 -1565.397 -180.92207
-167.50464 398.02756 909.3669 94.51278 -48.00117 -403.48343 62.43075 -162.77951
-106.01151 98.22161 -152.56895 531.9521 -772.01074 -359.56808 19.26371 399.54706
121.12393 -467.01044 -1570.9429 316.9455 384.12836 327.0198 -511.00214 -2067.8225
-289.77222 2375.955 -385.41544 -551.7221 2227.4666 -567.8668 -70.51959 2.2478554
00000000: d6b6 6243 1ea4 0944 f038 bcc3 421b 7644
00000010: 4b6e 03c3 2df1 30c3 b4ac c3c4 0dec 34c3
00000020: 3081 27c3 8703 c743 7b57 6344 8b06 bd42
00000030: 3301 40c2 e1bd c9c3 17b9 7942 8ec7 22c3
00000040: e505 d4c2 7771 c442 a791 18c3 effc 0444
00000050: b000 41c4 b7c8 b3c3 141c 9a41 06c6 c743
00000060: 743f f242 5681 e9c3 2c5e c4c4 0679 9e43
00000070: 6e10 c043 8982 a343 4680 ffc3 293d 01c5
00000080: d8e2 90c3 487f 1445 2db5 c0c3 37ee 09c4
00000090: 7737 0b45 7af7 0dc4 080a 8dc2 dddc 0f40

layer_stack_1.2.running_var f4 [40]
102557.016 46930.676 173646.0 171984.58 165945.61 71209.086 141674.14 130977.59
109801.89 147718.8 179394.77 50739.754 131791.34 121544.66 39487.96 54935.082
105252.375 169828.61 110996.69 76411.05 167220.23 156115.81 64891.094 71255.17
42781.215 119426.39 210912.08 136704.27 35961.42 38605.957 102598.234 197726.14
152321.55 178870.92 87804.41 82972.94 209606.84 48755.906 76452.125 32859.48
00000000: 824e c847 ad52 3747 8093 2948 25f4 2748
00000010: 670e 2248 8b14 8b47 895a 0a48 ccd0 ff47
00000020: f274 d647 b341 1048 b130 2f48 c133 4647
00000030: d6b3 0048 5464 ed47 f63f 1a47 1597 5647
00000040: 3092 cd47 27d9 2548 58ca d847 863d 9547
00000050: 0f4d 2348 f474 1848 187b 7d47 962b 8b47
00000060: 371d 2747 3241 e947 05f8 4d48 1180 0548
00000070: 6c79 0c47 f5cd 1647 1e63 c847 8917 4148
00000080: 63c0 1448 bbad 2e48 347e ab47 780e a247
00000090: b6b1 4c48 e873 3e47 1052 9547 7b5b 0047

layer_stack_1.3.weight f4 [40, 40, 3, 3]
0.4744295 -0.56848985 0.7658497 -0.8620609 -1.5821637 -2.0992584 -1.9419662 -1.0474735
-0.2184084 0.39929166 0.2631597 -1.1278567 -2.915737 -0.074389175 0.12783374 0.50608903
0.6620272 0.03617136 -0.3489982 -0.7633075 -1.880391 -0.5547981 -0.5680585 -0.922093
0.69232404 -0.6965258 1.1709206 -1.297142 -0.1549193 0.61883396 -1.0960722 0.022291409
1.1895791 -2.006232 -0.12111496 1.2303537 0.55841076 1.5401055 1.1673163 0.4159382
0.83961177 -0.8486124 -2.0855312 1.2124119 -1.5695235 -0.9224589 -0.33577952 -0.779716
1.3918309 0.0863839 -1.0009704 -3.2683773 0.17085221 -1.3936871 -0.23440763 -0.1719295
-1.339177 0.06432208 -0.008579471 0.1100019 1.1147618 -0.66619986 0.071386226 4.32048
4.959062 5.9124503 6.1271224 5.3048606 5.7096653 6.1092243 3.9926305 3.27711
-1.577379 -0.9559899 -2.6197228 -2.019765 -1.0216825 -1.5087473 -4.9235725 -1.548025
-1.4037715 -0.96432626 -1.2504152 -1.4328777 0.059059784 -0.35263744 -0.5625042 0.37255242
-0.025341064 -0.16955525 0.15686171 1.0196459 1.5963554 0.43928134 0.6859244 1.5669352
3.471513 2.2475839 3.2285612 1.7722058 2.0164413 1.9107703 3.3562481 -0.42506382
-1.0926725 -2.2370849 -0.5237344 -0.14284815 0.9678557 0.15136309 -3.2214572 -0.031815723
-0.2609934 -3.3977726 0.3178642 -0.44829416 -2.0568209 -1.3385462 0.78794813 -0.41018197
0.21649276 1.4559096 -0.3897951 -0.16196135 0.9112948 -0.34702346 1.831533 2.0886059
-0.60770136 -4.6810937 -2.5219169 -1.5417438 1.3269753 0.35689473 1.7878213 -1.8744259
-2.0298681 0.41683888 2.8663828 1.3547306 1.947186 -0.25158337 0.309978 -0.1052122
-0.9409103 -0.9780783 -1.5338717 0.97025144 1.1471927 1.0404485 4.377738 0.70431674
1.2946298 -0.5384923 -0.28364658 0.41355738 -0.56785667 -0.86697984 1.1180886 -0.4089289
-1.2829618 0.84544027 -0.93446606 -1.1099988 -1.2696054 -0.016287195 -0.24982978 -0.5337256
0.17839175 -0.013868017 -0.093987614 -0.9516699 0.34539846 6.150971 -3.514185 -1.3841827
-0.40565726 -4.8376794 -0.44703323 -0.9024181 0.6730124 -0.3136762 -0.52656287 -0.03201525
-0.03490665 -1.3363013 -4.130258 -1.3082279 -3.1396947 -0.31203106 -0.4146317 -1.0180473
-3.754905 -3.075274 -3.3347645 -7.792602 -5.2374024 -5.2001543 -0.66251034 -1.2889214
0.9082599 3.0543404 -1.0579051 1.0525736 1.56165 0.7548295 1.5564687 0.9419392
0.32473683 -0.060156707 -2.1287758 -0.89006495 -1.1973637 0.79113376 1.8937328 0.6762877
0.111830115 -2.9261508 0.6822252 1.1043086 0.9724679 0.8750528 0.389491 0.011772778
0.10485796 0.7718178 0.7617742 -0.55203974 -0.9687677 -0.5101465 -0.29919744 -0.03660024
-0.2940705 -1.05771 0.99646246 0.6578276 1.229681 0.19152167 0.8441243 0.18670528
-2.215627 0.58300245 -0.7698748 0.9313625 1.4681306 -2.1145568 -0.6892154 -0.17576045
-2.4006763 -0.6711155 -0.39781654 -2.1883447 3.1177764 -0.15576775 1.1116955 -0.75159234
00000000: 6ce8 f23e 8d88 11bf ba0e 443f 06b0 5cbf
00000010: 5784 cabf 405a 06c0 5992 f8bf 9d13 86bf
00000020: 74a6 5fbe f56f cc3e debc 863e 9c5d 90bf
00000030: 6f9b 3ac0 5a59 98bd d9e6 023e 0d8f 013f
00000040: 9d7a 293f 6c28 143d e4af b2be 1f68 43bf
00000050: a7b0 f0bf 4007 0ebf 486c 11bf 490e 6cbf
00000060: 263c 313f 844f 32bf bae0 953f c008 a6bf
00000070: 2aa3 1ebe e76b 1e3f 184c 8cbf 799c b63c
00000080: 2144 983f 1b66 00c0 1f0b f8bd 3b7c 9d3f
00000090: 02f4 0e3f 2d22 c53f 9f6a 953f daf5 d43e
000000a0: ccf0 563f aa3e 59bf 5879 05c0 5030 9b3f
000000b0: 25e6 c8bf 4426 6cbf 4beb abbe 789b 47bf
000000c0: 8427 b23f 0bea b03d cc1f 80bf 182d 51c0
000000d0: e2f3 2e3e 5764 b2bf 8e08 70be 490e 30be
000000e0: 276a abbf 4bbb 833d e990 0cbc ad48 e13d
000000f0: 84b0 8e3f 138c 2abf f132 923d 5f41 8a40
00000100: a3b0 9e40 cb32 bd40 6311 c440 6bc1 a940
00000110: 94b5 b640 c47e c340 4287 7f40 2cbc 5140
00000120: 8ee7 c9bf c1bb 74bf 8aa9 27c0 d443 01c0
00000130: 7ec6 82bf a21e c1bf e88d 9dc0 af25 c6bf
00000140: c9ae b3bf 16de 76bf 9b0d a0bf 8968 b7bf
00000150: ace8 713d e58c b4be 4600 10bf 31bf be3e
00000160: 1098 cfbc e49f 2dbe 5ba0 203e c283 823f
00000170: 6055 cc3f 7ce9 e03e be98 2f3f 5591 c83f
00000180: 452d 5e40 6ad8 0f40 bfa0 4e40 a4d7 e23f
00000190: 600d 0140 1f94 f43f c5cc 5640 f7a1 d9be
000001a0: b1dc 8bbf 662c 0fc0 7513 06bf c946 12be
000001b0: 64c5 773f edfe 1a3e 5b2c 4ec0 3451 02bd
000001c0: eda0 85be 1b75 59c0 19bf a23e d086 e5be
000001d0: f4a2 03c0 7b55 abbf f8b6 493f 5f03 d2be
000001e0: 47b0 5d3e 3f5b ba3f 3993 c7be 32d9 25be
000001f0: 9e4a 693f 0fad b1be ac6f ea3f b8ab 0540
00000200: 5192 1bbf 85cb 95c0 1667 21c0 dc57 c5bf
00000210: 54da a93f e8ba b63e 54d7 e43f 30ed efbf
00000220: 5ce9 01c0 e86b d53e d172 3740 d067 ad3f
00000230: 643d f93f 89cf 80be 70b5 9e3e 7e79 d7bd
00000240: 7fdf 70bf 5763 7abf e855 c4bf 6662 783f
00000250: 36d7 923f 6b2d 853f 6e16 8c40 1a4e 343f
00000260: 6eb6 a53f a2da 09bf 203a 91be cbbd d33e
00000270: 0e5f 11bf 64f2 5dbf 871d 8f3f 215f d1be
00000280: 1838 a4bf c66e 583f 2b39 6fbf 7114 8ebf
00000290: 6e82 a2bf b96c 85bc 61d3 7fbe 3ea2 08bf
000002a0: 54ac 363e ae36 63bc 947c c0bd a3a0 73bf
000002b0: 11d8 b03e c1d4 c440 68e8 60c0 e62c b1bf
000002c0: 4fb2 cfbe 45ce 9ac0 8ae1 e4be df04 67bf
000002d0: 8a4a 2c3f 2b9a a0be d3cc 06bf 6c22 03bd
000002e0: 47fa 0ebd ec0b abbf 132b 84c0 0374 a7bf
000002f0: c2f0 48c0 89c2 9fbe 9b4a d4be 604f 82bf
00000300: 5d50 70c0 4ad1 44c0 c86c 55c0 ff5c f9c0
00000310: cd98 a7c0 aa67 a6c0 479a 29bf 60fb a4bf
00000320: b983 683f 507a 4340 6f69 87bf bbba 863f
00000330: 26e4 c73f 823c 413f 5e3a c73f ed22 713f
00000340: e843 a63e e166 76bd dd3d 08c0 4cdb 63bf
00000350: 3743 99bf be87 4a3f d665 f23f 3121 2d3f
00000360: 3007 e53d 0e46 3bc0 50a6 2e3f fc59 8d3f
00000370: a8f3 783f 7603 603f 5d6b c73e 9ce2 403c
00000380: c5bf d63d da95 453f a203 433f 7a52 0dbf
00000390: 2901 78bf f698 02bf 6830 99be 22ea 15bd
000003a0: 6990 96be 0b63 87bf 2a18 7f3f 6467 283f
000003b0: 3066 9d3f 421e 443e 8818 583f ab2f 3f3e
000003c0: d5cc 0dc0 a63f 153f 8416 45bf c66d 6e3f
000003d0: b4eb bb3f e654 07c0 6c70 30bf 8cfa 33be
000003e0: aea4 19c0 3ace 2bbf 9cae cbbe d70d 0cc0
000003f0: a689 4740 9581 1fbe 0a4c 8e3f 5b68 40bf

layer_stack_1.3.bias f4 [40]
-0.92884535 -2.3970819 -1.3128793 -3.5165682 -3.5066307 -3.4325738 -0.8747029 -3.5466647
-2.342882 -4.1534076 -4.111752 -2.2389343 -3.4220064 -4.046628 -1.2362967 -2.7568192
-4.1256046 -4.071907 -3.2049043 -3.67426 -3.6708345 -2.6023304 -3.450742 -3.9109306
-3.2349918 -4.267868 -2.8589706 -2.749928 -3.9509492 -2.7826498 -2.8062646 -3.423171
-4.137577 -4.047958 -1.4281301 -3.5300603 -1.0546502 -3.9249134 -4.45503 -2.8574607
00000000: cfc8 6dbf ca69 19c0 6e0c a8bf 740f 61c0
00000010: a36c 60c0 4aaf 5bc0 87ec 5fbf 8efc 62c0
00000020: c7f1 15c0 b7e8 84c0 7993 83c0 b34a 0fc0
00000030: 2702 5bc0 fa7d 81c0 f83e 9ebf ba6f 30c0
00000040: f404 84c0 104d 82c0 271d 4dc0 1327 6bc0
00000050: f4ee 6ac0 958c 26c0 f5d8 5cc0 b04c 7ac0
00000060: 1b0a 4fc0 6092 88c0 60f9 36c0 d2fe 2fc0
00000070: 5adc 7cc0 ef16 32c0 d799 33c0 3c15 5bc0
00000080: 0867 84c0 df88 81c0 f8cc b6bf 82ec 61c0
00000090: c7fe 86bf c831 7bc0 9b8f 8ec0 a3e0 36c0

layer_stack_2.0.weight f4 [40, 40, 3, 3]
-2.1698518 -2.0423145 -1.9442523 0.48439762 -1.1988302 -2.5001497 0.045504067 -0.28370243
0.94984925 -1.7046314 -0.86065966 -1.4140024 0.34680784 -0.53814995 -1.6952882 -0.44329673
-1.1503088 -2.3955102 -1.8058171 -3.0521657 -2.8089232 -1.993303 -2.6203423 -4.604094
-1.2018675 -1.7834723 -2.9771757 5.6406903 1.8051623 3.6573594 3.6135886 -0.6808193
-0.41080385 2.4484303 0.91139525 0.2626511 3.346932 0.27272794 -0.41132224 -0.21015799
0.33919334 1.9075716 0.86482036 1.8892373 1.2760576 7.069242 7.535378 3.7835565
4.8845572 2.405451 0.8105423 0.8185238 -0.5732445 -0.019426906 -3.8754935 -3.070962
-3.7700229 -1.1027238 -1.2326807 -3.3177588 -0.36117098 -1.3366897 -2.4782782 5.1099315
4.6211605 0.6140598 0.73463386 1.8090886 -0.6188508 1.7212323 0.8672381 1.9766599
2.9812036 0.18415973 2.6375186 2.9292731 1.4996159 1.1100632 1.5712547 -0.0129234595
1.0531701 6.9363446 7.674565 3.5206819 3.438617 3.0242527 2.3468857 2.638556
1.6248019 0.78831947 3.0551927 5.784893 3.6959417 1.1173111 2.5227249 1.6336803
-0.64897966 -1.62863 1.180431 -0.460158 -2.0629797 -3.2553568 -0.7862838 -0.79326636
-3.2556531 -2.9620492 -2.4751422 -1.5752523 4.423214 9.9278965 8.248067 1.8810694
3.2280602 3.8358762 0.97388947 0.27132022 1.2772866 2.6450458 0.024736024 -1.1371932
1.1236719 -0.1420133 -1.2061517 -0.15183501 -0.70341504 1.0204061 1.2561382 -0.9825388
-2.3841283 -1.1440103 -1.8132392 -3.3675795 0.3822916 -1.369935 -2.413605 5.861042
6.34463 2.1720262 3.0172698 1.1214808 0.93394256 0.07346457 -0.17048363 0.6435437
1.3519468 2.7763042 3.0335994 0.22537848 2.684963 2.6104226 -1.4883541 -0.33446327
1.8705028 2.9021792 5.203752 4.892706 1.8878943 3.2621453 3.2980113 -1.3029529
1.9187202 2.9291532 -2.2475696 -1.7041453 -1.5304184 -1.1132292 -1.9371399 -1.6672447
-0.96477544 -0.8752561 -0.9981635 1.9118052 -0.30467147 0.64588547 1.53054 -1.1115462
-4.416715 -1.6719704 -0.5442812 -1.959951 0.790312 0.64124835 2.597119 1.3430166
-1.0942953 -0.45852995 2.21334 1.1805022 0.8885739 1.8285224 0.9761744 -0.71068037
0.38596272 -0.45208457 -2.4648805 3.264387 3.2775648 1.3006729 -0.1324751 0.085496016
0.6736355 -0.04987901 -2.1698935 -0.8286365 2.7368968 1.5700182 0.96731955 -1.7135551
-1.7285204 -0.39248344 -3.3668714 -4.1485395 -3.1184337 -1.821936 -3.3233674 -1.9171053
1.6227924 -0.46887493 -1.0099425 -0.11998344 -0.5508849 -1.2552303 -0.29740778 -0.14045164
-0.5277571 1.5481082 -1.8172501 -4.2427764 -0.07434548 -1.8903209 -0.61214054 -0.71218914
-0.46747202 0.16677049 2.8867404 8.124997 7.1823187 3.153323 2.6949706 0.03641161
0.09766187 -0.17946133 1.2330734 0.5230408 4.5598497 4.7324915 2.4500024 3.5264208
2.6462643 -1.3620863 -0.81102294 0.4534671 6.5800896 6.1472044 0.51567084 2.1409335
00000000: dade 0ac0 48b5 02c0 42dd f8bf f702 f83e
00000010: 4573 99bf 7402 20c0 7962 3a3d 7241 91be
00000020: 5229 733f 5d31 dabf 3154 5cbf 08fe b4bf
00000030: cc90 b13e 32c4 09bf 34ff d8bf caf7 e2be
00000040: 523d 93bf 0a50 19c0 0425 e7bf af56 43c0
00000050: 66c5 33c0 8d24 ffbf b0b3 27c0 bd54 93c0
00000060: cbd6 99bf d248 e4bf 0c8a 3ec0 8980 b440
00000070: 8f0f e73f 2d12 6a40 0945 6740 2c4a 2ebf
00000080: e254 d2be 15b3 1c40 3351 693f 347a 863e
00000090: 2234 5640 ffa2 8b3e d498 d2be a833 57be
000000a0: c0aa ad3e 4e2b f43f de64 5d3f 87d2 f13f
000000b0: db55 a33f 3b37 e240 d121 f140 ca25 7240
000000c0: 4b4e 9c40 e9f2 1940 b37f 4f3f c78a 513f
000000d0: 27c0 12bf 2d25 9fbc 1608 78c0 a48a 44c0
000000e0: 0e48 71c0 0e26 8dbf 7bc8 9dbf 2956 54c0
000000f0: 67eb b8be a618 abbf 1c9c 1ec0 8f84 a340
00000100: 8ce0 9340 0633 1d3f f710 3c3f 3790 e73f
00000110: 026d 1ebf 5751 dc3f 5103 5e3f 3103 fd3f
00000120: 0acc 3e40 5e94 3c3e 1bcd 2840 3679 3b40
00000130: 6af3 bf3f 8d16 8e3f e01e c93f ebbc 53bc
00000140: 47ce 863f 89f6 dd40 0996 f540 da52 6140
00000150: 4d12 5c40 5b8d 4140 6033 1640 1ade 2840
00000160: 82f9 cf3f 4ecf 493f 4788 4340 d81d b940
00000170: 4f8a 6c40 0d04 8f3f 5374 2140 701c d13f
00000180: 8823 26bf f376 d0bf 5d18 973f d499 ebbe
00000190: dc07 04c0 c457 50c0 e549 49bf 8113 4bbf
000001a0: 9f5c 50c0 3792 3dc0 bb68 1ec0 dea1 c9bf
000001b0: f88a 8d40 aad8 1e41 15f8 0341 e2c6 f03f
000001c0: 8a98 4e40 ff7e 7540 d250 793f 7cea 8a3e
000001d0: 217e a33f 6e48 2940 34a3 ca3c 8c8f 91bf
000001e0: 7bd4 8f3f ef6b 11be 2e63 9abf a37a 1bbe
000001f0: 0213 34bf ab9c 823f 23c9 a03f aa87 7bbf
00000200: 8f95 18c0 ee6e 92bf 3918 e8bf 6c86 57c0
00000210: b9bb c33e 085a afbf 8178 1ac0 a88d bb40
00000220: 3507 cb40 7a02 0b40 f31a 4140 af8c 8f3f
00000230: dc16 6f3f 9874 963d 4393 2ebe 48bf 243f
00000240: 980c ad3f f8ae 3140 7e26 4240 9ec9 663e
00000250: 6fd6 2b40 2a11 2740 6382 bebf c53e abbe
00000260: a36c ef3f 4ebd 3940 2385 a640 0c91 9c40
00000270: 85a6 f13f fdc6 5040 9e12 5340 29c7 a6bf
00000280: a098 f53f 3f77 3b40 2ed8 0fc0 6f21 dabf
00000290: c0e4 c3bf 4b7e 8ebf 33f4 f7bf 4668 d5bf
000002a0: 86fb 76bf c910 60bf a587 7fbf 08b6 f43f
000002b0: e6fd 9bbe c058 253f bce8 c33f 2547 8ebf
000002c0: bb55 8dc0 2003 d6bf 0356 0bbf addf fabf
000002d0: e351 4a3f da28 243f 3337 2640 f8e7 ab3f
000002e0: de11 8cbf 70c4 eabe 5da7 0d40 b21a 973f
000002f0: 9479 633f 060d ea3f 91e6 793f 26ef 35bf
00000300: e89c c53e a177 e7be 9ac0 1dc0 b7eb 5040
00000310: 9fc3 5140 737c a63f 8da7 07be 8918 af3d
00000320: 6073 2c3f ef4d 4cbd 89df 0ac0 8621 54bf
00000330: 5129 2f40 5bf6 c83f 41a2 773f c655 dbbf
00000340: 2840 ddbf 97f3 c8be d27a 57c0 d6c0 84c0
00000350: 6b94 47c0 3335 e9bf 0db2 54c0 b563 f5bf
00000360: a9b7 cf3f 6010 f0be cc45 81bf e1b9 f5bd
00000370: cb06 0dbf 63ab a0bf d545 98be 8ed2 0fbe
00000380: 171b 07bf 6928 c63f a79b e8bf d3c4 87c0
00000390: 7142 98bd 09f6 f1bf 3eb5 1cbf 0752 36bf
000003a0: 7e58 efbe e2c5 2a3e 5bc0 3840 fdff 0141
000003b0: 8ed5 e540 0bd0 4940 667a 2c40 5724 153d
000003c0: f202 c83d b6c4 37be 59d5 9d3f 00e6 053f
000003d0: 4aea 9140 9270 9740 d7cc 1c40 e1b0 6140
000003e0: 655c 2940 d858 aebf 339f 4fbf d72c e83e
000003f0: 1890 d240 e6b5 c440 0103 043f 0e05 0940

layer_stack_2.0.bias f4 [40]
0.016059991 0.020067466 0.02527139 0.022620955 0.016340524 -0.06371713 -0.034096245 0.009842548
-0.014377922 -0.040878106 0.011378058 0.024261745 -0.007594685 0.015337907 0.017956566 0.010006941
0.035887327 -0.0039611016 -0.04246513 0.00069908943 -0.052398913 -0.040987674 0.02488116 -0.03509789
0.0054352004 -0.008977561 -0.043051712 -0.04847278 -0.043141905 -0.038654856 0.03504563 0.04726226
-0.0486401 0.06930068 -0.014638812 -0.02103369 -0.04286581 -0.021708654 -0.020625426 0.026956785
00000000: 3e90 833c 8764 a43c f205 cf3c 954f b93c
00000010: 90dc 853c 207e 82bd 81a8 0bbd a342 213c
00000020: 6091 6bbc cd6f 27bd 096b 3a3c 91c0 c63c
00000030: d6dc f8bb d84b 7b3c a619 933c 27f4 233c
00000040: 97fe 123d 21cc 81bb ebef 2dbd 1943 373a
00000050: 3ea0 56bd b1e2 27bd 93d3 cb3c cec2 0fbd
00000060: c419 b23b 9f16 13bc fe56 30bd 658b 46bd
00000070: 91b5 30bd 8e54 1ebd 028c 0f3d 1296 413d
00000080: d73a 47bd 84ed 8d3d a1d7 6fbc d84e acbc
00000090: 0f94 2fbd 59d6 b1bc a7f6 a8bc 7ad4 dc3c

layer_stack_2.1.weight f4 [40]
2.2649064 4.949453 2.001712 0.7076763 2.5433598 3.1668458 3.1598182 2.9944012
0.10176185 2.4053097 1.1717724 2.3417442 1.5350382 4.256958 0.62356836 0.49945262
2.7069912 3.836617 2.2885466 0.6554985 1.8211107 0.011163717 2.3747551 4.118067
1.2077111 2.691135 2.1772406 3.6594644 3.1362438 1.2769359 0.17327826 3.0955644
0.43911526 4.0568113 1.8766571 2.5576026 2.6847115 1.938019 0.7831317 1.8316953
00000000: 3af4 1040 eb61 9e40 0d1c 0040 462a 353f
00000010: 68c6 2240 9aad 4a40 763a 4a40 45a4 3f40
00000020: 8468 d03d 98f0 1940 a3fc 953f 23df 1540
00000030: 227c c43f 0039 8840 2da2 1f3f 41b8 ff3e
00000040: 583f 2d40 228b 7540 8c77 1240 c0ce 273f
00000050: 281a e93f 06e8 363c fdfb 1740 34c7 8340
00000060: 4796 9a3f 8e3b 2c40 e957 0b40 aa34 6a40
00000070: 38b8 4840 a372 a33f db6f 313e ba1d 4640
00000080: b7d3 e03e 66d1 8140 4d36 f03f c3af 2340
00000090: 50d2 2b40 0211 f83f 527b 483f fe74 ea3f

layer_stack_2.1.bias f4 [40]
-0.4136992 -2.5806832 2.2742362 -0.66601926 -1.4054008 2.8377023 -0.084542006 -0.76697487
-0.49327883 3.0216 0.5893434 0.537207 0.53268075 2.7074647 -0.0049743364 -1.7937274
3.3666353 -1.0946692 1.5146717 0.09015126 -1.0741968 0.029996749 0.91714036 -1.163747
1.9946386 -0.58911216 1.301057 -1.1163778 3.5526655 0.44551522 0.017718723 1.1266214
2.9595222 0.38240692 1.283123 3.5082178 -0.5189822 -0.18930551 -1.975268 -0.008328581
00000000: 62d0 d3be ea29 25c0 168d 1140 3d80 2abf
00000010: 2ce4 b3bf ea9c 3540 5c24 adbd 7758 44bf
00000020: 0b8f fcbe e561 4140 36df 163f 6686 093f
00000030: c45d 083f 1a47 2d40 c2ff a2bb dc98 e5bf
00000040: f476 5740 1f1e 8cbf c3e0 c13f 39a1 b83d
00000050: 487f 89bf bebb f53c b6c9 6a3f a9f5 94bf
00000060: 5150 ff3f 0ed0 16bf 0989 a63f 78e5 8ebf
00000070: df5e 6340 921a e43e db26 913c 2135 903f
00000080: d068 3d40 d7ca c33e 603d a43f a486 6040
00000090: 04dc 04bf 4ed9 41be 95d5 fcbf 9a74 08bc

layer_stack_2.1.running_mean f4 [40]
9516.921 -3579.6628 -798.94836 -7522.017 2746.8486 -236.29582 -929.75037 -503.4
-712.8671 3054.4312 2527.7354 -1040.1051 723.2105 -761.1958 -5660.077 -1637.736
-1546.2751 4541.7446 2468.0593 8049.9434 -1673.4773 -2719.331 -1235.3 -2628.7927
1392.1604 2848.597 1321.9329 695.77954 -391.61984 1438.1426 1459.821 -468.17154
-773.44257 -2771.2432 323.97742 -1795.5247 4279.172 3093.4001 157.62973 -176.26157
00000000: afb3 1446 9bba 5fc5 b2bc 47c4 2310 ebc5
00000010: 94ad 2b45 bb4b 6cc3 0670 68c4 33b3 fbc3
00000020: 7f37 32c4 e6e6 3e45 c4fb 1d45 5d03 82c4
00000030: 79cd 3444 884c 3ec4 9ee0 b0c5 8db7 ccc4
00000040: ce48 c1c4 f5ed 8d45 f340 1a45 8c8f fb45
00000050: 462f d1c4 4cf5 29c5 9a69 9ac4 af4c 24c5
00000060: 2205 ae44 8d09 3245 da3d a544 e4f1 2d44
00000070: 57cf c3c3 90c4 b344 467a b644 f515 eac3
00000080: 535c 41c4 e433 2dc5 1cfd a143 ca70 e0c4
00000090: 60b9 8545 6756 4145 36a1 1d43 f642 30c3

layer_stack_2.1.running_var f4 [40]
2.0792964e+09 8.559469e+08 4.5490115e+08 1.7257181e+09 6.811651e+08 1.142087e+09 8.777099e+08 1.00006176e+09
7.808397e+08 5.760858e+08 1.3991711e+09 1.0159846e+09 3.1700342e+08 1.319657e+09 1.6616376e+09 1.1130993e+09
1.173788e+09 1.0833454e+09 7.067757e+08 1.6987137e+09 1.2933901e+09 5.816438e+08 1.1382715e+09 5.778362e+08
8.606748e+08 6.9445165e+08 3.7338406e+08 4.0796118e+08 8.486364e+08 1.3839802e+09 4.9648867e+08 9.1422675e+08
8.111101e+08 6.0487994e+08 6.6860454e+08 1.8574781e+09 8.7391264e+08 1.1593719e+09 5.3340243e+08 8.409031e+08
00000000: 17df f74e da12 4c4e ede9 d84d bdb8 cd4e
00000010: 0567 224e bb25 884e 2943 514e ed6e 6e4e
00000020: ac2a 3a4e 7d59 094e 50cb a64e c73a 724e
00000030: b528 974d bc50 9d4e 2815 c64e 18b1 844e
00000040: 2bed 8b4e 1425 814e 2a82 284e a180 ca4e
00000050: 222f 9a4e b8ac 0a4e 4ab1 874e 53c4 094e
00000060: 6c33 4d4e f791 254e 1c0b b24d f387 c24d
00000070: a854 4a4e b9fb a44e 87be ec4d f9f7 594e
00000080: 3b62 414e f136 104e 6268 1f4e bc6d dd4e
00000090: 655b 504e 3935 8a4e 9a58 fe4d a77c 484e

layer_stack_2.2.weight f4 [40, 40, 3, 3]
2.0161805 -0.031838406 0.7180157 -0.48743477 -1.8116552 -1.4504707 0.6102571 -1.5752021
-3.0695698 -0.8181441 -2.186873 -1.1798497 2.197123 -0.26096186 0.049228888 4.3012586
2.7996323 1.7336165 -1.1194347 0.58279026 -2.9326055 -0.53324884 0.90403605 -4.1161547
4.957207 2.076175 -2.8279715 0.17422211 -0.42403808 -0.15540522 -1.2592624 -0.28333926
1.6326493 -1.3757579 1.1994176 3.896339 0.6316422 -0.44207624 2.0514097 -0.9416779
-2.415173 -0.21908836 -0.26189864 -2.401567 -1.3371689 -2.4299948 0.008966505 -0.7115931
-3.3404896 0.7793912 0.93445045 -6.3806944 -1.6006624 0.83598137 -3.9080906 -3.2085629
-2.512378 -2.4461093 -0.33973673 0.21282564 2.1219227 3.7557123 1.1591694 3.455724
0.54801804 -3.4758456 0.2746216 0.10544221 -0.5961913 -0.17329217 -1.2399604 1.3710685
-0.68876475 -0.8059331 0.42657933 1.4051533 -0.4350206 0.27839386 0.256854 -1.4418621
-0.3087102 -0.09055535 -0.20331685 -2.037242 -1.1144375 1.0988059 0.7233114 -4.4900603
0.16581222 2.2163851 -0.3081912 0.038226336 -1.3541337 4.4329796 1.6352702 -2.462956
3.2272975 -0.17713097 -3.954776 -0.39032814 -0.18395662 2.6352177 -2.9550447 -2.1895583
0.70347875 2.2203374 0.9517291 -0.55148375 -1.0580297 0.5984736 -0.41875812 1.3910522
1.3886865 0.4151758 -0.27429393 -0.33050692 -0.10245145 -4.7012663 -0.8634653 1.6443769
-9.703367 -1.5812628 0.99923664 -8.752216 -0.9614776 0.3199321 -0.32870108 -0.6048417
-0.18198046 -2.4466152 -0.06817465 2.0031216 -3.3983126 1.1536783 4.118602 2.515846
1.5903406 -1.2772026 2.8785753 1.3728421 -0.23562776 -2.2708282 -3.325688 -1.4733368
1.6466734 1.5615717 0.44703826 -0.88514113 0.18063849 0.2563617 -0.63744104 0.08318578
-0.68950754 -2.7543576 -2.6591413 0.6334569 -0.37258857 -0.5859068 0.69325906 0.9891219
1.0008671 -0.49513948 -0.63397574 -1.3724154 -1.2657464 -1.6770905 -0.31778246 -2.3093128
2.4818115 4.055806 -0.7949202 1.7800273 0.554256 1.083828 -0.2469405 -1.4897392
-0.531147 2.0954175 -0.9834704 -2.1894732 -0.08398278 0.60757554 -0.21197185 2.5587704
0.9532211 -0.1526373 0.12153048 -1.5532976 -0.6893468 1.1682498 0.094837055 -0.26761398
-0.9792309 -0.28844878 1.2768793 -1.1196783 0.66764176 1.9974377 0.7829813 1.942326
0.66079605 0.9770955 0.6117707 0.4022354 -0.70713145 -0.938235 0.20185448 -2.7554834
-1.101655 -0.70725197 5.3650928 -1.3652736 -2.6069999 9.703065 3.8461485 0.4416833
3.1138377 1.3136895 -1.7167995 0.7006772 1.1645288 -0.44086647 0.52802557 0.881402
-1.4960874 4.3401184 0.5138582 0.35646924 -0.53320414 -0.74257517 2.1671524 -3.500853
-2.6501377 -0.93079257 -0.93263763 1.2803247 1.9837384 0.84791434 -1.4536295 -1.9891844
2.1893358 0.01989682 -3.8598409 3.152194 1.2204187 1.4612582 0.22273588 -0.8867506
-0.7426089 -6.7485905 -5.2960663 -4.1284943 -5.3784404 -2.8718228 -0.5494238 -3.8569932
00000000: 1a09 0140 fd68 02bd e0cf 373f 0d91 f9be
00000010: 51e4 e7bf 06a9 b9bf cf39 1c3f 39a0 c9bf
00000020: d573 44c0 e471 51bf baf5 0bc0 5105 97bf
00000030: aa9d 0c40 cb9c 85be 3ba4 493d e9a3 8940
00000040: 2d2d 3340 25e7 dd3f a349 8fbf be31 153f
00000050: cfaf 3bc0 ff82 08bf e86e 673f 8ab7 83c0
00000060: 71a1 9e40 0de0 0440 7cfd 34c0 4867 323e
00000070: 851b d9be 8c22 1fbe 832f a1bf d811 91be
00000080: a7fa d03f d618 b0bf 8486 993f 9e5d 7940
00000090: 4eb3 213f d157 e2be 4c4a 0340 ce11 71bf
000000a0: 3292 1ac0 b358 60be 9417 86be 46b3 19c0
000000b0: 5a28 abbf 0985 1bc0 3fe8 123c f72a 36bf
000000c0: 95ca 55c0 2f86 473f 2538 6f3f a62e ccc0
000000d0: 81e2 ccbf e002 563f 281e 7ac0 1859 4dc0
000000e0: cdca 20c0 0e8d 1cc0 f9f1 adbe f7ee 593e
000000f0: 95cd 0740 975d 7040 aa5f 943f 952a 5d40
00000100: e94a 0c3f 4174 5ec0 349b 8c3e 16f2 d73d
00000110: fe9f 18bf 8173 31be 06b7 9ebf 2c7f af3f
00000120: e352 30bf a251 4ebf 9b68 da3e 10dc b33f
00000130: 05bb debe a489 8e3e 5e82 833e f08e b8bf
00000140: 430f 9ebe 1575 b9bd 4b32 50be 2c62 02c0
00000150: e3a5 8ebf aca5 8c3f f02a 393f 93ae 8fc0
00000160: aeca 293e 41d9 0d40 3dcb 9dbe 3893 1c3d
00000170: 4154 adbf f8da 8d40 8950 d13f 12a1 1dc0
00000180: 0b8c 4e40 d261 35be 0d1b 7dc0 17d9 c7be
00000190: 205f 3cbe 68a7 2840 741f 3dc0 b921 0cc0
000001a0: 2f17 343f 021a 0e40 85a4 733f 0a2e 0dbf
000001b0: 846d 87bf 9135 193f 7767 d6be 000e b23f
000001c0: 7bc0 b13f ec91 d43e 4170 8cbe 3438 a9be
000001d0: 11d2 d1bd c670 96c0 100c 5dbf f17a d23f
000001e0: fe40 1bc1 d266 cabf f9cd 7f3f 1409 0cc1
000001f0: 6523 76bf 24ce a33e 824b a8be e8d6 1abf
00000200: 1659 3abe 5895 1cc0 279f 8bbd 2533 0040
00000210: f47d 59c0 bbab 933f 96cb 8340 9f03 2140
00000220: 4890 cb3f 607b a3bf 943a 3840 4ab9 af3f
00000230: 6748 71be 4055 11c0 12d8 54c0 4d96 bcbf
00000240: 32c6 d23f 95e1 c73f 33e2 e43e 9c98 62bf
00000250: 4cf9 383e d741 833e 562f 23bf 4e5d aa3d
00000260: 9183 30bf 6547 30c0 5f2f 2ac0 3b2a 223f
00000270: eec3 bebe fdfd 15bf 6d79 313f 1837 7d3f
00000280: 6a1c 803f ec82 fdbe 3c4c 22bf 4fab afbf
00000290: fa03 a2bf e7aa d6bf 62b4 a2be c8cb 13c0
000002a0: 00d6 1e40 2ac9 8140 e47f 4bbf efd7 e33f
000002b0: b9e3 0d3f e0ba 8a3f f8dd 7cbe c6af bebf
000002c0: 40f9 07bf 521b 0640 b7c4 7bbf 5420 0cc0
000002d0: 2aff abbd 128a 1b3f 260f 59be e5c2 2340
000002e0: 4c06 743f f44c 1cbe f9e4 f83d 75d2 c6bf
000002f0: 0879 30bf 3689 953f ee39 c23d b304 89be
00000300: e0ae 7abf 8faf 93be c870 a33f 9e51 8fbf
00000310: 92ea 2a3f 0aac ff3f 7671 483f 239e f83f
00000320: ee29 293f ee22 7a3f 019d 1c3f ccf1 cd3e
00000330: 9106 35bf 2b30 70bf f1b2 4e3e d759 30c0
00000340: 0803 8dbf 770e 35bf d7ae ab40 49c1 aebf
00000350: 16d9 26c0 c13f 1b41 4c27 7640 5024 e23e
00000360: 1e49 4740 fa26 a83f 16c0 dbbf 955f 333f
00000370: 480f 953f 40b9 e1be af2c 073f 90a3 613f
00000380: cb7f bfbf 40e2 8a40 368c 033f 2383 b63e
00000390: 1180 08bf 6819 3ebf a0b2 0a40 fa0d 60c0
000003a0: db9b 29c0 6c48 6ebf 57c1 6ebf aee1 a33f
000003b0: 24eb fd3f ea10 593f 8810 babf 989d febf
000003c0: 141e 0c40 a8fe a23c a207 77c0 8cbd 4940
000003d0: ae36 9c3f 820a bb3f e014 643e 1602 63bf
000003e0: 9e1b 3ebf 74f4 d7c0 6079 a9c0 a01c 84c0
000003f0: 2f1c acc0 f2cb 37c0 0aa7 0cbf fad8 76c0

layer_stack_2.2.bias f4 [40]
0.020262046 -0.011506368 0.03336245 0.00578641 -0.015311377 0.0067255683 0.062813506 0.040422957
-0.017493289 -0.008412518 -0.011437236 -0.04809399 -0.053908505 0.031710573 0.014779935 0.028057218
-0.013443174 0.012833527 -0.043640085 0.014162578 -0.026380002 -0.019318838 0.06261339 0.013173795
-0.026258662 0.026266968 0.040474657 0.0135947745 0.00039345628 0.032347713 0.022366848 0.027074091
-0.015555261 0.0450396 -0.015733374 0.05556917 0.023815483 0.05054893 -0.026898503 0.00017770486
00000000: 97fc a53c 3585 3cbc 10a7 083d ed9b bd3b
00000010: 92dc 7abc 2862 dc3b 5ea4 803d 8b92 253d
00000020: 164e 8fbc a8d4 09bc 3f63 3bbc 34fe 44bd
00000030: 2acf 5cbd f2e2 013d 8a27 723c 40d8 e53c
00000040: c240 5cbc b743 523c f2bf 32bd 280a 683c
00000050: e01a d8bc 8a42 9ebc 733b 803d e7d6 573c
00000060: 681c d7bc d32d d73c c1c8 253d 9ebc 5e3c
00000070: cf48 ce39 097f 043d ae3a b73c 7cca dd3c
00000080: 7edb 7ebc 727b 383d 47e3 80bc 7f9c 633d
00000090: b018 c33c 650c 4f3d 405a dcbc 4956 3a39

layer_stack_2.3.weight f4 [40]
5.4096165 3.8484902 0.80673224 0.07536247 0.6370704 2.0426219 -0.02951953 1.4713242
2.8904629 0.34712228 0.64195126 1.4077722 2.77662 4.6459684 2.80535 2.5335424
5.819801 4.501021 2.3354318 5.627486 2.8481276 3.5130954 0.354799 2.4876122
1.746306 1.8515404 1.6312118 2.8582854 0.062008746 2.209932 1.5324699 1.1842203
1.8527812 5.3769274 1.7815996 4.2101355 3.5331938 2.5404992 3.7631307 3.6095026
00000000: 941b ad40 aa4d 7640 0186 4e3f a357 9a3d
00000010: 0c17 233f 51ba 0240 f1d2 f1bc 5a54 bc3f
00000020: 58fd 3840 03ba b13e eb56 243f e131 b43f
00000030: 24b4 3140 c6ab 9440 db8a 3340 8f25 2240
00000040: cf3b ba40 5d08 9040 b777 1540 5e14 b440
00000050: b947 3640 8ed6 6040 37a8 b53e 0a35 1f40
00000060: f486 df3f 47ff ec3f 8ccb d03f 26ee 3640
00000070: e2fc 7d3d 876f 0d40 f927 c43f 8894 973f
00000080: ef27 ed3f ca0f ac40 750b e43f 6eb9 8640
00000090: d91f 6240 8a97 2240 22d7 7040 1702 6740

layer_stack_2.3.bias f4 [40]
0.81132895 -0.455159 -0.71172017 0.2874558 3.6516776 1.0526432 -0.07494969 0.39068818
2.2667108 0.004072278 -0.10701109 0.2850668 -0.15136261 0.81115913 0.9476482 0.19357301
-0.7969934 0.4312184 0.124255605 -1.0251327 0.2800698 0.62034374 0.069356605 -0.72539645
-1.7649354 1.4480869 0.1811943 1.5432984 -0.075988404 0.1335736 0.20847656 -1.3406228
0.15298393 -0.26345176 -0.7565795 0.4531228 0.4838746 -0.027726471 -2.8053694 0.72264135
00000000: 41b3 4f3f 9a0a e9be 4b33 36bf 682d 933e
00000010: 16b5 6940 03bd 863f 397f 99bd 4808 c83e
00000020: ca11 1140 be70 853b a128 dbbd 47f4 913e
00000030: cdfe 1abe 20a8 4f3f 1399 723f 0138 463e
00000040: c207 4cbf a8c8 dc3e b979 fe3d 8c37 83bf
00000050: 4f65 8f3e d9ce 1e3f d60a 8e3d 95b3 39bf
00000060: 67e9 e1bf e95a b93f 008b 393e cd8a c53f
00000070: cf9f 9bbd 85c7 083e e17a 553e 8799 abbf
00000080: d2a7 1c3e 26e3 86be 32af 41bf b6ff e73e
00000090: 69be f73e a022 e3bc 2c8b 33c0 06ff 383f

layer_stack_2.3.running_mean f4 [40]
-176.01863 23.456442 111.45093 159.30313 -29.129045 39.08479 65.96611 200.50047
-264.37186 2.3854012 -66.31907 70.06747 4.2941246 170.0472 -45.110855 -38.93003
-47.058586 -0.8035699 110.1336 71.61478 -134.47673 31.797806 -227.7393 -11.46365
114.99471 -93.453545 21.274029 -272.91748 111.27596 -11.0519285 -89.14007 231.84943
-209.18294 68.47235 -31.07286 27.201609 21.007133 0.022409882 492.0304 93.192215
00000000: c504 30c3 cba6 bb41 e0e6 de42 9a4d 1f43
00000010: 4908 e9c1 d356 1c42 a6ee 8342 1f80 4843
00000020: 992f 84c3 6aaa 1840 5da3 84c2 8b22 8c42
00000030: 7869 8940 150c 2a43 8471 34c2 5ab8 1bc2
00000040: fe3b 3cc2 c2b6 4dbf 6744 dc42 c43a 8f42
00000050: 0b7a 06c3 e861 fe41 43bd 63c3 1c6b 37c1
00000060: 4bfd e542 37e8 bac2 3631 aa41 7075 88c3
00000070: 4b8d de42 b3d4 30c1 b747 b2c2 74d9 6743
00000080: d52e 51c3 d8f1 8842 3895 f8c1 e59c d941
00000090: 9c0e a841 ee94 b73c e403 f643 6a62 ba42

layer_stack_2.3.running_var f4 [40]
70269.53 40837.4 131928.48 53957.336 124612.01 97716.45 50118.98 117450.84
84694.3 32988.4 87494.664 73917.98 22617.441 41518.81 96842.12 27183.523
50247.29 37934.273 57785.297 35596.547 23736.076 57644.32 59008.52 53563.3
127837.99 142059.81 23483.268 72972.766 64801.16 27807.324 25090.756 110692.516
85373.555 40772.258 75923.62 49121.01 38779.684 53290.83 153089.81 30711.049
00000000: c43e 8947 6685 1f47 1fd6 0048 56c5 5247
00000010: 0162 f347 3ada be47 fbc6 4347 6c65 e547
00000020: 266b a547 66dc 0047 55e3 aa47 fd5e 9047
00000030: e2b2 b046 cf2e 2247 0f25 bd47 0c5f d446
00000040: 4a47 4447 462e 1447 4cb9 6147 8c0c 0b47
00000050: 2770 b946 522c 6147 8580 6647 4d3b 5147
00000060: ffae f947 f4ba 0a48 8976 b746 6286 8e47
00000070: 2921 7d47 a63e d946 8305 c446 4232 d847
00000080: c7be a647 4244 1f47 cf49 9447 03e1 3f47
00000090: af7b 1747 d42a 5047 7480 1548 19ee ef46
