models/fer_plus_best_model_latest.pth (torch, 676379 bytes, 54 tensors)

layer_stack_1.0.weight f4 [40, 3, 3, 3]
00000000: 827d a9be c825 f8bd 8fba 103e dcb1 883e
00000010: 2ae8 583c 2884 3f3e 187c 57be 4295 11bf
00000020: 0d0e ef3d 8c18 96be ff49 a6be 93ff d83d
00000030: 0a62 8c3d e142 27be beba ac3e ffeb 43be
00000040: c390 04bf 4039 ac3e 2900 1dbe 5f6b 37be
00000050: 9fa3 ca3d 6a83 7b3e fe8f 0bbe 4d39 de3d
00000060: 03bd 62be 0336 dcbe 711e a63e 4f7b 17be
00000070: 9d2a d43d ab03 1cbd f81b 543d aa9a 4dbb
00000080: 8214 49be 8062 503d 4163 23be 9f05 743d
00000090: ebba d93c 5201 10bd abec 27be e3bd 49be
000000a0: aea4 2cbe 6d82 61be ab8b 94be 4090 1dbd
000000b0: 6628 73be 33ce 403d accd 153d bf41 a8be
000000c0: 44e8 d73c e05a 23be 24c7 cdbd b1e0 36be
000000d0: e5af 81bc 6614 8bbd df19 6a3d 2286 fabe
000000e0: acf0 d5bd b648 713e c0f3 3cbf 17ba e2be
000000f0: 11e4 e73e 8c9c 7f3e cf6d f7be cfa6 9cbc
00000100: 9561 1abf ada5 243e 91c6 df3d 1ffa 00bf
00000110: b1b9 09bf e032 f13e 1097 cd3d 4521 d8be
00000120: f98b 83be c748 1dbf 8443 543e c985 e3bc
00000130: 1052 51bf bd04 94be 32c8 d03e 6e01 803e
00000140: 081e 10bf f753 ccbd ed8b 7b3d f0d3 a3be
00000150: 94a8 c43d f3db 4fbd 6539 bebe bfa2 7fbf
00000160: 4b8b febe ff94 91be 2bf8 b83d a152 1ebd
00000170: 80a2 3fbe 3cac f8bd d9dc 53be 884c a2be
00000180: 1e68 71bf 48af 11bf 390e 39bd ac9f 103e
00000190: 7e7f 81bd b544 71be 2ce0 d23d d451 2dbe
000001a0: 4d85 e0be ce69 71bf df06 30bf b4a5 3dbe
000001b0: b33f 58bd 47f0 09be 68c7 9fbd 9b10 673f
000001c0: 6988 23bf 991f 223e b977 243e 9141 7a3c
000001d0: dc7e d1bd c8be 59bd a594 40be ec2f 13be
000001e0: 85ab 633f 17e7 06bf 3883 793d dd4b a63d
000001f0: 40bb 98be 498f 823e edb9 75be 9bbb 8fbe
00000200: 79dc 023d 442e 653f 2dbc 0bbf 5dde af3d
00000210: cf06 7e3d c9e8 adbe e522 403e 794a 0f3f
00000220: 8aae 7bbd 9c74 46be 47df 1d3e 2965 afbe
00000230: cf44 d4be 0f95 5abe 4e28 0dbf c64b 5abe
00000240: 8c79 273f 69d0 913c 24b3 9bbd 1024 d83e
00000250: 8910 a3be a12d 6dbe f6ab 7ebe 6602 1bbf
00000260: d16b 72be 9498 fb3e a9b4 17be 3cec 57be
00000270: 6fc9 813e 9e37 d1be b2d4 dbbe 5784 f9bd
00000280: b5c9 c4be 4c97 34be 173e 283e 7f56 803e
00000290: 5a7a 513e 4f7d a0be f3ab c9be 9371 43be
000002a0: a8c0 b4bc 534f 16bd 1675 433e da05 0f3c
000002b0: a8b3 083d 1437 ba3d 6a59 ccbe b105 1fbf
000002c0: b91a 483d ec8b 893d 8cb3 6f3d b028 38be
000002d0: 2817 8f3e a488 f13d 4502 abbd 1975 84be
000002e0: 1f14 d9be 2525 23be 867b 983c c619 4e3d
000002f0: 2c45 cfbd 216d 77bf 66c8 11be e82b de3c
00000300: bdc9 a7bd fdba e43e afd9 343e 55bf 3fbe
00000310: 29cd f83c 6073 0c3e b810 93bf 75a8 90bd
00000320: 018d 71bd da60 3ebe 81ea f23e bd60 f23d
00000330: b48c 503d c125 093e c2aa 383e b551 8dbf
00000340: 73e3 e4bd 0e74 a8bd 19ec 923d 5529 c63e
00000350: ff11 d43e 5e82 63bc 407c 983e 50aa 283e
00000360: 8cba 33be 1e68 babd a6d2 03bf 967a f93d
00000370: 1d6c 723e 7861 20bf 6b26 dbbd e75c dabc
00000380: 29d6 4dbf 74cb d2be 5a64 823b 53d9 19bf
00000390: e5ad 223e 882b 933e 5dce e3be 301f 15be
000003a0: 5906 903c 210f 22bf 3031 0cbf 2bc9 27be
000003b0: 2c4a f7be f791 6c3e b2ec ae3d 1050 10bf
000003c0: 6827 8abd 6966 06be 938d 4cbf 67c6 ddbd
000003d0: 3ccb 49be dd46 2e3e f3ac eabe 08dd ebbd
000003e0: 416e 113f 1786 d3bd 7dab c3bc 31c0 7b3d
000003f0: c9b4 5fbe f303 babd 835f e13e 0c43 c9be
-0.33103567 -0.12116581 0.14133666 0.26698196 0.013238946 0.18702757 -0.21043432 -0.56868374
0.11672602 -0.29315603 -0.3247833 0.10595622 0.06854637 -0.16334106 0.33736223 -0.19132994
-0.5178339 0.33637428 -0.15332092 -0.17912053 0.098944895 0.24561849 -0.13629147 0.10850773
-0.22142415 -0.43009958 0.324451 -0.14793132 0.1035969 -0.038089436 0.051784486 -0.0031372705
-0.1963673 0.050875187 -0.15955831 0.059575673 0.026578387 -0.03515751 -0.16398875 -0.19701342
-0.16859695 -0.2202241 -0.29012808 -0.038467646 -0.2374588 0.047071647 0.036573097 -0.3286266
0.02635587 -0.15952635 -0.10047749 -0.1785915 -0.015830943 -0.06791 0.05715358 -0.4893046
-0.10446295 0.23562893 -0.73809433 -0.442826 0.45291188 0.24962062 -0.48325965 -0.01912251
-0.6030515 0.16078825 0.109265454 -0.50381655 -0.5379897 0.47109127 0.100385785 -0.42212883
-0.25692728 -0.61439174 0.2072888 -0.027773755 -0.8176584 -0.28909865 0.40777737 0.2500109
-0.56295824 -0.099769525 0.06141274 -0.31997633 0.09602466 -0.05074687 -0.37153164 -0.99857706
-0.49715647 -0.28433987 0.09031709 -0.03865302 -0.18714333 -0.12142226 -0.20689715 -0.31699014
-0.94299495 -0.5690808 -0.04517958 0.1412341 -0.06323145 -0.23561366 0.10296664 -0.16925746
-0.438517 -0.9430207 -0.68760484 -0.18520242 -0.052795123 -0.13470565 -0.078017056 0.9025971
-0.6388002 0.15832366 0.16061296 0.015274421 -0.10229275 -0.05316046 -0.18806703 -0.1437375
0.88933593 -0.52696365 0.060916156 0.081199385 -0.2983036 0.25499943 -0.23996706 -0.2807282
0.03194854 0.8952372 -0.5458401 0.08587334 0.062018212 -0.33966663 0.18763311 0.5597301
-0.06144575 -0.1938042 0.15417205 -0.34256867 -0.41458747 -0.21345924 -0.55139625 -0.21317968
0.6541984 0.017799573 -0.07602528 0.42215014 -0.31848553 -0.23161937 -0.24870285 -0.60550535
-0.23673941 0.49139845 -0.1481501 -0.2108621 0.25348994 -0.40862745 -0.4293571 -0.12183445
-0.3843514 -0.1763584 0.16429935 0.2506599 0.2045683 -0.31345603 -0.39389 -0.19086294
-0.022064522 -0.036696743 0.19087633 0.008729422 0.03337446 0.090925366 -0.39911968 -0.6211806
0.04885361 0.06716141 0.05852084 -0.17984271 0.27947354 0.1179364 -0.08350042 -0.25870588
-0.42398164 -0.15932138 0.018613588 0.05031755 -0.10120615 -0.9665089 -0.14236602 0.027120546
-0.081927754 0.4467391 0.17661165 -0.18725331 0.030371265 0.13715887 -1.1489477 -0.07063381
-0.058972362 -0.18591633 0.47444537 0.118348576 0.050915435 0.13393308 0.18033889 -1.104056
-0.11176195 -0.08225261 0.07173938 0.3870341 0.4141998 -0.013886062 0.29782295 0.16471219
-0.1755163 -0.0910189 -0.514933 0.121815845 0.23674054 -0.62648726 -0.10700687 -0.026655627
-0.8040491 -0.41170847 0.003979248 -0.60097235 0.15886648 0.2874415 -0.4449338 -0.14562678
0.017581152 -0.63304335 -0.54762554 -0.16385333 -0.48298776 0.23102556 0.0854124 -0.56372166
-0.067457974 -0.13125004 -0.79903525 -0.10828858 -0.19706434 0.1701922 -0.45835075 -0.11516768
0.5680886 -0.1032831 -0.023885483 0.061462585 -0.21846308 -0.090827845 0.44018182 -0.39308965

layer_stack_1.0.bias f4 [40]
00000000: 0196 6a3e a081 82bd 4435 24be 2f3e 8e3e
00000010: 96ff 113e f0df 84bd 83f8 243f bc96 c7be
00000020: e9a8 9c3e cf9c 813d ce18 64be 66f5 bebd
00000030: c057 31be 890b 2dbe dee4 3e3e f6ad 99bd
00000040: 6bf4 16be 70bf 2bbe 2982 8f3e 78d0 853e
00000050: aab3 833e 8a2c 6c3e d03d 64be 745a 44bd
00000060: 9069 863e b7a6 003e c7f0 9abd 5a89 d8bd
00000070: 0f8a 793e b3a9 793d df52 713d 25b3 1abe
00000080: 7c4d debd 2b9f 37be b691 06be edfe 603e
00000090: 268a 03be 75bd b3be d046 653c b62e 3e3e
0.22908784 -0.0637238 -0.16035944 0.27781817 0.14257655 -0.06488025 0.644417 -0.3898219
0.30597618 0.06328737 -0.22275087 -0.0932415 -0.1731863 -0.16898932 0.18641993 -0.075038835
-0.14741676 -0.16772246 0.28028992 0.26135612 0.2572301 0.23063865 -0.22289205 -0.047937825
0.26252413 0.12563597 -0.07565456 -0.10573073 0.24369071 0.060952853 0.058916923 -0.151074
-0.10854623 -0.17931812 -0.13141522 0.21972246 -0.12845668 -0.35105482 0.013993934 0.18572506

layer_stack_1.2.weight f4 [40, 40, 3, 3]
00000000: de3e e13d c16d 3abf c046 033d d809 bb3e
00000010: ed84 64be cb14 3bbc 9542 0dbe 8fbd 15be
00000020: 1a1d 91be 38ab 253e bb67 4cbd a92e 5cbb
00000030: 0098 063e 1e75 2e3e 6714 f83b de27 cebc
00000040: 6c23 8b3d 0a95 19bd d3ac 31bd cfe5 cf3d
00000050: 5dc9 9c3e 2041 043e 4f04 afbd ab6e 21be
00000060: 4b36 91be 5285 babe 2378 b0be c6e3 ff3e
00000070: b1da 393e dc0a f8be 8fdf 893e 58c2 d13e
00000080: 733f 46bd 1bcc d6bd 8fcf e73e dd50 df3e
00000090: b215 983d 5312 c1be fc5e 143c 87a0 0f3f
000000a0: 58b1 a3be 572d a33f 6c8a bc3d 7675 15bd
000000b0: 9932 2dbe f313 ee3d 4471 fb3d d3a3 4a3e
000000c0: cadf 953e 9ebc 823e d083 b83e bc6a 2a3d
000000d0: 01bd 103f 0d40 acbe 2e3b 4c3f a406 5c3e
000000e0: b3cc ba3e c689 a13e 4c47 58be 0f16 70bc
000000f0: 93bf c7bd d22b cbbd 9f02 283e dfd1 f33d
00000100: e440 963e c0a2 d03e 65af ebbe 22d5 d4be
00000110: 5072 f9be 9d60 21bd 99b4 27be c0ec 433e
00000120: bb99 89be 0b01 04be 86da 9ebe 4649 213e
00000130: 2e4d bc3e 41c7 c1be 1a48 adbe 84c6 ae3d
00000140: eca9 45be 2987 7b3e 7a00 593e cc72 84be
00000150: 66dc 263e 43c4 143e 71e8 0abf 4c52 e3bd
00000160: 2539 fc3d 3c30 b4be a9ec d5be 1aaa eebe
00000170: 916f 2c3f 5368 f6be 8c59 44be fa1f 9dbe
00000180: 46a7 503d ca5f adbe d801 a8be d662 c7bb
00000190: 5f1a 6fbd cb7a 40bb 5789 06bd 2a8e 3f3d
000001a0: 0844 1e3d 366b a4bc b702 0c3d e758 2f3d
000001b0: 1f98 3d3d 9e28 48bd cc38 303d ed6c 26bb
000001c0: 83d1 febc 282c 1c3d 0298 34bc 3bed cb3c
000001d0: 8f2b 963d b809 87bd 7306 d6bc 9763 b4bb
000001e0: 3686 7cbd fbc6 1cbd 28c0 813c 23c3 b4b9
000001f0: b6ca fbbb 3f9f b33b 14a8 9a3d 1fec cdbc
00000200: 095a 42be 004b b93e 99c8 603c 9b52 3bbe
00000210: 5731 123f e61b 61bd 33f8 9d3e 9edc 0fbf
00000220: ba6f 983c 86c3 643e 5633 38be 3726 c2bd
00000230: 00d6 72be 9c3c 38be b748 553c 6543 8fbd
00000240: 5ead dfbd d110 50be 5e5b 0fbd c191 32be
00000250: 0286 523b ac5f 803b 0a8b 133e c577 193e
00000260: d8f2 583d 6040 3f3d e7cd ba3a 3318 333d
00000270: 97bb a3ba 2d0f 853d 9f2b 72bc df38 e13c
00000280: fa6a 723b 7c63 7e3d 7e36 a33c 284d 5dbd
00000290: 84f8 c53d 6948 333e 4cf5 d5bc 78bd d4be
000002a0: be44 563e 888e a83d 5821 353e 7104 e63d
000002b0: 2428 9fbe f9ea 38bf 79cb 363e f79c 063e
000002c0: d858 bbbe 0a38 b8be 12f1 84be a7c1 16be
000002d0: 40e5 8cbd cf8f 8dbe 3bfa 1cbc 7f5d 81be
000002e0: 4274 953f 7de6 0dbf 488f c2be cbc8 b2be
000002f0: 42fb ab3e 5e28 9a3e 2cb6 3f3e a6c9 08be
00000300: b84a 703d 45cc 203f 8b0b 4dbe 982c a8be
00000310: 964f 423e 4396 293f b08d ffbc d973 49bd
00000320: f1db 87bb 1224 89bb f43f ecbc d4bd a8bd
00000330: 8d7c 9abd 764f d2bd edf1 90bc ce4f bc3b
00000340: 0825 f3bc 1fa6 983a dc6d 3ebd 910c 37bc
00000350: 8bf0 143d c15a 073d fc8e 923d 6d46 fc3c
00000360: e989 553e 3d2e 5c3e af38 c83e 2704 70bd
00000370: ccce cbbe c81a 10bd cba2 883e f273 843e
00000380: fe28 b5be dd0b cb3e 347d d03e 2cb9 02be
00000390: 880f 9d3c 836d 10be fc97 3ebd eacb aabe
000003a0: ed4e 983c fe88 9dbe c263 3bbc 9630 a5be
000003b0: c5f1 6cbd 1b52 043e 8d3a 0b3e f93e 7cbe
000003c0: 0c06 cdbe 5de5 a7be 8c73 93be e6bb 35bd
000003d0: d8a7 1abd 659b b03d 6ccc 1f3d 1e01 5fbc
000003e0: 8724 863d 5890 8a3d 9994 debb 81ee 1b3d
000003f0: ad2f 88bd 59f6 54bd bd8f d8be 3f57 e9be
0.10998319 -0.7282372 0.032049894 0.36530948 -0.22316332 -0.011418532 -0.1379493 -0.14623092
-0.28342515 0.16178596 -0.049903613 -0.0033597148 0.13143921 0.17036864 0.0075707915 -0.025165495
0.067938656 -0.03749565 -0.04337771 0.101512544 0.30622378 0.12915468 -0.08545744 -0.15764873
-0.28361735 -0.3642984 -0.34466657 0.49978465 0.1814983 -0.48445785 0.26928374 0.40968585
-0.048400354 -0.10488149 0.45275542 0.4361638 0.07426013 -0.37709293 0.009055849 0.5610432
-0.3197124 1.2748212 0.092060894 -0.036488973 -0.16913833 0.11624899 0.12277463 0.19789056
0.292723 0.25534528 0.36038065 0.041605696 0.565384 -0.33642617 0.797778 0.21486908
0.36484298 0.31550425 -0.21120948 -0.014653697 -0.09753337 -0.099204674 0.1640725 0.11905264
0.29346383 0.40749168 -0.46032253 -0.41568857 -0.48720026 -0.03939878 -0.16377486 0.19133282
-0.268751 -0.12891023 -0.31026095 0.15750608 0.36777633 -0.3784733 -0.33844072 0.085339576
-0.19303101 0.24563278 0.21191588 -0.25868833 0.16295013 0.14527993 -0.5426093 -0.11099681
0.12315587 -0.3519305 -0.4178212 -0.46614152 0.67357737 -0.48126468 -0.19174784 -0.3068846
0.050940774 -0.33862144 -0.32813907 -0.00608478 -0.05837476 -0.0029370065 -0.03284582 0.046766438
0.0386391 -0.020070653 0.034182277 0.042809393 0.046287652 -0.04886686 0.043022916 -0.0025394515
-0.031105762 0.03812805 -0.01102257 0.024893394 0.07332527 -0.065936506 -0.026126122 -0.005505036
-0.06165143 -0.0382757 0.015838698 -0.00034477664 -0.007684077 0.00548163 0.075515896 -0.025137005
-0.18979658 0.36190033 0.013719701 -0.1829323 0.57106537 -0.054958247 0.30853423 -0.5619601
0.018607963 0.22340211 -0.17988333 -0.09479945 -0.23714447 -0.1799187 0.013017825 -0.06995276
-0.10921739 -0.20318915 -0.034999244 -0.17438413 0.0032123332 0.003917655 0.14408508 0.14987095
0.05296597 0.046692252 0.0014252038 0.04372425 -0.0012491819 0.06497035 -0.014780908 0.027492939
0.0036990033 0.062106594 0.019923445 -0.05402866 0.09666541 0.17508091 -0.026117943 -0.41550803
0.2092466 0.08230311 0.17688501 0.11231316 -0.31085312 -0.7223354 0.17851056 0.13145815
-0.3659122 -0.35980254 -0.25965172 -0.1472231 -0.068796635 -0.2764878 -0.009581144 -0.25266644
1.1676104 -0.5542982 -0.3799994 -0.34918818 0.33590132 0.30108923 0.18721837 -0.13358173
0.058665007 0.6281169 -0.20023935 -0.32846522 0.18975672 0.66244906 -0.031195492 -0.049182747
-0.004146092 -0.004185208 -0.028839089 -0.08239332 -0.075432874 -0.10269062 -0.017693484 0.005746818
-0.029680744 0.0011646188 -0.04649149 -0.01117243 0.036362212 0.033045534 0.07156178 0.0307953
0.2085339 0.21502014 0.39105746 -0.05859771 -0.3980621 -0.03518179 0.266867 0.2586971
-0.35382837 0.39657488 0.40720522 -0.1276595 0.019172445 -0.14104275 -0.046531662 -0.333587
0.018592322 -0.3076858 -0.011437358 -0.3226363 -0.057847757 0.12921946 0.13596554 -0.24633397
-0.40043676 -0.32792178 -0.28799093 -0.044368647 -0.037757725 0.08623389 0.03901331 -0.013611106
0.06549936 0.06765813 -0.0067926166 0.038069252 -0.066497184 -0.051992748 -0.42297164 -0.45574376

layer_stack_1.2.bias f4 [40]
00000000: 078f ff3e e903 fdbd 35b4 0e3e 34a2 48bd
00000010: 4239 aebd f0e5 9a3f 3db2 7d3e 931b b5bd
00000020: 35d4 2e3e 2b06 9fbd d3f5 893b 6635 76be
00000030: 9d2a 373e 0687 f93d ffc7 1d3e 479d 913e
00000040: 424b 0a3f 296f 6ebd fa76 05be 7f63 bdbc
00000050: 284a 6dbc ba6a 6f3e 2e97 9bbd 4742 23bd
00000060: 6fc1 bfbc a97a 5dbd 0493 80bd c5c8 55be
00000070: 1075 613a cc2a 933d fb18 1b3e 3553 21bf
00000080: a74f 5c3f d551 62bd 8902 a4bd 6c84 6abd
00000090: 6b30 2abe fec8 4d3d 7ae9 c9be 93e4 8cbd
0.4991381 -0.123542614 0.13935931 -0.048982814 -0.08507015 1.2101421 0.24775024 -0.0884315
0.17073138 -0.07764848 0.0042102127 -0.24043807 0.1788735 0.12183957 0.15408324 0.28440306
0.54021084 -0.05821148 -0.13033667 -0.023118732 -0.014483012 0.23380557 -0.075971946 -0.03985813
-0.023407666 -0.054072056 -0.06278041 -0.20877369 0.00086005125 0.07185897 0.15146248 -0.6301759
0.8605904 -0.055253822 -0.08008296 -0.057255194 -0.16620032 0.05024051 -0.3943594 -0.068795346

layer_stack_1.4.weight f4 [40]
00000000: bb73 983f 9d21 683f 16ed 903f 944d 753f
00000010: 288a 7d3f b276 433f 5a4c 863f 706f 773f
00000020: 1b74 033f d012 543f 06f5 6f3f 750a 673f
00000030: a207 993f f4ae 5d3f 4856 673f cc8d 513f
00000040: 2fd1 813f e621 513f a6c3 473f f885 7b3f
00000050: 788c 7c3f d91a 963f b085 633f 824a 7e3f
00000060: 27b4 813f a20a 7b3f 5dda 723f 770b 3e3f
00000070: 6387 773f 120e 513f c8aa 553f c690 723f
00000080: 9ea9 9f3f ddc8 653f e54c 6e3f 471a 7e3f
00000090: 654e 823f 7850 8b3f 9b50 683f 8a78 7d3f
1.1910318 0.9067629 1.1322353 0.958215 0.99038935 0.7635299 1.0492051 0.96654415
0.5134904 0.82841206 0.9373325 0.9025033 1.1955454 0.8659508 0.9036603 0.8185699
1.0141963 0.8169235 0.7803291 0.98251295 0.9865184 1.1726943 0.88875866 0.9933244
1.0133103 0.980631 0.94864446 0.74236244 0.9669096 0.81662095 0.83463717 0.94752157
1.2473638 0.8975962 0.9308608 0.99258846 1.0180174 1.0883932 0.90747994 0.99012053

layer_stack_1.4.bias f4 [40]
00000000: 50f6 91bd daf5 c5bc 12cd 293e 2b93 dc3b
00000010: 63e8 e93a 7008 363b ea3b c33e 1c6f 5ebc
00000020: 586b a43d 7729 24ba 40e3 d43c 223f a33e
00000030: 1f5b f03e b197 423e 7d87 363e 2988 123d
00000040: 50eb a33e cd4d 02bc 3566 5e3c 485e d8be
00000050: 788b 5ebc 919a b23e de63 ae3c d759 54be
00000060: d033 773c 720e e9bb 2418 4dbe 892b e5bd
00000070: f741 2abb a243 a23e 5e1e 2a3e 36e5 023e
00000080: eba6 88bd b10a 31bc 7a0c 753c 524c 893c
00000090: 7381 963e 89ec fb3d fd0b f43d 6d12 83ba
-0.071270585 -0.024165083 0.16582134 0.006731411 0.0017845746 0.0027776025 0.38131648 -0.013576295
0.08028287 -0.0006262282 0.025987267 0.31884104 0.4694452 0.19003178 0.17825122 0.035774384
0.32015467 -0.007953119 0.013574173 -0.4225943 -0.013583057 0.3488355 0.021287855 -0.20737396
0.015088037 -0.0071123177 -0.2002874 -0.11189944 -0.002597926 0.31692225 0.16613147 0.1278275
-0.06672462 -0.010805772 0.014956588 0.016760025 0.29395637 0.12300975 0.11916349 -0.0009999998

layer_stack_1.4.running_mean f4 [40]
00000000: 5884 863f 0400 0000 d6b1 083d 0400 0000
00000010: 0400 0000 0a70 2d40 2264 d43e 0400 0000
00000020: 9203 b23d 0400 0000 0400 0000 97c8 c93d
00000030: ce3c d73e 6c8e 743d 72e7 fd3c cb8f 443f
00000040: eb5b 523f 0400 0000 0400 0000 0400 0000
00000050: 0400 0000 697c db3e 0400 0000 0400 0000
00000060: 0400 0000 0400 0000 0400 0000 3641 8840
00000070: 0400 0000 1d54 383f 0383 e13e 3669 793c
00000080: f4f0 7d3f 0400 0000 0400 0000 0400 0000
00000090: 429b 273d 90fa 353f 7596 9b3c 0400 0000
1.0509138 6e-45 0.033372723 6e-45 6e-45 2.7099633 0.41482645 6e-45
0.08692087 6e-45 6e-45 0.098527126 0.42038578 0.059706137 0.03099415 0.7678191
0.82171506 6e-45 6e-45 6e-45 6e-45 0.42868355 6e-45 6e-45
6e-45 6e-45 6e-45 4.2579603 6e-45 0.72003347 0.44045267 0.015222838
0.9919579 6e-45 6e-45 6e-45 0.04091955 0.71085453 0.018992642 6e-45

layer_stack_1.4.running_var f4 [40]
00000000: 6bb4 b53e 0400 0000 98d7 1b3d 0400 0000
00000010: 0400 0000 0005 0940 7a75 bc3e 0400 0000
00000020: 7b69 e83d 0400 0000 0400 0000 7b10 183e
00000030: 231e c23e 0496 a53d 56d7 ed3c c5e8 be3e
00000040: 9a42 193f 0400 0000 0400 0000 0400 0000
00000050: 0400 0000 3020 a23e 0400 0000 0400 0000
00000060: 0400 0000 0400 0000 0400 0000 3282 5340
00000070: 0400 0000 ae43 4d3f 6d0d 6d3e 70aa 983c
00000080: 2024 943e 0400 0000 0400 0000 0400 0000
00000090: f240 6b3d 75b7 273f 7fc7 093d 0400 0000
0.3548921 6e-45 0.038047403 6e-45 6e-45 2.1409302 0.36808378 6e-45
0.11348244 6e-45 6e-45 0.14850037 0.37913617 0.08085254 0.029033344 0.37286964
0.5986725 6e-45 6e-45 6e-45 6e-45 0.31665182 6e-45 6e-45
6e-45 6e-45 6e-45 3.3048215 6e-45 0.80181396 0.23149653 0.018635958
0.2893381 6e-45 6e-45 6e-45 0.057434984 0.6551431 0.03363752 6e-45

layer_stack_1.5.weight f4 [40, 40, 3, 3]
00000000: 28fe d13d fdab 2dbe 9796 65be 7321 9b3c
00000010: 52aa 363f f720 bdbe fd05 a63d 3f0d b83e
00000020: 3dcf d0be b988 843c 81db e23d 07d1 793d
00000030: 66eb 653d c67f f73d e441 9d3d 3508 323d
00000040: 3f16 b23d c041 093e d2da b8bd d21c d43d
00000050: 1ad6 663d b473 b3be a97a 54bd 21e9 343e
00000060: 3a9b b53e 21f0 1dbf cb33 283f 44b6 8c3d
00000070: 7030 a93d c5ff 0c3c d7ef 5c3d 63a6 b33c
00000080: f881 2cbc 7ae2 093c ba9e 413d 1b53 90bc
00000090: bf18 24bd 1dc3 183b dab4 b8bc f8ed cd3c
000000a0: 8602 af3c 9994 14bd 3bed 6a3d 80a8 363d
000000b0: d8dd 643d fa4a e63d cade a2bd f302 55be
000000c0: e21b 383e f661 fd3d 6b51 d4bd 9433 813e
000000d0: 7d59 f03c df53 bcbe 9414 a7be f189 9d3e
000000e0: 0445 65be e327 cbbd 1e7a cc3e 1178 d0be
000000f0: ee11 f13d c27c 903e 80cf 34bd 4c00 1cbe
00000100: 7e1d bebd e3e0 8abd f7e7 2abe 6da3 88bd
00000110: edf9 86bc 436f cabd 09d2 07bd 2069 dcbc
00000120: 7d51 093f 2eb9 f53e d592 113f 1f83 1b3e
00000130: b6f2 863e a0c4 693e d413 86bd b267 743e
00000140: 79b8 c13e 02d1 11bd 9199 453d 9bbf fbbc
00000150: 0896 283c 984f 9d3c d392 77bd 0249 a63c
00000160: 1628 a63d f301 9abb 9e9a 99bd ee9a 9bbd
00000170: 9854 16be 6c67 c0bd 54a6 e8bd db2e 48be
00000180: e88c 6dbd a654 23be d882 2cbe 1f3b 1a3e
00000190: 4286 a73c 697a f7bc 777c 64bc 7a8f ac3e
000001a0: 3795 0ebe 5904 743e 62e6 c63e 361a 5fbe
000001b0: 33c2 b7be 59c5 8ebe 859e 083e 4fdc b03d
000001c0: a8b5 ac3e a706 f5be e060 90bd d7a0 8a3e
000001d0: d754 bfbe 61e2 f93d 258f 2dbe 69fa 0bbf
000001e0: fcd0 53be 3ab8 9b3d f7a8 a4bd 94a2 3abe
000001f0: 0690 f23e f5d5 b8bc 0752 b53d 3fd3 153f
00000200: ead5 75be fb0e fcbc e3c5 093e a5b0 2dbf
00000210: f027 99bd 6029 b7be a55e aebe cfc0 73be
00000220: 1eb0 b53e c381 713e 45cf 5ebe b0ce 823e
00000230: 785b 6c3e ac62 4b3d 90df 013d 67e5 d23e
00000240: 6419 acbd d5b5 203e a6f2 04bf f4a1 adbe
00000250: b51b 283e f064 1cbf e3a3 35bd 00bf 363e
00000260: 017c 3bbe 9256 683d 07b5 2c3c 37f6 e73a
00000270: 0426 ff3d 53e0 053e 0c5f de3d 5235 f33d
00000280: dea6 383d 7c77 013e 405d acbc 1936 4cbb
00000290: aab9 8cbd bdd1 6dbd 3dae 17bd b0c5 d9bd
000002a0: 70ee e3bb 7628 acbd 66ca 52bd bb9c 983e
000002b0: 814d bd3e cb4b b83e 0cbe 973e 309e 983e
000002c0: 0504 a93e 0b7d 7e3e e5e7 993e 31fc 933e
000002d0: fb2f b5bd 1e20 a9bd 44b0 87bd ec44 92bd
000002e0: c438 84bd 0358 8bbd 8673 d9bd c377 a9bd
000002f0: d174 d0bd 90b9 ad3c 0fcc 15be 0fd3 57bb
00000300: ce3b aabe 9507 003f cbc3 3fbf 2541 1b3e
00000310: 4d7e 0b3e f304 03bf 3a35 1d3c 5688 ef3d
00000320: 094e 1b3d be37 3cbd 3148 23bd 8f2d a23d
00000330: fb2c 203d f6ad 383d d040 1b3e fb41 8a3e
00000340: b371 9c3e 20e3 943e 84a3 3d3e d2e8 993e
00000350: 9657 a63e 5a19 543e dc1b 583e b5de 813e
00000360: 7def fc3d cb16 c33d 527c 063d 6bf4 0a3e
00000370: 6ced ed3d 4a9e b33c d347 af3d 1432 093e
00000380: dbab 263d c527 ee3c 625a e9ba 81e8 693d
00000390: ec2b 8b3d 09e3 e63b baa8 693c ed4b 6a3d
000003a0: 2c85 953d df2e a53d 54b0 9a3e de64 993e
000003b0: bc71 9b3e f7b4 833e 656a 653e 5829 a03e
000003c0: 97f1 8f3e d006 833e bc2a 803e a098 853d
000003d0: 154a 25be 4e9c 01be fa09 fc3d 739c 8a3d
000003e0: b734 043e d60c 823e 6433 323e 38ba 8c3e
000003f0: f847 283b 27ca 26bd af67 303d 39fe 08bd
0.102535546 -0.1696014 -0.22420727 0.018936848 0.7135364 -0.36939213 0.08106611 0.35947606
-0.4078311 0.016178476 0.11077023 0.06099036 0.056132697 0.12084918 0.07678583 0.043464858
0.08695649 0.13403988 -0.09026112 0.103570595 0.056356527 -0.35049212 -0.05187479 0.17667057
0.3546999 -0.6169453 0.6570403 0.06870702 0.08261192 0.008605902 0.053939667 0.021929925
-0.010529034 0.008415813 0.047270514 -0.017617753 -0.040062662 0.0023309656 -0.022547174 0.025137886
0.021363508 -0.036274526 0.057355147 0.044594288 0.05587563 0.112447694 -0.0795265 -0.20801906
0.17979386 0.123722 -0.10367092 0.25234663 0.029339546 -0.3678274 -0.32632887 0.30769303
-0.22389609 -0.09919717 0.39936918 -0.40716603 0.11770998 0.28220183 -0.0441432 -0.15234488
-0.09282969 -0.06781175 -0.1669005 -0.06671796 -0.016476596 -0.09884503 -0.03315929 -0.026905596
0.53639966 0.47992843 0.5686467 0.15186737 0.2635705 0.22828913 -0.06546751 0.23867682
0.37836054 -0.035599716 0.048242155 -0.030731013 0.0102896765 0.019202992 -0.060442757 0.020298485
0.081131145 -0.0046999394 -0.07500194 -0.0759791 -0.14680707 -0.09394726 -0.113598496 -0.19549124
-0.057995707 -0.1595026 -0.16846788 0.15061615 0.020449761 -0.030209737 -0.01394569 0.33703214
-0.13924108 0.23829783 0.38847643 -0.21787342 -0.3589035 -0.2788494 0.1334172 0.086357705
0.33732343 -0.47856638 -0.070497274 0.27075836 -0.37369415 0.122013815 -0.16949137 -0.5467897
-0.2068519 0.07603498 -0.0804004 -0.18226081 0.47375506 -0.02256296 0.08853536 0.5852546
-0.24007383 -0.030768862 0.13454394 -0.67847663 -0.074783206 -0.35773754 -0.34056583 -0.2380402
0.3548593 0.23584656 -0.21758755 0.25548315 0.23081768 0.049654648 0.031707346 0.41190645
-0.084032804 0.15694363 -0.5193275 -0.33912623 0.1641682 -0.6109152 -0.044345748 0.17846298
-0.18309022 0.056723185 0.010541207 0.0017697279 0.12458423 0.13073854 0.108579725 0.118754044
0.045081012 0.12643236 -0.021040559 -0.0031160174 -0.0687135 -0.05806135 -0.0370314 -0.10633409
-0.006955914 -0.08406155 -0.051462553 0.29807076 0.36973193 0.35995325 0.29637182 0.29808187
0.3301088 0.24852388 0.30059734 0.28903344 -0.08847042 -0.08258079 -0.06625417 -0.07142052
-0.0645614 -0.06803896 -0.106177375 -0.08274796 -0.10178531 0.021206647 -0.14628623 -0.0032932197
-0.33248752 0.5001157 -0.7490813 0.1516157 0.13622399 -0.51179427 0.00959521 0.11695926
0.037916217 -0.045951597 -0.03986377 0.07918846 0.039105397 0.045087777 0.15161443 0.27003464
0.30555496 0.29079533 0.18519408 0.3006044 0.32488698 0.20712796 0.21104378 0.25365224
0.12350366 0.09525832 0.032833405 0.135698 0.1161755 0.021926064 0.08558621 0.1339801
0.040691238 0.029071698 -0.0017803425 0.0571065 0.06795487 0.0070461077 0.014261419 0.057201315
0.07300791 0.080655806 0.30212653 0.29959768 0.3036021 0.25724003 0.22403868 0.31281543
0.28114006 0.25591135 0.25032604 0.065232515 -0.16141541 -0.12657282 0.123065904 0.067681216
0.12910734 0.25400418 0.17402416 0.27485824 0.0025677662 -0.04072013 0.04306763 -0.03344557

layer_stack_1.5.bias f4 [40]
00000000: ce65 8dbe e2ec c3be 44ec 64be 985a 46be
00000010: 0bb0 92be 9eb5 c7bd d38b 77be 7837 89be
00000020: 3871 d4be cab6 66be f7cb 95be c298 0abe
00000030: 0106 a1be e4da 86bd 504f 7dbe 6da2 8dbe
00000040: afe9 92be 5204 b6be 3424 71be bb82 45be
00000050: c3cd 7abd e223 6dbe dba8 ecbe fce9 76be
00000060: f7ed 43be acfd 7abe 7687 8ebe f4c3 62be
00000070: 3034 d0be 8181 96be 0886 a0be 3df2 81be
00000080: a814 72bd fc87 83be 0742 9dbe 1dc2 afbe
00000090: 475a 59be c1f8 adbe 418d 5ebe 4a64 9dbe
-0.27616733 -0.38266665 -0.22355753 -0.19370496 -0.28649935 -0.097514376 -0.24174432 -0.26800132
-0.4149263 -0.22530666 -0.29257175 -0.13534835 -0.31449893 -0.06584719 -0.24737287 -0.27662984
-0.2869391 -0.3555017 -0.23548967 -0.19288151 -0.061231386 -0.2315822 -0.46222576 -0.24112695
-0.19133745 -0.2451083 -0.27837723 -0.22145063 -0.40664816 -0.2939568 -0.31352258 -0.25380126
-0.05910173 -0.25689685 -0.30714437 -0.34327784 -0.21225844 -0.33978847 -0.21733572 -0.30740577

layer_stack_2.0.weight f4 [40, 40, 3, 3]
00000000: e9f3 3f3d 5811 b6be 0fdc 1a3d 67e5 aabd
00000010: 62ed 39be ff88 4a3d dd88 743c a434 45bd
00000020: 3836 51bc bbf3 793e e43c 28bd c942 60bf
00000030: 3906 a03d 787d 1abf 249d bfbe db8e d2bc
00000040: 349f dfbe 6d37 91be fe38 283e 5f28 593d
00000050: 6eb1 90bc 58fe 483d 9861 d6be 28a3 81bf
00000060: 45da 89bd eb59 73bf 2887 47bf ce42 e1bd
00000070: 302e b1bd 1762 4dbe 9143 b13e 072a 15be
00000080: 322e 373e feb9 a33e 3f2a fbbe 0bc0 f33d
00000090: 40f8 123e 6675 6e3e 3eb2 693e b7aa 82be
000000a0: c958 c7bd 247d fdbe 181c 503d 0801 b1bd
000000b0: 0004 1bbb 0cc4 e6be 55f5 e7be 246f bbbe
000000c0: bee7 be3d c57f ccbd cb6a 23bd 174d febd
000000d0: aef7 0ebf 0737 b03d 5fb7 103e 4462 44be
000000e0: d94a 9ebe 4fd2 073e f291 403d 9c4f 03be
000000f0: 5e10 073d 17a2 033e 5575 043e 9ef9 0d3e
00000100: 84d6 943e ff68 1f3e eca1 a33d 72e2 423e
00000110: b311 1c3d 60c7 723e 3ed6 cbbd 5752 2fbf
00000120: bdfb 773e 0011 9f3e 6595 f5bd 61d8 133e
00000130: 1cce 23be 546a 11bf b85d cfbb d244 1abf
00000140: a818 623d b69c 8a3c ddc6 19ba 6ed2 a0be
00000150: 3630 45bc 63d5 853e a3cb c0be 63d6 b1bd
00000160: 822c 3e3e 96fa 2cbe 3507 36bc 2ed0 b53e
00000170: 4105 1f3e 92ac 6bbe d272 8ebf 4d85 d1bf
00000180: 13e9 52bf f04d 94bf 45a7 1cbf 8b87 6d3e
00000190: afee 113d edf7 18bd 2e38 9cbe 983c 94bf
000001a0: 3e99 5abf d71d 18bf 9c84 8dbf e86c 12bf
000001b0: 474f 8c3e bcd4 ebbd 697c 48bf 16ed 223b
000001c0: f9bc 3f3d b99c 22bd 432f a73e 3646 86be
000001d0: 470f c0be f8e3 ab3e 8713 9cbe 44e9 cf3d
000001e0: 8267 1f3d 51e9 303e 08a1 943e c45a 00bf
000001f0: e84f 07bf d324 9abe 5264 8bbe 6fae c3bc
00000200: e1b9 61bb 0f3a 56be 7625 89bd 216b adbd
00000210: 328c 1a3e 06de a9bd 9b55 cfbd 5fd5 223e
00000220: f048 313d 3a90 373d cb17 013e f371 83bf
00000230: f268 23be 595a 62bf cbe7 21bf 0e4a 0bbe
00000240: 2748 16bc e4ca 593e 3084 2abe c8ec 773e
00000250: 54a7 8abe 5cf2 2abf 9778 ddbe 0d83 c0bf
00000260: f1f0 24bf 52f8 74bd 18e5 a0bd 8ca0 dcbe
00000270: e180 fc3d f418 dbbe e925 f73c 61c7 3bbe
00000280: 5d23 fcbe 656d 8bbe f3f7 35be 49ee 823d
00000290: d7e3 a93d e6a4 1fbb addf da3c 402e adbd
000002a0: 26fa 54bc c72d 00bf d635 f5bd 7261 6ebe
000002b0: 6072 103d bb2d a23c be7e 423d 9629 4fbd
000002c0: b1fa 183e 1165 88bd 0c64 edbd 00c8 8d3e
000002d0: b71e f33e 83a4 34be a927 243e 2723 8a3d
000002e0: f2d3 e6be 3f55 b83e b029 c9be 49c1 e63d
000002f0: bd76 6e3d 9b29 e7be d859 f6be e6c9 71be
00000300: 1761 af3d acb7 1b3e 1006 29ba 04fa 11bf
00000310: b8f1 16bf 6a41 44bf 6842 df3e cc94 c43e
00000320: d393 5d3e 2d82 5e3e 4272 353e f602 14be
00000330: 83fd b3bd 715e 433e 16a1 6cbe 6b50 083c
00000340: 0c29 49be 3042 23be ffc1 bb3c faf8 f1bd
00000350: 2644 37bd 920a 5ebc aeff 9abe 7ba8 7e3e
00000360: 7b29 4d3e 4d8a 783d bacb 19bf d35b df3d
00000370: b5e3 39bf d16f b33e 9afd 2fbe 884b a53d
00000380: ee0c cc3d 13c0 adbe cf33 a9bd f579 b93d
00000390: 25cd f0be 3306 91be 50f8 28be 09df bdbd
000003a0: 2306 c2bd 79b1 313e d593 9d3e 7ba1 813e
000003b0: 376e dd3e 0bdc 393e c835 8abd 63a0 eabd
000003c0: b13f 0a3e 2cf2 0a3c 0876 1d3e b3f1 1fbf
000003d0: a4d2 0d3d 79f4 973e b33c ecbd 2fb1 a93d
000003e0: 32f2 153d effe 96bd f236 9fbe 83ea b93e
000003f0: e060 013e 5f04 893e a95c 023f ee62 64bd
0.04686347 -0.35560107 0.03780752 -0.08344536 -0.1815696 0.049447056 0.014925209 -0.048145905
-0.012769274 0.24409382 -0.041073695 -0.87601906 0.07813687 -0.603477 -0.37424576 -0.025702884
-0.4367615 -0.283626 0.16427991 0.053017017 -0.01766273 0.049070686 -0.41871333 -1.0127916
-0.06731085 -0.9505908 -0.7794061 -0.1099907 -0.08651388 -0.2005695 0.34621862 -0.14566813
0.17888716 0.31977838 -0.4905567 0.11901864 0.14352512 0.23286971 0.228219 -0.2552087
-0.09733731 -0.49509537 0.050808042 -0.08642775 -0.0023653507 -0.45071447 -0.4530436 -0.3660823
0.09321545 -0.099853076 -0.039896768 -0.124170475 -0.5584668 0.08604246 0.1413245 -0.1917811
-0.3091648 0.1326382 0.047014184 -0.12823337 0.032974593 0.12854801 0.12935384 0.13864753
0.29069912 0.15567397 0.079898685 0.19031695 0.038102817 0.23708868 -0.09952973 -0.68485016
0.24217124 0.31067657 -0.11991385 0.14438011 -0.15996593 -0.5680287 -0.006328311 -0.6026126
0.055199295 0.016920429 -0.000586612 -0.31410545 -0.01203542 0.26139364 -0.37655362 -0.08683469
0.18571666 -0.16892466 -0.011110117 0.3551039 0.15529348 -0.23015049 -1.112879 -1.6368805
-0.82386893 -1.1586285 -0.61192733 0.23196237 0.035628017 -0.037345815 -0.30511612 -1.1580992
-0.8539008 -0.5942053 -1.1056094 -0.5719743 0.27404234 -0.11515185 -0.78314835 0.0024860553
0.046811078 -0.039700244 0.32653245 -0.26225442 -0.37511656 0.33572364 -0.30483648 0.10151914
0.038917072 0.17276503 0.29029107 -0.501385 -0.528563 -0.3010622 -0.27224976 -0.023886887
-0.0034443068 -0.20920585 -0.06696598 -0.08467699 0.15092543 -0.08294301 -0.1012375 0.15901707
0.04328245 0.04481528 0.12606733 -1.026915 -0.15958002 -0.8841911 -0.63244313 -0.13602468
-0.009172476 0.21268803 -0.16651988 0.24211419 -0.27080786 -0.6677606 -0.43256065 -1.5039994
-0.6443015 -0.05980713 -0.07856196 -0.43091238 0.12329269 -0.42792475 0.030169444 -0.18337776
-0.4924573 -0.272319 -0.17770366 0.063931055 0.0829541 -0.0024359762 0.026717985 -0.08456087
-0.012999093 -0.5006985 -0.11973159 -0.2327936 0.035265326 0.019797197 0.047484152 -0.05057677
0.14939381 -0.06659902 -0.11591348 0.2769165 0.4748437 -0.17640881 0.16030754 0.06744986
-0.45083576 0.36002538 -0.39289618 0.11267335 0.058218706 -0.4514893 -0.4811542 -0.23612174
0.0856344 0.15206784 -0.0006447742 -0.5702212 -0.58962584 -0.76662314 0.4360535 0.38394773
0.21638422 0.21729346 0.17719367 -0.14454255 -0.08788588 0.19078995 -0.23108324 0.008319954
-0.19644564 -0.15943217 0.022919653 -0.11815067 -0.044742726 -0.013552325 -0.30273193 0.24868958
0.20035355 0.06067877 -0.6007649 0.10906186 -0.7261308 0.35046247 -0.17186585 0.08071047
0.09963404 -0.33935603 -0.08261835 0.090564646 -0.47031513 -0.28325042 -0.16500974 -0.09271056
-0.09473827 0.17352857 0.3077685 0.25318512 0.4324815 0.18150346 -0.06748539 -0.114563726
0.13500859 0.00848059 0.15377057 -0.6247818 0.03462471 0.29678705 -0.11535015 0.08285748
0.03660793 -0.073728435 -0.31096607 0.3631173 0.12634611 0.26761147 0.5092264 -0.05575841

layer_stack_2.0.bias f4 [40]
00000000: 2a5c ed3f ef72 e53f e00a 803f 57dd 9a3f
00000010: ef19 ad3f 9e1f 0b40 f7bd b13f 10b0 473f
00000020: f74d 0f40 af4b 0440 88c4 8c3f d434 e03f
00000030: b4c3 9b3f ffe5 de3f af40 a03f 1721 2940
00000040: 5748 243f 3512 653f c77f 913e 484d 0e3f
00000050: 4536 9a3f 2284 ff3f 46d3 3e40 17f1 a63d
00000060: 84a5 983f cc5a c43f ef26 8b3d b2f2 9e3f
00000070: 7b22 973f 094d 3a40 1669 1dbf e99c 943f
00000080: 3a39 7a3f 70e5 1d40 91ea 5d3f 0752 c93d
00000090: 71a0 753f 0f42 2d40 c801 8b3f 6617 0840
1.8543751 1.79257 1.0003319 1.2098798 1.3523539 2.1738048 1.3886098 0.78003025
2.2391336 2.0671194 1.0997477 1.7516122 1.2169099 1.7413939 1.251974 2.6426446
0.6417288 0.89480907 0.284178 0.5558667 1.2047812 1.9962199 2.981645 0.08151453
1.1925511 1.5340209 0.06794535 1.2417815 1.1807398 2.9109519 -0.61488473 1.1610385
0.9774357 2.4671288 0.86686045 0.098300986 0.9594794 2.707157 1.0859919 2.1264281

layer_stack_2.2.weight f4 [40]
00000000: 8196 813f 4180 9a3f e825 6d3f 1baf 763f
00000010: d79d 973f 3abf 883f 2d53 9c3f 615f 943f
00000020: 5950 663f 5e4b 8a3f 18d5 7d3f 28d1 953f
00000030: 4025 3d3f 0267 a03f 439d 6b3f 8337 6b3f
00000040: 0a78 793f 209d a03f ead5 903f 303f 883f
00000050: f1c6 8b3f a704 783f aa93 903f 61b5 823f
00000060: 23de 933f a7d5 883f bac2 8a3f 0d44 833f
00000070: 01aa 8a3f 9575 893f a54a 403f fded 8e3f
00000080: 38f6 9d3f 8769 773f 05c3 963f 6af8 8d3f
00000090: d08f 8e3f e072 793f f83d 7c3f db1a 983f
1.0124055 1.207039 0.92635965 0.9636094 1.1845044 1.0683358 1.2212883 1.1591607
0.8996635 1.080425 0.9915328 1.1704454 0.73884964 1.2531435 0.9203684 0.9188158
0.9744879 1.2547951 1.1315281 1.0644283 1.0920087 0.968821 1.1295063 1.0211602
1.1552166 1.0690202 1.0840676 1.0255142 1.0833131 1.0739008 0.751139 1.1166378
1.2340765 0.96645397 1.1778265 1.1091435 1.1137638 0.9744091 0.98532057 1.1883196

layer_stack_2.2.bias f4 [40]
00000000: c395 0a3e 82bd ae3e c3e3 ed3e d4e5 d23d
00000010: 4a1e c53e d0bb df3d e4c9 a93d 6f19 9a3e
00000020: e1c0 d63d 194a 9f3d ae87 933e 53de 483e
00000030: 6d4c 913d cbaf 983e 8db7 873e f4a2 213d
00000040: 5c3f 8a3e 7401 db3e 43a5 743e 887b 983e
00000050: 1a7b 893e 8973 223e 75ea b43e 2c06 303e
00000060: 3cae 3a3e 858a e13d 9d3b 753e 2995 d23e
00000070: 423e 973e 34af 4a3e ced2 173f 2232 9d3e
00000080: 1fce 8e3d 3bed 4e3e 792c a23e cb7c e03e
00000090: 2700 b43e 4303 de3d f362 153e ab5a 993e
0.13533692 0.34128958 0.4646283 0.102977425 0.3849967 0.10924494 0.08290461 0.3009753
0.104860075 0.07777805 0.28814453 0.1961606 0.07094655 0.2982162 0.26507226 0.039462045
0.27001464 0.42774546 0.23891167 0.29781747 0.26851732 0.15864386 0.35335127 0.17189854
0.18230528 0.11012749 0.23948522 0.41129425 0.29539686 0.19793397 0.5930604 0.3070231
0.06972908 0.20207684 0.31674555 0.4384521 0.35156366 0.10840466 0.14588527 0.29951987

layer_stack_2.2.running_mean f4 [40]
00000000: 8570 3c40 9895 3641 a3c5 b441 5271 e440
00000010: ee14 2a41 8a79 3041 1020 d73f a31e 4c41
00000020: cfc5 4640 17f6 2f40 d172 c741 fd29 1e41
00000030: 3932 ce3f 7e99 ae40 503c bb40 95a8 503f
00000040: 6874 2041 4e52 8c41 2ad5 9f40 b230 8d41
00000050: c704 d940 702f 7c40 25d4 b140 6fc1 eb40
00000060: e950 4d41 a35a b740 712b cf40 e389 be41
00000070: 745b 8a41 d562 0541 c302 8542 e1fb ab40
00000080: 9434 3c40 f8e9 5540 ed1f ad41 f9de 9141
00000090: c8c5 0641 0f9e 7840 51c6 3640 5e09 ce40
2.9443676 11.411522 22.596502 7.138833 10.63011 11.029673 1.680666 12.75748
3.1058233 2.7493951 24.931063 9.885251 1.6109077 5.456237 5.8511124 0.81507236
10.0284195 17.540188 4.994771 17.648777 6.781833 3.9403954 5.5571465 7.3673625
12.832253 5.729814 6.474053 23.817327 17.294655 8.336629 66.505394 5.374497
2.940709 3.3424053 21.640589 18.233873 8.423286 3.8846471 2.8558543 6.4386435

layer_stack_2.2.running_var f4 [40]
00000000: da0e f042 8207 0f44 3a16 9444 a1d8 ac43
00000010: e80d 2344 70ea 0f44 0b1e 8042 e4e9 3344
00000020: c2a3 cf42 37dc bc42 cca3 ec44 4b40 2344
00000030: e28c 6842 f114 9b43 02ea 9343 1d35 5641
00000040: 9ea9 2a44 108c 8544 7591 9543 f15f c644
00000050: 2b47 a743 0cb2 3443 3d50 4143 3767 bf43
00000060: 94d1 4e44 245c 7643 d9e7 e343 6ad9 a944
00000070: 8fab cf44 fcf5 af43 2925 9745 2c5e 8243
00000080: d8f0 2443 12d9 0243 fc73 f944 4483 9744
00000090: a790 ff43 b33c 2a43 9c2d 1243 62f5 9343
120.02901 572.1173 1184.6946 345.6924 652.2173 575.6631 64.05868 719.65454
103.81984 94.43011 1893.1187 653.0046 58.13758 310.1636 295.8282 13.387967
682.65027 1068.377 299.13638 1586.9982 334.556 180.6955 193.31343 382.80637
827.27466 246.35992 455.8113 1358.7942 1661.3612 351.92175 4836.645 260.73572
164.9408 130.84793 1995.6245 1212.102 511.1301 170.2371 146.17816 295.91705

layer_stack_2.3.weight f4 [40, 40, 3, 3]
00000000: 0da9 a33d 8d7d 0d3f fb95 c13e 7e00 88be
00000010: 9745 d4bd c9bc 92bd f436 9bbe 1cdb eebd
00000020: d39b 8dbd b7b7 b43b fe0e 2c3e bc66 8c3e
00000030: 8ea1 533d 99dc 94be ad2e 1cbe a7bc f5be
00000040: eb46 04bf 6d96 23bd 3108 003f 36fc 133f
00000050: 4d0f a2bd fb24 99be a02a a33e f323 c03c
00000060: 8171 a3be 2ae1 6a3e 3d77 bcbd 9e07 253d
00000070: bdfc bbbd c992 703d 706e 55be fc94 84be
00000080: f41a 9dbe c7c8 64be cefe 98bc f3da 4bbe
00000090: 04fc 64bf 5eab 31bf 5423 44be 2571 2bbe
000000a0: 39db 15be 674f 74be fc4e ff3b 367e 63bc
000000b0: 72a1 bcbd 3273 153e d70a 47be 57f6 2dbf
000000c0: c780 40be bc0e 12bf 06ef d1be a4af 0bbf
000000d0: 85ee 17bf adf6 c2be 9375 afbd 27ae 2d3d
000000e0: e98c d1bb a8b1 03bd b3a0 a5be a9d9 88be
000000f0: 81f9 15bd 8a4a 24bf 5b9a 3bbe 0d57 13bf
00000100: 4f0e 3ebf f45e 05bf 03be 58bd ad20 b2be
00000110: a8e4 4bbe f0e3 f6bc 23fb edbe a973 00bf
00000120: 1fb3 dd3e 526e c53e 9d0a 733d 89de f33d
00000130: e689 bb3d c1b6 8e3d 5067 093e 00de 383d
00000140: 8151 323e 8ba0 96bf 2930 4cbf d2cc a7bd
00000150: 1ecd 0abf cc45 8fbe 4c39 123e c579 8bbd
00000160: bd2d 2bbe ba5c a33c b3e0 ccbd a040 02be
00000170: f04e 963d 44bf f6be b308 3dbe 2d82 913e
00000180: 201a 01bf 9adf 01be 9c4e 823d 97c9 bcbc
00000190: a98f 3ebe ef1a 14bf a624 66bd b095 94be
000001a0: d8ca 8cbe 5653 263e 8c39 833e 96ea 263e
000001b0: b954 533e 693c da3c e1b0 bcbe 5a44 a13e
000001c0: 17cb 023d 42f4 95be b0ea 1ebe 38a2 53bc
000001d0: ff96 c63d 10b2 2a3e 84c3 c4bd d7d7 a9bd
000001e0: 4860 34bf 7b9e 82bf 4860 c4be 7976 74be
000001f0: db76 1fbe 9b38 36be 41d1 803e 15d6 52bd
00000200: f14a 66be 8980 2bbe 35ec 9a3c 23e4 37be
00000210: 5bef 9fbe 5302 a23e 2ddd 373e dca4 54be
00000220: 2894 5abe 3b56 d4bd c410 1abe a912 6a3d
00000230: 04d4 ac3d 645e ddbc e65b b4bd 2bef 8bbb
00000240: 96fb 14be 8a3a ebbd 0b13 a9be 6f8c 13bd
00000250: 1f9a b6be 24f9 38bf 46e9 cfbe 86f9 21bd
00000260: e91c 2bbe 15ea 0cbe dafe 62be 3de6 41be
00000270: 0657 a6bc a929 d4be 4941 48bd bc8b 00be
00000280: 077f a2bc def1 21be 339a 03be aa65 20be
00000290: 58b6 83bf e240 a0be 3d28 a5be bdf9 d0be
000002a0: 28f3 09bf 9f81 2f3e 1a7f 3d3d 4244 efbd
000002b0: 88f3 713c 97e8 cb3b 4ce3 80be 6b4a 79be
000002c0: 65f0 c6be c8a3 86be ee81 2fbe c46f d3bd
000002d0: de21 1fbc e1b0 ddbd 72be dabd 67dd a1be
000002e0: 2474 66be 93d0 0bbe 0872 8abf ede2 1abd
000002f0: 2fc6 94bd d207 4bbe 6030 0abe 0817 17bf
00000300: 24b3 103e 8d75 8c3e 0ba7 053e 1fa5 b4be
00000310: 2a6c f8be b3ba dbbe cb61 6d3e 50ec c33e
00000320: 119d 893e e744 333d 7550 70bd bd80 febd
00000330: 5b57 4abe ba5b 13bf 604f 06be 64e1 0b3e
00000340: ab89 753e 970e 09bf 46a4 463e 0c7a 123f
00000350: 0cbc fa3d 9808 aa3d 6680 cb3e 77bd 21bc
00000360: 991e a5be c2ae 9fbe ccb9 15bf 1727 693d
00000370: a130 df3d fd17 30be c672 d83d 797f 7e3e
00000380: a8ae 963e eb2f 15bf 6df3 e0be 23be 02bf
00000390: 7a96 463e bac0 d13d 1ddb e03c 7e54 fb3e
000003a0: ea35 6b3e fc87 b3bd 4739 f2be 54c7 15be
000003b0: ced7 a23e a430 2dbe 186a 56be 9198 6fbe
000003c0: 595c 5bbe 46e7 06be f6f0 5e3e 3dfc ffbe
000003d0: 014d 19be 42df 20be ee6d 993e 850e ab3d
000003e0: ece3 003e a891 863d 5340 593e deea 083f
000003f0: e440 0ebf b511 1ebf 202a 02bf 4df7 eb3e
0.07991228 0.552697 0.3780974 -0.26562876 -0.10364836 -0.07164914 -0.30315363 -0.116628855
-0.06914487 0.0055150646 0.16802594 0.2742213 0.051667742 -0.29074553 -0.1525218 -0.47995493
-0.5167071 -0.03993838 0.500125 0.5780672 -0.07913075 -0.29911026 0.31868458 0.023454642
-0.31922534 0.22937456 -0.092024304 0.040290467 -0.091790654 0.058733735 -0.2084291 -0.25894916
-0.30684626 -0.22342215 -0.018676188 -0.19907741 -0.89447045 -0.6940211 -0.19154102 -0.1674238
-0.14634408 -0.23858415 0.007791398 -0.0138850715 -0.09210481 0.14594725 -0.19437729 -0.6795401
-0.18799125 -0.5705373 -0.41002673 -0.5456488 -0.59348327 -0.38078824 -0.085673474 0.042402413
-0.0063949716 -0.032151848 -0.32349166 -0.26728562 -0.0366149 -0.6417624 -0.183206 -0.57554704
-0.74240583 -0.5209801 -0.052915584 -0.34790555 -0.19911444 -0.030137986 -0.46480665 -0.50176483
0.4330072 0.3856073 0.059336293 0.119076796 0.091571614 0.06968451 0.13418317 0.04513359
0.17413904 -1.1767744 -0.79760987 -0.08193363 -0.54219234 -0.27982938 0.1427967 -0.06810335
-0.16716667 0.019941676 -0.100037955 -0.12719965 0.07339275 -0.481928 -0.1846035 0.2841963
-0.5043049 -0.12682953 0.0636265 -0.023045344 -0.1860949 -0.578536 -0.056187294 -0.29020452
-0.27498507 0.16242728 0.25629842 0.16300425 0.20637788 0.026640134 -0.36853698 0.3149746
0.031931963 -0.29287916 -0.15519214 -0.012917094 0.09696769 0.16669488 -0.09607604 -0.08293121
-0.70459414 -1.0204614 -0.38354707 -0.23873319 -0.15572684 -0.17795031 0.25159648 -0.051473696
-0.22489525 -0.16748251 0.01891146 -0.17958121 -0.312373 0.31642398 0.17955466 -0.20766014
-0.2134558 -0.1036801 -0.15045458 0.057146702 0.08438876 -0.027022548 -0.08806591 -0.0042704544
-0.14549097 -0.11485775 -0.3302234 -0.0360226 -0.3566446 -0.7225516 -0.4060766 -0.039544605
-0.16710247 -0.1376117 -0.2216753 -0.18935485 -0.020305168 -0.41438034 -0.048890386 -0.12553304
-0.019835962 -0.15814921 -0.12851791 -0.15663782 -1.0290022 -0.31299502 -0.32257262 -0.40815535
-0.5388665 0.1713929 0.04626379 -0.11682941 0.014767535 0.006222795 -0.25173414 -0.24344794
-0.3885528 -0.2629683 -0.17139408 -0.10324052 -0.009712664 -0.108247526 -0.10680856 -0.3161423
-0.22505242 -0.13653784 -1.081605 -0.03781407 -0.07264363 -0.19827202 -0.13495016 -0.5901952
0.14130837 0.27433434 0.13052003 -0.35282227 -0.48520023 -0.42915878 0.23181836 0.3826623
0.26877645 0.043766882 -0.05867048 -0.12426899 -0.19759886 -0.5756184 -0.13116217 0.13660198
0.23978297 -0.5353789 0.19398603 0.5721748 0.12242898 0.083024204 0.39746398 -0.009871832
-0.32249907 -0.31188017 -0.5848663 0.056922045 0.10897947 -0.17196651 0.10568766 0.24853314
0.29430127 -0.5827624 -0.4393572 -0.51071376 0.1939334 0.10241838 0.027448231 0.490879
0.22969785 -0.08766171 -0.47309324 -0.14626819 0.3180527 -0.16913086 -0.20938909 -0.23398043
-0.21421947 -0.13174161 0.21771607 -0.4999713 -0.14970781 -0.15710166 0.29966682 0.08352379
0.12586945 0.065707505 0.21215944 0.5348338 -0.55567765 -0.6174577 -0.5084553 0.46087113

layer_stack_2.3.bias f4 [40]
00000000: 344c 1d3e fc11 14bf 9eaf 5fbe ac17 7ebe
00000010: cc1a 4dbe 8d75 8dbe ee7b 8ebe 2b49 ba3d
00000020: a7ea f83e df55 47be 82d2 0cbf 297e 10bf
00000030: 8f67 233d 4ded 283e 3f85 58bd 2716 2bbe
00000040: 42c1 2e3d 3878 f2be e6f1 91be d2cc a9be
00000050: daff 4cbe ce2c 243d d7ab 81be 260b 8d3e
00000060: 2c48 99be afa1 02bd 1ae4 c3be cee5 a2bf
00000070: c228 8b3d 6c65 b2be 8d6a 313e 5f93 cabe
00000080: 2e94 9abe efff 663e ef74 99be 4174 59bd
00000090: 60a8 51bf 5dc8 09bf 9841 6b3d fa4a 00bf
0.153611 -0.5783994 -0.21844336 -0.24813718 -0.20029753 -0.27628747 -0.27828926 0.09095987
0.48616526 -0.19466351 -0.5500871 -0.56442505 0.039893683 0.16496773 -0.05286145 -0.16707669
0.042664774 -0.47357345 -0.28504866 -0.33164078 -0.20019475 0.04008179 -0.25326416 0.27547568
-0.29937875 -0.031892475 -0.38259965 -1.2726381 0.06794883 -0.34843004 0.17325802 -0.3956556
-0.30191177 0.22558568 -0.29972026 -0.053089384 -0.81897545 -0.53821355 0.057435602 -0.50114405

layer_stack_2.5.weight f4 [40]
00000000: aa9c 833f 3a1b 823f 569d 843f 7ab1 983f
00000010: b833 813f 33ed 8c3f 6b43 7f3f 1703 a93f
00000020: 0636 623f 5e09 a03f 5eab 903f d1be 753f
00000030: c884 6e3f 30a2 7e3f c2f5 943f da57 963f
00000040: d7e3 8f3f 0b9b 713f 261f 963f 061f 843f
00000050: 2e17 973f e9e9 903f c7b6 7c3f 48b8 923f
00000060: a848 6b3f e728 a03f 7fd4 753f dcfa 793f
00000070: 65e1 843f 656d 863f 2ae3 813f 5fd0 6d3f
00000080: ce83 793f a563 8d3f c762 913f ab25 803f
00000090: 3637 8b3f 402d 8f3f 0927 803f 0de4 663f
1.0282185 1.0164559 1.0360515 1.1929162 1.0093908 1.1009887 0.99712247 1.3204068
0.88363683 1.2502859 1.1302297 0.9599429 0.9317136 0.9946623 1.1637499 1.174556
1.1241406 0.943772 1.1728256 1.0321968 1.1803949 1.1321384 0.98716396 1.1462488
0.9190774 1.2512482 0.9602737 0.97648406 1.0381285 1.0502135 1.014745 0.92896074
0.97466743 1.1046034 1.135827 1.0011495 1.0876224 1.1185684 1.0011913 0.9019173

layer_stack_2.5.bias f4 [40]
00000000: bf7b 013d a84c 023f 13a5 323e 09bb f13e
00000010: cc6c 613e e23c 503e 9f7c 1fbe 6c87 eb3e
00000020: 73ab b93d 7774 433e 7fd3 ed3e 6f6f 8d3d
00000030: 56ef b23d 0953 7e3e b553 ab3e e60b aa3e
00000040: 5eac e93e 7f38 aa3e f172 d43e 2fbb bc3e
00000050: 95f6 9b3e bcde a03e da40 193e 801f 3c3e
00000060: 10f5 dd3d f59a ab3e 34b2 7d3d 2e13 f33e
00000070: 10b1 873e e4dc 203d 8f6c 0a3f c9a9 023c
00000080: de03 c03e 9d6f b03b 64b4 693e dc76 f33c
00000090: e9e5 df3e 445e a33d c5db 943e 21b2 dc3c
0.031612154 0.5089822 0.17445783 0.4721301 0.22014159 0.20335725 -0.15574883 0.46001756
0.090659045 0.19087397 0.4645042 0.0690602 0.08737056 0.24836363 0.334623 0.33212203
0.45639318 0.33246228 0.41493943 0.3686156 0.30461565 0.31419933 0.14966145 0.18371391
0.108377576 0.3351666 0.061937526 0.4747557 0.26502275 0.039273158 0.540719 0.00797505
0.3750295 0.005384399 0.2282272 0.029719763 0.43730095 0.07976964 0.2907392 0.026940407

layer_stack_2.5.running_mean f4 [40]
00000000: cacd 913f 958b c03f 1ad8 5a3f c40e f53f
00000010: 2254 a13f 3b54 8b3f d808 243f 02b2 a03f
00000020: ee92 233f 3750 643f 9254 d53f 41d9 183f
00000030: aa73 6b3f a247 ad3f b2a0 bd3f 675c 8c3f
00000040: d2c2 d73f dbc9 8c3f c0f1 bc3f dcf5 843f
00000050: e726 f93f 0086 8c3f 726a 5c3f 2416 b23f
00000060: 74e3 213f b60c cf3f 4e0e c93e 57c8 5840
00000070: 1509 dd3f b482 f03e 2d54 5b3f 20a8 843f
00000080: 0e86 923f e9a4 ad3f 3fa9 e63f 67a4 7f3f
00000090: cf32 903f cac2 843f adc3 be3f 2f2b d43f
1.1390927 1.5042597 0.85485995 1.9145131 1.26038 1.088508 0.64075994 1.2554324
0.6389607 0.891849 1.6666434 0.59706503 0.91973364 1.3537486 1.4814665 1.0965699
1.685633 1.0999101 1.4761276 1.038753 1.9464997 1.0978394 0.8609992 1.3913007
0.6323769 1.6175754 0.39268726 3.3872278 1.7268397 0.4697472 0.8567532 1.0363808
1.144716 1.3565952 1.80204 0.99860233 1.1265506 1.0371945 1.4903466 1.6575679

layer_stack_2.5.running_var f4 [40]
00000000: fca3 d140 88a5 2a41 79c1 bc40 4174 5b41
00000010: ad48 3941 c7b2 c740 e7df 9640 a924 df40
00000020: 7765 4340 e2f6 a940 51ba 6f41 20b6 8640
00000030: f90b cf40 6269 3c41 cfa2 1941 5d2d db40
00000040: 8af0 3041 7a3e e040 044f 4f41 cde7 cf40
00000050: 6b24 8541 3c8b c940 b3d7 9740 cbc0 0141
00000060: faa8 8840 ff35 4c41 1211 f33f 58f6 0b42
00000070: 1f34 3541 a445 1040 3ab0 8840 48cc 1941
00000080: 2841 ce40 6cf1 1641 26b7 9d41 7948 d740
00000090: 1ef7 0441 904b df40 cf70 3741 a4e3 3b41
6.5512676 10.665413 5.8986173 13.715882 11.580243 6.2405734 4.714832 6.973225
3.053068 5.311387 14.982987 4.209732 6.4702115 11.775728 9.602248 6.8492875
11.058725 7.0076265 12.956791 6.497046 16.642782 6.2982464 4.7450805 8.109569
4.270627 12.763183 1.8989584 34.99057 11.325225 2.2542505 4.271512 9.612373
6.4454536 9.433941 19.714428 6.7275968 8.310331 6.977974 11.465041 11.743076
